models/Angle1bk.pt (torch, 3287 bytes, 5 tensors)

stiffness.eig_ f4 [2]
000000 48 e3 76 40 79 29 8f 3f
       3.8576221 1.1184531

stiffness.vec_ f4 [2]
000000 58 08 30 3f a9 b0 5e bd
       0.6876273 -0.054367695

embedding.net_.net_.0.weight f4 [64, 2]
000000 ea 80 2f be 9f 0b 55 bf 36 e7 4c 3f 1f 72 04 bf
       -0.1713902 -0.8322086 0.800403 -0.51736635
000010 a9 a2 46 3e 2e c2 de be 71 67 67 3e ba 48 9e 3e
       0.19397987 -0.43507522 0.22598054 0.3091486
000020 3c d9 6a 40 e9 1c 87 3e a9 fc 85 be 03 f1 80 bf
       3.669509 0.26389244 -0.26169327 -1.0073551
000030 15 8f ff 3f 29 d5 c1 bf 69 e4 2f 40 01 54 b0 bf
       1.996554 -1.5143176 2.748316 -1.3775636
000040 70 f7 75 3f e4 df 4f bf 26 8a 5a 3d 30 9d 95 3e
       0.96080685 -0.81201005 0.053354405 0.29221487
000050 08 8a 12 bd bd 4c 54 be fb fa 8f 3e 7b e1 ae be
       -0.035776168 -0.20732398 0.2812117 -0.34156403
000060 91 89 b1 3c 68 3b f0 bd 30 c0 9b 3f fd a1 3a 3e
       0.021672042 -0.11730081 1.2168026 0.18225856
000070 7a 96 be bc 80 2a 8e 3d 47 b1 ba be d9 08 79 3e
       -0.023265112 0.069417 -0.36463377 0.24319781
000080 29 00 0e bf bd e3 5a bf 1b 73 ed be 66 be 76 bf
       -0.55468994 -0.8550375 -0.4637688 -0.96384275
000090 2d 48 9f be 4f 79 3d be 9b e2 94 bf df 57 2e bd
       -0.31109753 -0.18503307 -1.1631655 -0.04256427
0000a0 28 fe c4 3f c7 d2 90 3e f5 58 1e 3f f4 75 55 be
       1.5390062 0.2828581 0.6185449 -0.20845777
0000b0 76 bf d6 bf 2d 98 05 be 4c e8 7a bf 93 1e 87 bc
       -1.6777179 -0.13046332 -0.98010707 -0.016494071
0000c0 7d 87 30 be 14 2f 22 bf a5 69 0e 3f 0b 57 12 bf
       -0.17239185 -0.63353086 0.5562995 -0.5716407
0000d0 9c 6b 90 be 0a ab 78 bf 4e ba 86 3f 04 3c 83 3d
       -0.282071 -0.97135985 1.0525606 0.064079314
0000e0 7d 39 23 bf 4c f6 db 3e 20 84 b4 be 37 8a b2 3d
       -0.63759595 0.42961347 -0.35257053 0.08717769
0000f0 2e 03 38 bc 65 0d 84 3e 95 cb 0e 3e 73 49 45 3f
       -0.011231227 0.2579147 0.13944848 0.770652
000100 b7 30 ca 3c 6f 56 b4 3d c8 e7 b4 3f 41 f9 05 bf
       0.024681432 0.088055484 1.4133234 -0.52333456
000110 44 8d 73 40 b0 b4 9c 3f f8 d9 63 bf f2 9d 0c bd
       3.8054972 1.2242641 -0.8900447 -0.034330316
000120 5e 65 52 3f a8 3a a0 3f 6e dc cf be f0 19 20 be
       0.82185924 1.25179 -0.40597862 -0.15634894
000130 3f 8e 01 3f 93 9b 27 bf 02 9c 8f 3e 9e fb d9 be
       0.50607675 -0.6547176 0.28048712 -0.4257478
000140 1a 91 6c bd 7a 18 38 3f 8c 9b 8d bf 4e d0 48 3e
       -0.057755567 0.7191235 -1.1063094 0.19610712
000150 fc d0 93 be 65 d5 32 3f a4 f5 47 3f 76 f2 12 be
       -0.2887038 0.69856864 0.7810919 -0.14350304
000160 67 8e d4 be 48 ab 32 be 93 97 56 3e 57 8f 5a 3f
       -0.41514894 -0.17448151 0.20956258 0.8537497
000170 90 c6 2b 3f 38 88 6b 3e 7e 1f 7c 3e 65 42 bf be
       0.6709986 0.23001182 0.24621388 -0.37355343
000180 83 8f d5 3e 4a 21 6a 3d 2c 91 6f c0 c3 d0 c8 3f
       0.41711053 0.057160653 -3.7432356 1.5688709
000190 f0 fd b6 be f9 d4 00 3f f7 b6 44 3f 45 f3 da 3e
       -0.35740614 0.5032497 0.7684168 0.42763725
0001a0 9f c7 2f 40 35 27 91 bf 19 ec 57 3f 2d 20 de bd
       2.746559 -1.134009 0.8434463 -0.10845981
0001b0 76 2e b2 bc 74 46 f3 3e 4f 2b be bf e5 86 03 40
       -0.02175067 0.4751469 -1.4856967 2.0551083
0001c0 82 ae 9b 3f 16 9f 7a bf 1f 10 87 3f 06 a6 3a bf
       1.216263 -0.97898996 1.0551795 -0.7290958
0001d0 ab b3 51 3e f1 b7 d8 3d 6f 2d 97 3f ad 2f 0e 40
       0.20478694 0.10581959 1.181074 2.22166
0001e0 a8 a0 6b be f9 c8 30 3c c7 7d 82 bf 13 d4 cb be
       -0.23010504 0.010790103 -1.0194634 -0.39810237
0001f0 c8 a3 c2 be f7 22 04 3f aa 20 93 bd e2 6b 35 bf
       -0.3801558 0.5161585 -0.071839646 -0.7086774

embedding.net_.net_.0.bias f4 [64]
000000 90 46 17 3d 25 68 af 3e f7 db 9f 3e 4f 67 b0 3e
       0.036932528 0.34259143 0.31222507 0.34453818
000010 7c 1d d2 3f f0 90 9a 3f 42 b6 99 3f 0f 6c b4 be
       1.6415248 1.2075481 1.2008746 -0.35238692
000020 27 15 ea 3c 4d d9 cd 3d 52 83 23 3f 96 d7 b5 bd
       0.02857454 0.100512125 0.63872254 -0.088790104
000030 14 ee 11 3f f3 f2 7a 3f ac 54 26 bf c1 57 09 bf
       0.57003903 0.9802696 -0.6497295 -0.53649527
000040 08 19 a8 3e 7a 84 72 3e f7 90 02 bf 11 d1 66 bf
       0.32831597 0.23683348 -0.5100245 -0.9016276
000050 9f 4d 96 3f f6 88 19 bf 67 ae 8a bf d1 db 08 3f
       1.1742438 -0.5997461 -1.0834473 0.53460413
000060 48 80 6c bd 6f bd 4b bf f0 d3 e9 3c a7 cc 50 3f
       -0.057739526 -0.7958593 0.028543442 0.81562275
000070 3c 71 e1 be eb 8c 0a 3e cc fc 8c 3e 19 b9 9e bf
       -0.44031703 0.13530318 0.2753662 -1.2400237
000080 e0 23 67 be d8 11 94 bf 80 20 4e bf 2c b0 36 bf
       -0.22572279 -1.1567945 -0.8051834 -0.71362567
000090 61 50 d0 bf 37 42 4c be 84 d6 8d 3e 80 84 2b 3f
       -1.627453 -0.19947134 0.27702725 0.66999054
0000a0 75 4e 4d bf 43 92 40 bf 7c 75 e5 be 02 82 52 3f
       -0.8019784 -0.7522318 -0.44816196 0.82229626
0000b0 70 d5 ba be 33 ea 8f bf 6e c7 03 3f 25 c9 f5 be
       -0.36490965 -1.1243347 0.5147618 -0.48005024
0000c0 35 d6 2f 3f 71 24 99 bf 6e 20 be be a7 a3 81 3f
       0.6868623 -1.1964246 -0.37134117 1.0128068
0000d0 4a 35 77 3f 93 ce 6f 3f 0d 37 2f 3e 8c c8 8f 3f
       0.9656569 0.9367458 0.17110844 1.1233077
0000e0 31 ad e6 bd f4 0c 95 3c a2 93 59 be 12 47 29 40
       -0.112635024 0.018194653 -0.21247724 2.6449628
0000f0 12 d5 6a bf c0 6e 95 bf 85 8b 6c be 6d 02 43 bd
       -0.9173137 -1.1674423 -0.23100097 -0.047609735

embedding.net_.net_.2.weight f4 [1, 64]
000000 84 5d bb be 2f 51 a7 3d 2b db 81 bc e6 3c 69 3d
       -0.36594784 0.081697814 -0.015851578 0.056942843
000010 88 c2 89 3f ca 83 94 3e e3 ad 90 bf 58 ad 10 3f
       1.0762491 0.29006797 -1.1303066 0.565145
000020 9e ff 87 3e 92 45 a0 3d ef 9c 8d bd 13 68 55 3b
       0.26562208 0.078257695 -0.06914698 0.0032563254
000030 32 2b 2a bd 7c 97 81 3e cc de 4b 3d 17 0c 27 be
       -0.0415451 0.25310886 0.049773023 -0.16313206
000040 b4 20 15 be 5c ed 87 bd 9a 4c 5f be 2e 08 8e be
       -0.14563257 -0.066370696 -0.21806565 -0.27740616
000050 db 4a 87 3e 11 0d bf bd 5d a5 af be 57 65 8e 3e
       0.26424298 -0.09328664 -0.3430585 0.2781169
000060 74 a4 56 be bc b8 0a be df 11 ec be d3 12 91 3e
       -0.20961171 -0.13547033 -0.46107385 0.28334674
000070 0d 16 2a bd 00 41 7f bd 13 dc 1a 3e 05 b5 71 be
       -0.041524936 -0.06231785 0.15123014 -0.2360421
000080 36 36 0a bc bd d5 a0 be 90 72 af 3e 29 07 cb bd
       -0.008435776 -0.3141307 0.34267092 -0.09913475
000090 2a de 0f bf 40 7f 02 3b 4a 62 2f 3e 1f ad 38 3e
       -0.5619837 0.0019912273 0.17127338 0.1803479
0000a0 43 3a 68 be 43 37 a8 be 74 2b 10 be 5f e6 3e 3e
       -0.22678475 -0.3285466 -0.14079076 0.18642567
0000b0 df 1c 10 be 0b 02 85 be ab d9 91 3d da 1b 84 3c
       -0.14073513 -0.2597812 0.07121595 0.016126562
0000c0 e9 09 64 3e ca 35 d1 bf b0 bb 5a be d4 25 f2 3d
       0.22269405 -1.634454 -0.2136066 0.118236214
0000d0 16 bb 35 3f e0 7d 4d 3e 68 85 b6 3d ee 04 d5 be
       0.70988595 0.20067549 0.08912164 -0.41605324
0000e0 d6 de 7a 3e 4f ee 43 3e 8f 05 9c 3d df ef bc 3f
       0.24499068 0.19133876 0.07618248 1.4760703
0000f0 50 79 2d be f5 c8 c1 be bc 59 42 be f4 54 7e bd
       -0.16940808 -0.3784863 -0.18979543 -0.062092736
