models/Angle.pt (torch, 18075 bytes, 3 tensors)

embedding.net_.linear_clamped_.weight f4 [1000, 2]
00000000: 6ddf 5cbf f68b 1e40 9b09 323f a6d1 3940
00000010: 74d6 aebf 92c2 99bf 6e1a d93e e2cf 20be
00000020: a0ab c03f b89d 43c0 681b 7b3d 110d d33f
00000030: caa4 fc3f 530d bcbf 6937 583f 4a7f 56c0
00000040: eaed 4540 4d57 123f 24aa fe3f 07ae 1340
00000050: 7d8a 80bf e006 3dbf 0130 6c40 c1b8 4c3f
00000060: 4706 fa3f 6d04 ab3f 8e01 80bf a137 4340
00000070: 8185 f8bf 9e02 ab3e 9378 9640 84d4 d8bf
00000080: 5fd4 bebf b443 9abf acf1 30bf c63b 733e
00000090: 6ea7 9cc0 7b9e a9c0 340f af3f cfa8 e23f
000000a0: c861 2dbf a523 063f 8b9d 55bf 2eee 26c0
000000b0: 820a 263f 1cd7 d03f df6e e2c0 ea47 183f
000000c0: d4cf f0bf eb4d 0140 effd 9dc0 724a 2840
000000d0: 86b4 66bf c2d8 0fc0 62ec 5c40 44e7 fb3f
000000e0: 9b4c 5040 5686 cb3f 462e 88c0 0af4 c9bf
000000f0: 7e80 95bf 968b ddbe 3ab8 79c0 0665 26c0
00000100: 3808 63bf 2d6f dbbf a9dc de3f 66a5 4a3f
00000110: 3c1e e0bf aa67 4a3f 4a2d 1ebd 0144 b0be
00000120: 1bfb d53f 3d09 afbf 9ce5 a03d 2018 5f3f
00000130: 6ca4 90bf 0dc3 82c0 8927 4040 9bca 103f
00000140: 74bb a0bf d004 63bf cd19 1abf a5d6 20c0
00000150: 375b cebf 2ada e63f 55e8 7dbf 5ac5 a53f
00000160: 496c 9ebf 9a0c 6340 a1ca 5abd 9967 84bf
00000170: 010c 5bc0 77b2 47c0 b156 8f3f 6a70 a8bc
00000180: 993d 0f40 164e 703f c9c9 983d 9656 17bf
00000190: 4cbe 1240 6f00 7d40 5eb2 82bf 4218 a7bf
000001a0: 26db 44be ec42 3b3e cffe 5140 83e0 8340
000001b0: 650d 16bf 0d12 0a40 bc1b d540 ced7 e8bf
000001c0: d06f e7be 1269 c6bf ad9f 5740 91b0 8f40
000001d0: 1c78 60c0 5ecc eb3f 81d2 103f 0a11 54c0
000001e0: f699 bf40 0fd3 213f 2b7c 9dc0 2d4c 64c0
000001f0: 427d d5bf 1746 f43f 9273 fcbf d38e 3d40
00000200: 3c72 90c0 921d e63f 73f2 1dc0 ebd1 3a3f
00000210: 258e 97bf 6ea2 3740 8786 49bf 53af 443f
00000220: 809e 963d 94b8 e7bf ece0 f1bd 89df 033f
00000230: eb87 1840 a527 0e3f 974b 48bf 7a40 8040
00000240: 8740 043f 0f85 edbe 4b14 173e b63f 72bf
00000250: e5e2 bdbf 96fd 6b40 18f4 60c0 42f8 9ec0
00000260: 0399 fc3d 95e8 a9bf f311 e8be e6ed debf
00000270: 6a99 60be 5220 a83f 4cb3 e6be 2049 363f
00000280: 76d3 c4bf dd78 84c0 595b c7bf bf70 653f
00000290: edf3 1340 d4da 14be 2dfa c53f 12d1 7040
000002a0: 2594 24be d94d 2840 1c2f a540 4d0c a3bd
000002b0: d56a 4fbf bdf1 c3bf 55a1 db3c f78e 9b3f
000002c0: 7a35 f2bf 7741 81bf d0c7 1fc0 3469 5040
000002d0: d629 b2bf 730e c73f 1483 e1bf 5652 253f
000002e0: db93 4abe ee48 1fc0 75ed 9040 fe2d 0e40
000002f0: a0f1 5bc0 b4b3 8fbf 84b4 1ebf 196e 233e
00000300: c59c b4bf 331f cb3b 3931 bb3f 4237 3c40
00000310: ffe5 21c0 92f3 a340 af8b 233f 5c0f 153e
00000320: 266d c4be 1f75 08c0 e6fd 083f d593 c0bf
00000330: 072d 183f 01d8 4bbf c8f1 3ec0 1451 123f
00000340: 572a 5540 2dd0 6e3f 33ea 9840 cb25 23bf
00000350: f8b4 0640 557e 95c0 c6d9 4c3f 03ec 85c0
00000360: 5495 ebbf 31ab 2cc0 b1cb 22c0 7124 9bc0
00000370: 6508 5740 e13c 0f40 8a73 14c0 6111 413e
00000380: a9ce 00c0 b324 4240 76c7 58c0 7c6c 1dc0
00000390: 5ae5 d33f 8386 9ebf 308e 9dbd ea58 98c0
000003a0: 1dcb c7be ef2c 1bbe a32b 9cbf 589d 81bf
000003b0: 0201 54c0 268f 773f 7783 e8be 410f e03f
000003c0: b1ca ebbe 6363 d33f 5d0f 6240 d71a 6b3e
000003d0: 6f67 8140 a115 983e 1d64 1ac0 fd00 8640
000003e0: ed5d a8bf 6449 ac3f 8c48 4b40 5195 77c0
000003f0: 24c9 623f 2607 8040 da27 01c0 6b15 0cc0
-0.8627842 2.4772925 0.69545907 2.903421 -1.3659196 -1.2012503 0.42402977 -0.15704301
1.5052376 -3.0565014 0.061305434 1.6488363 1.973779 -1.4691566 0.8445955 -3.351519
3.0926461 0.5716446 1.9895673 2.3074968 -1.0042263 -0.73838615 3.69043 0.7996941
1.9533166 1.3360726 -1.0000474 3.0502703 -1.9415742 0.33400434 4.7022185 -1.6939855
-1.490856 -1.2051911 -0.6911876 0.2375327 -4.895438 -5.3005958 1.3676515 1.7707766
-0.6772733 0.5239814 -0.83443516 -2.6082873 0.64859784 1.6315646 -7.076034 0.5948473
-1.8813424 2.0203807 -4.9372478 2.6295438 -0.90119207 -2.2476048 3.4519277 1.9679952
3.2546756 1.5900371 -4.2556486 -1.57776 -1.1679838 -0.43270558 -3.9018693 -2.599916
-0.88684416 -1.7143303 1.741109 0.7915863 -1.7509227 0.7906443 -0.03861741 -0.34426883
1.6717256 -1.3674694 0.078562945 0.87146187 -1.1300178 -4.08631 3.002413 0.5655915
-1.2557206 -0.8867922 -0.6019562 -2.5131009 -1.6121587 1.8035328 -0.99182636 1.2950852
-1.2376796 3.5476441 -0.0534159 -1.0344115 -3.4226077 -3.1202676 1.1198331 -0.020561416
2.2381346 0.9386915 0.074603625 -0.59116495 2.2928648 3.9531515 -1.0210683 -1.3054278
-0.19224223 0.18287247 3.2811773 4.121156 -0.5861419 2.1573517 6.6596355 -1.8190858
-0.45202494 -1.5500815 3.3691208 4.4903035 -3.507331 1.8421743 0.56571203 -3.31354
5.987544 0.63212675 -4.921407 -3.5671494 -1.6678851 1.908389 -1.9722769 2.9618423
-4.5139446 1.7977774 -2.467923 0.7297656 -1.1840254 2.869289 -0.787209 0.76830024
0.0735445 -1.8103204 -0.118104786 0.5151296 2.3832958 0.5552924 -0.7824034 4.0078707
0.5166096 -0.46390578 0.14753835 -0.94628465 -1.4834868 3.6873527 -3.5148983 -4.967805
0.12333872 -1.3274103 -0.45326194 -1.7416351 -0.21933523 1.3134863 -0.45058668 0.7120533
-1.5377033 -4.139754 -1.5574752 0.8962516 2.311763 -0.14536601 1.5466973 3.7627606
-0.16072138 2.6297514 5.1620007 -0.079613306 -0.8102239 -1.5308148 0.026810328 1.2153004
-1.892257 -1.0098103 -2.4965706 3.256421 -1.3919017 1.5551285 -1.7618127 0.6457876
-0.19782965 -2.4888263 4.5289865 2.2215571 -3.4366226 -1.1226716 -0.61994195 0.15959968
-1.4110342 0.0061987876 1.4624397 2.9408727 -2.5296628 5.1234827 0.63885015 0.1455664
-0.38364524 -2.1321485 0.5351242 -1.5045115 0.59443706 -0.7962647 -2.9835072 0.57154965
3.3307092 0.932864 4.778589 -0.6372954 2.1047955 -4.6716714 0.80019796 -4.18506
-1.8404946 -2.6979487 -2.5436823 -4.8481984 3.3598874 2.2380908 -2.319552 0.18854286
-2.0126135 3.03349 -3.3871741 -2.4597464 1.6554368 -1.23848 -0.07693136 -4.760854
-0.3902215 -0.1515386 -1.2200817 -1.0126143 -3.3125615 0.967028 -0.454128 1.7504655
-0.4605308 1.6514705 3.5321877 0.22959457 4.043876 0.29704002 -2.4123604 4.1876206
-1.3153664 1.3459897 3.176303 -3.8684886 0.88588166 4.0008726 -2.0180573 -2.1888072

embedding.net_.linear_clamped_.bias f4 [1000]
00000000: 608d 8140 ca9b 3240 d3ff c140 f22c a23f
00000010: 4a99 7140 ee8f 1540 216e 1c3f 92f6 6140
00000020: d95a 1b40 4b9b ef3f dbf5 2740 51df b940
00000030: dd7e 343f 78d9 4040 5943 3b40 6228 9440
00000040: 2d69 2a40 e877 b440 e9a9 e03f e565 4c40
00000050: 51d8 5340 43f6 9340 2615 ae3f 7bd7 6d40
00000060: be38 8740 9c25 f13f e890 1040 73dd b23e
00000070: 1f14 9e3f cc10 1b40 d0b4 b540 f5a5 0f40
00000080: 7516 6940 6a90 5b40 b648 5d3e aa28 7340
00000090: 5b3a da3f bd82 4540 1546 8b40 48bc db3e
000000a0: 909b 093e aea5 b540 3672 f53e 101c 6240
000000b0: 82ab c440 2ec0 8140 1885 b340 bf2b c540
000000c0: 27b7 8a40 464a ca3f e3f4 4840 e67e 1040
000000d0: 05cc e23f a7cc 6e40 3a7a fa3f 3579 a940
000000e0: 5ccb 9040 3968 283f 8619 7940 ae02 9f40
000000f0: 57a2 163f 8381 c340 72a3 8d40 0ef4 a140
00000100: ade3 063f 68b1 993f 0485 8040 b006 b240
00000110: 1ae4 ce3f afeb 7540 0787 f63f 2001 2040
00000120: 6ba6 c93f 7ad0 883f 798d b93f 930f a340
00000130: 7156 a540 8973 863f 12fc 2e40 a77e 9340
00000140: 2277 593f 8efc c440 0adc 7240 46b2 453d
00000150: 43cc 8440 0713 e03e 26ca bf40 bf64 e43f
00000160: ee68 2040 e470 9c40 5901 a740 86eb 143e
00000170: c4be 9c3f be03 7e40 f565 9240 8486 aa40
00000180: e926 ad40 aa44 7540 da90 2240 c04f 3540
00000190: cb1c 213e 7909 c03f fb78 2140 09d0 ef3f
000001a0: 5029 8d3f 37e8 9640 05da 8e40 ac92 8140
000001b0: 7529 4640 b163 863f 08b2 ff3d d000 1640
000001c0: ca9a 9d40 d8fa ba40 15f4 7740 89e9 1240
000001d0: 841c 3f3e 3913 8a40 791e 3d40 75b7 6b40
000001e0: 8141 8340 bd19 8d3f bb80 c340 8851 5240
000001f0: e907 bf40 94cb cd3e 3590 7840 e1d7 c240
00000200: 3d03 8740 58dc 4a40 215e 0440 627e af3f
00000210: 29ac 9f40 3fac 8c40 a0a6 9b40 a2db ff3f
00000220: fcb7 b340 f756 683f 1933 af3e f5b5 5840
00000230: ff68 c43f a769 7c40 1b0d 1f3f 906e ec3f
00000240: a283 4840 8fb6 563f 7480 2f40 c794 8840
00000250: 9781 a83f 2ec2 ca3d 7e05 ac40 ba8a ae3f
00000260: deb7 d53e b06c 3b3f 9f0d 0940 fa7b c540
00000270: 55c1 a13e 8011 8f40 6a2d 1b3f 5a9f be40
00000280: d724 5f40 e085 4340 e24b bc40 5ca9 c73f
00000290: 27e7 493e 827a 5840 cf10 b140 6b6b 5240
000002a0: b25f ea3f 8342 7640 ad96 1b40 ea68 ea3f
000002b0: 66ad 863f 268a f83f 3fd1 6f40 7109 c840
000002c0: 9ca1 8840 b4e5 c140 2210 7f40 2ddd c840
000002d0: ee37 3540 1944 723f 4e53 8f40 ad4a 6040
000002e0: 3e6e 773f 45fb 8140 76af 613d 19fb e33f
000002f0: c821 a240 d528 f73f d3fc 8640 da16 a240
00000300: c0d5 7440 3a5f 3740 97fa b440 ad20 4b3f
00000310: 55ce 1540 3304 3f40 7516 3a40 96f2 e03f
00000320: 0cca 9040 b30e 6740 1252 9d40 4cad 4f3f
00000330: 0804 3440 0bac 7e40 7208 9c40 d88b 2a3f
00000340: 1ed1 db3f ce69 8d40 87f4 0540 eb7f 8a40
00000350: 4f4b 8140 ddda bb40 4305 8e3f 4986 3b3d
00000360: 81e3 6f40 af93 263e 295c 8840 4d8c 1f40
00000370: c847 3340 f6c1 0d3f 2940 5e40 c4b1 223f
00000380: c48b 8740 52d7 933f 8024 9d3f d785 b640
00000390: e4c9 2240 2330 7a40 8191 9140 4cb4 3c3f
000003a0: 9955 a640 d67f 3840 5c37 903f 0c4a 0340
000003b0: c319 3240 7270 7740 0a38 b140 faee 2d40
000003c0: 3709 c640 95f6 9840 5425 0a40 e7f9 b43f
000003d0: c125 4940 fd82 ba40 8f90 1f40 1922 b040
000003e0: 3e6c 993e bc20 a640 dd56 193f 2011 9e3f
000003f0: 16f9 fc3f b0f3 9140 c02b 883f b5c2 993f
4.0485077 2.7907586 6.0624785 1.2669966 3.774981 2.3369098 0.61105543 3.5306745
2.42742 1.8719267 2.6243808 5.8085103 0.7050608 3.0132732 2.9259856 4.6299295
2.6626694 5.639637 1.7551852 3.1937191 3.310078 4.6238112 1.3600204 3.716277
4.2256765 1.8839602 2.2588444 0.34934577 1.234989 2.4229002 5.678322 2.2445042
3.6419957 3.4306893 0.21609768 3.799357 1.7049059 3.0861046 4.352305 0.42917085
0.13438249 5.6764746 0.479387 3.5329628 6.145936 4.0547094 5.609997 6.16159
4.3348575 1.5803916 3.1399467 2.2577453 1.7718512 3.731241 1.956855 5.296046
4.524824 0.6578403 3.8921828 4.969077 0.5884146 6.1095595 4.426202 5.061042
0.52691156 1.2007265 4.0162373 5.5633163 1.6163361 3.84251 1.9259957 2.5000687
1.5753912 1.0688622 1.4496299 5.095651 5.166802 1.0504009 2.7341352 4.6092105
0.8494741 6.1558294 3.79468 0.048265718 4.1499343 0.43764517 5.9934263 1.7843245
2.5064044 4.8887806 5.2189145 0.1454297 1.2245717 3.9689784 4.574946 5.3289204
5.411 3.832316 2.540091 2.8329926 0.1573364 1.5002891 2.523009 1.8735362
1.1028233 4.7158465 4.4641137 4.0491543 3.0962803 1.0499173 0.12485129 2.3437996
4.925145 5.8431206 3.8742726 2.2955039 0.18663222 4.3148465 2.954985 3.6830723
4.101746 1.102348 6.109464 3.2862263 5.9697156 0.4019438 3.8838017 6.0888524
4.2191453 3.1696987 2.0682452 1.3710444 4.9897656 4.396026 4.86409 1.9988902
5.616209 0.907577 0.34218672 3.3861058 1.5344542 3.9439485 0.6212937 1.8471241
3.1330342 0.8387231 2.7422152 4.2681613 1.3164548 0.09900318 5.3756704 1.3636086
0.41741842 0.7321272 2.1414564 6.171384 0.31592813 4.470886 0.6061617 5.956952
3.4866235 3.055046 5.884263 1.5598559 0.19717084 3.3824773 5.533302 3.2878063
1.8310454 3.8478096 2.4310715 1.8313267 1.0521667 1.941716 3.7471464 6.2511525
4.2697277 6.05929 3.9853597 6.276999 2.8315387 0.9463516 4.478919 3.5045578
0.9665259 4.0619226 0.055098973 1.7811004 5.0666237 1.9309336 4.2183623 5.0652895
3.8255463 2.8651872 5.6555896 0.79346734 2.3407185 2.9846313 2.9076207 1.7574031
4.524664 3.6102722 4.9162683 0.81123805 2.812746 3.9792507 4.876031 0.66619635
1.7173193 4.4191656 2.0930498 4.328115 4.040443 5.8704667 1.1095356 0.04578236
3.7482607 0.16267274 4.26125 2.4929383 2.8012562 0.55374086 3.472666 0.635525
4.235811 1.1550086 1.2276764 5.703838 2.5435724 3.909188 4.5490117 0.7371261
5.197949 2.8828025 1.1266894 2.0513945 2.7828224 3.866238 5.5380907 2.717711
6.188625 4.7801003 2.1585283 1.4138764 3.1429293 5.82849 2.4931982 5.5041623
0.29965395 5.191496 0.5989817 1.2348976 1.9763515 4.560997 1.0638351 1.2012545

embedding.net_.prediction_.weight f4 [1, 1000]
00000000: 1458 fe3c f18c e9bd 4c28 433f b2c2 5e3e
00000010: 5666 553a a45b 06bf 7d32 023f 5b23 783e
00000020: 2b8e edbe e747 693e 3e97 fdbe f8fd 563e
00000030: d7f6 843f b477 25bd d639 2fbf a8e6 40bf
00000040: 97e0 5ebf 4bff 963e ae49 60bf 63de 32bf
00000050: 217c b8bd 7af8 d13b 9b31 c43d 442c 6840
00000060: 6cff c2bd 4fb6 1cc0 a600 c6be 33c8 5a3e
00000070: 927a 863e 3de7 813f 440c 0d3f 4578 573f
00000080: 4237 e5be 6e87 64bf 10a5 f13e 9ca4 a4bd
00000090: f4ce 303e f831 2fbe 093a a23d 3696 273f
000000a0: c66f 083f 6624 8c3e da9c a13e 3bff 32be
000000b0: e2eb cabe fb3d b1be 800d e5be 6212 923e
000000c0: ac79 66bf 8f23 5c3e 12e8 c13d 84d4 0cbf
000000d0: 4225 0cbe 9931 693e 7e20 0ebf f9ed 12c0
000000e0: 0cb9 55be 675e 663d 1303 033d d1b3 99bc
000000f0: cab4 72c0 7c7b b23b 87cb 9e3d 03bf 98bc
00000100: 0b07 22bf 6c4c 9e3e 180a 81bc 1dbb ea3e
00000110: 5763 bb3e 6dec be3d 7549 e43c 7c8d 633f
00000120: 82e6 a43e 372b c13e c89b 913e a690 a03e
00000130: 637e 5bbe 262e b73e 73ef e1be 7ea9 b43e
00000140: 002d b3bd b9f1 093f 72ee 31bf 2132 dfbe
00000150: 9b03 463d 6ac2 03c0 83f6 093f 7666 babe
00000160: 4801 83bf ba78 27bd 8c8b 0c3f 262d 023f
00000170: 5dd4 a33e 7a30 da3f c2f8 85bd 10f8 913e
00000180: 9369 1a3f dc6a 06be 146e c4be 05bd 81bd
00000190: 01b5 f53e 1960 043f 487d bd3d a86d 663e
000001a0: 9c88 7e3e ee5c 953e d083 133f be87 6e3f
000001b0: 0e2c b8be d8cd 933e e186 ac3e 2d95 20bf
000001c0: eabf 82bd f497 733d 9d90 12bf 58c8 f73e
000001d0: 1bc9 0c3d 81d5 a73d 6214 eebb 2a9d e4bd
000001e0: a6b4 2e3e a0a0 70be b620 a1be beca 733c
000001f0: 3f1b 123f 8c97 273f be85 0d3f 65f3 2e3f
00000200: 77b7 99bc b1e7 0abf bec0 3abe 3a2a 923e
00000210: 32ee 053f daa4 4e3f b5a0 a43e cc36 b9be
00000220: 3419 1d3e e6ee 48be 1c9b 38bb 70c9 3dbf
00000230: 53fe 8a3d d24c cabe 8561 6c3e 4b34 b73e
00000240: 5118 9f3e 7117 293f 8439 02bd 6206 ebbe
00000250: fbc5 11c0 71a8 bd3e 8319 47bd 74a3 f5be
00000260: cd6f a33e 75f9 2b3f 1299 b4be ffca e9bd
00000270: e055 613f 687f 62be 6a6c 9c3e 68af 0d3f
00000280: 2b36 2fbe c25f f7bd 7aac 52bf ee59 bd3d
00000290: e41d 223f 0091 2f3d f357 923e 252e b0be
000002a0: 0f31 8f3d 2ffd bbbe b922 f23d 9fa7 fa3e
000002b0: ba7f cf3e fac3 fc3d 4048 89be 0f25 ec3e
000002c0: 7a4c cebe cf68 8b3e 66e5 0940 e317 283f
000002d0: cd13 a7be 0464 b93e e9f4 2fbe 0aea e5bd
000002e0: d8f2 a63e ae3c 733e 7490 123f c83d fd3c
000002f0: 1d7c 32be 2283 93be 98f3 5dbc cb95 88be
00000300: 86e7 9fbe 5578 04bd ecaa 4bbe 0403 573e
00000310: 9cc6 34bc f6d5 11be e9f9 cabe e32f 87be
00000320: 254a c03e c3c7 a9be ddb5 eabd d63e 1f3f
00000330: 5900 b8be 7225 353c a96b d03f b8f3 123f
00000340: d479 8dbe d252 f2be 269f 0fbf 4412 a9be
00000350: 443e e03d 04f8 963e a8bf 913e 985c cd3e
00000360: 1ad6 f43e 2df7 99be 4c4b 833c 8641 08bf
00000370: 3c20 df3e 3e08 103f 2819 7ebe c3f1 29bc
00000380: e346 78be c440 09be 5e2a a43e 871f acbf
00000390: d5ab 473d db31 043d 8521 b2be 82f9 173e
000003a0: 4c30 403f 169e 3ebf 9165 253f 3d21 adbf
000003b0: 96a7 11bf 7220 693c 8f48 973d 3907 0c40
000003c0: 1af8 063f fd0a a43d 0c4f 14bf 4451 033f
000003d0: b1ae 56bf 3054 213f ac11 683d 0dd8 e63e
000003e0: 0d71 403e c495 48bf 576b e93c 3831 443f
000003f0: 13d9 b73e c635 663e 0a6b 9ebd ab6d 183f
0.031047858 -0.114038356 0.76233363 0.21753958 0.00081405544 -0.5248358 0.5085829 0.24232237
-0.46397528 0.22781335 -0.4952945 0.20995319 1.038783 -0.04039736 -0.68447626 -0.75351954
-0.87061447 0.29491648 -0.87612426 -0.69870585 -0.09008051 0.0064077945 0.09579774 3.6277018
-0.09521374 -2.4486272 -0.3867237 0.21365432 0.2626539 1.0148693 0.5509684 0.8416789
-0.4476872 -0.8926915 0.47196245 -0.08039209 0.17266446 -0.17108905 0.079212256 0.6546358
0.5329555 0.2737152 0.3156498 -0.17480175 -0.3963309 -0.346176 -0.44736862 0.2852965
-0.90029407 0.2149794 0.09468092 -0.55011773 -0.13686088 0.22772826 -0.5551833 -2.2957747
-0.20871371 0.056242373 0.031985354 -0.018762501 -3.7922845 0.0054468494 0.077536635 -0.018645769
-0.63291997 0.3091768 -0.015751883 0.4584588 0.36599228 0.093224384 0.027867058 0.88887763
0.32207114 0.37728283 0.28439164 0.31360358 -0.21434931 0.35777396 -0.44127998 0.35285562
-0.087488174 0.53884465 -0.69504464 -0.43592933 0.048343282 -2.058741 0.5389177 -0.36406296
-1.0234766 -0.04088662 0.5490043 0.5085014 0.31997958 1.7046044 -0.065415874 0.2850957
0.60317343 -0.13126701 -0.38365233 -0.06334881 0.47989658 0.51709133 0.09252411 0.22502768
0.248568 0.29172462 0.57623005 0.93175876 -0.3597111 0.28867984 0.33696654 -0.62727624
-0.06384261 0.059471086 -0.5725191 0.48395038 0.034371477 0.081950195 -0.0072656134 -0.11162789
0.170611 -0.23498774 -0.3147027 0.0148798805 0.57072824 0.6546562 0.552822 0.6834014
-0.01876424 -0.54259783 -0.18237588 0.2854784 0.5231658 0.80720294 0.3215386 -0.3617462
0.15341645 -0.19622383 -0.0028168624 -0.74135494 0.0678679 -0.39511734 0.23084076 0.35782084
0.3107324 0.66051394 -0.031793132 -0.45903307 -2.2777088 0.37042573 -0.048608314 -0.47976267
0.31921235 0.67177516 -0.35273033 -0.114156716 0.8802166 -0.22118914 0.30551463 0.55345774
-0.17110507 -0.12078811 -0.8229443 0.09245668 0.6332686 0.042862892 0.28582725 -0.34410205
0.06991779 -0.367166 0.11823029 0.4895601 0.40527135 0.12342067 -0.26812935 0.46122023
-0.40292722 0.272284 2.1546264 0.6566145 -0.32632294 0.36209118 -0.1718327 -0.1122628
0.3260715 0.23753616 0.5725167 0.030913249 -0.17430158 -0.28810984 -0.013546847 -0.26676783
-0.31231326 -0.03234132 -0.1988942 0.20997244 -0.01103368 -0.14241776 -0.3964379 -0.26403722
0.37556568 -0.3316022 -0.11460469 0.62205255 -0.35937765 0.011056291 1.6282855 0.57403135
-0.2763201 -0.47328812 -0.56102216 -0.33021748 0.10949376 0.29486096 0.28466535 0.40109706
0.47819597 -0.30071393 0.016027115 -0.5322498 0.4357928 0.56262577 -0.24814284 -0.010372582
-0.24245791 -0.13403612 0.32063574 -1.3447121 0.048747856 0.03227411 -0.34791198 0.14841273
0.75073695 -0.7445997 0.64608103 -1.3525769 -0.5689634 0.014228927 0.07386886 2.1879408
0.5272232 0.08009908 -0.57933116 0.51295877 -0.8386031 0.63019085 0.05665748 0.4508671
0.18793125 -0.78353524 0.028493566 0.766376 0.35907802 0.2248145 -0.0773526 0.5954234
