models/Angle.pt (torch, 18139 bytes, 5 tensors)

stiffness.spd.weight f4 [2, 2]
0	0x401dda6c	2.4664564
1	0xbbd800ab	-0.0065918765
2	0x3bea5e94	0.007152388
3	0x3fe186db	1.761928

dissipation.spd.weight f4 [2, 2]
0	0x4039d163	2.903405
1	0xbc3981f0	-0.011322483
2	0xbc00150f	-0.007817521
3	0xb9a041b0	-0.0003056652

embedding.net_.linear_clamped_.weight f4 [1000, 2]
0	0xc04c8a8e	-3.1959567
1	0xc0206fb1	-2.506817
2	0x3f2a89af	0.6661634
3	0x3f37b3ed	0.7175892
4	0xbf17558b	-0.59114903
5	0x3cdad6bc	0.026713721
6	0xbfd2ea7b	-1.6477808
7	0xc06f1c2b	-3.7360942
8	0xbfcff3b0	-1.6246243
9	0x4094ac3d	4.646025
10	0xbfb65acc	-1.4246459
11	0xbfc80244	-1.5625691
12	0x402b3f36	2.675733
13	0x3d7d5d0b	0.06185631
14	0x3f8d98f1	1.1062299
15	0x3f4de131	0.8042174
16	0x3e5c4470	0.21510482
17	0xc0566216	-3.3497367
18	0x3f95ae74	1.1693864
19	0xc02f1cc8	-2.7361317
20	0xbff67e3a	-1.9257271
21	0x401f03b0	2.4846
22	0xc0592058	-3.392599
23	0x3fb72bec	1.4310279
24	0xc0068787	-2.102022
25	0xc06bbfa2	-3.6835713
26	0x3ef4068d	0.47661248
27	0xc04225b4	-3.0335512
28	0x3faa8c4f	1.3324069
29	0x3f3e2e8b	0.7428977
30	0xc01648af	-2.3481863
31	0x3fdfb343	1.7476581
32	0xbf1fd47f	-0.6243362
33	0xbfdb1edd	-1.7118794
34	0xc0646480	-3.568634
35	0x3f3a348e	0.7273644
36	0xbeeeac9e	-0.4661607
37	0x3f81bb3c	1.0135264
38	0x403a81c6	2.9141707
39	0xc021e6bc	-2.529708
40	0xc09565da	-4.668683
41	0xbfe296a6	-1.7702224
42	0x3fe53fe4	1.7910123
43	0x403887a4	2.8832788
44	0xc05ab204	-3.4171152
45	0xbe34795d	-0.17624421
46	0x3f95f25d	1.1714588
47	0xbf56c945	-0.8390086
48	0xbefd5a2d	-0.4948286
49	0xbf082b92	-0.53191483
50	0x404afd37	3.171705
51	0xc019684f	-2.3969915
52	0x3fd39bd0	1.6531925
53	0x3f2afa36	0.6678804
54	0x3e833499	0.25626066
55	0x3fbedb63	1.4910702
56	0x4063183f	3.5483549
57	0x3f233d78	0.6376567
58	0xbfcc4408	-1.5958261
59	0x3fda5971	1.7058545
60	0x3fd3efab	1.6557516
61	0x3ff0b272	1.8804457
62	0x3e2cd4df	0.16878079
63	0x3f09f9c1	0.5389672
64	0xbfcc7d51	-1.5975744
65	0x3f40aed3	0.7526676
66	0x3fd05592	1.6276114
67	0xbfd7f75d	-1.6872364
68	0xc0810edf	-4.0330653
69	0xbe73005f	-0.2373061
70	0x40861670	4.190239
71	0xbe16cdca	-0.1472694
72	0xbf7f9f8e	-0.99852836
73	0xbf36df3f	-0.71434397
74	0x3fc6538a	1.5494244
75	0xc0182365	-2.3771603
76	0x3f526f79	0.82201344
77	0x4032b580	2.792328
78	0x4016bd35	2.3552983
79	0x3eeca236	0.46217507
80	0xbf7f0221	-0.99612623
81	0xc0044e76	-2.0672889
82	0xbe93094b	-0.28718027
83	0x40374c40	2.864029
84	0x3f558e11	0.834199
85	0x3ff53108	1.9155588
86	0x3f8bb785	1.0915381
87	0x3f92d295	1.1470515
88	0xbf9e8efa	-1.2387383
89	0xc00ebfa3	-2.2304466
90	0xc0196ad9	-2.3971465
91	0x4015b58e	2.3392062
92	0x3ed67c64	0.41891778
93	0x3dac0402	0.08399202
94	0x402ba0fc	2.6817007
95	0xbd77b991	-0.060479704
96	0x3fa64a1a	1.2991364
97	0xbfb0ec37	-1.3822087
98	0x3e76fb79	0.24119367
99	0xc0371cde	-2.861137
100	0xbfbb3c72	-1.4627821
101	0xc01ef955	-2.483968
102	0xbf9a53f9	-1.2056876
103	0xc0449dd2	-3.0721326
104	0x40c1ee0b	6.060308
105	0x3f0a47e9	0.54015976
106	0xbe26fcf1	-0.16307427
107	0xbf01e4ac	-0.5073955
108	0x4029579d	2.6459725
109	0x3f40ebf8	0.7536006
110	0xbf8da8cf	-1.1067141
111	0xbe5c4f66	-0.21514663
112	0x3fb1e0da	1.3896744
113	0x3e8c37ec	0.27386415
114	0x3f59909e	0.84986293
115	0xbf01e024	-0.50732636
116	0xc02501a3	-2.578225
117	0xbfe082e2	-1.7539942
118	0x3fdd23ca	1.7276547
119	0xc06a282e	-3.6587024
120	0x3f5243ff	0.82135004
121	0xc00bba1f	-2.183235
122	0x3d408c93	0.047009062
123	0x3fc61482	1.5475008
124	0xbde42298	-0.11139411
125	0x3fd859ab	1.6902364
126	0xc00a9748	-2.1654835
127	0x40975955	4.729655
128	0xbf95b8b2	-1.169699
129	0x3f04267e	0.51621234
130	0xbe9ef859	-0.3104885
131	0x3fd8bfdf	1.6933554
132	0xbd19f27c	-0.037584767
133	0x3ec8c09b	0.39209446
134	0xc02793e5	-2.6184018
135	0xbc6d7e8e	-0.014495505
136	0x408136cb	4.0379386
137	0x3f096dbf	0.53683084
138	0x3f03d8aa	0.5150248
139	0x404cce93	3.2001083
140	0x3faf057c	1.3673549
141	0x4036aa69	2.854151
142	0x3fd07f44	1.6288838
143	0x40418a76	3.024076
144	0x3d849791	0.064742215
145	0x3f51f2f3	0.82011336
146	0xbfde7270	-1.7378674
147	0xbfa0a7a3	-1.2551159
148	0x4086d3eb	4.213369
149	0xbed219dd	-0.41035357
150	0x3e87566a	0.26433116
151	0x3fc6a6ba	1.5519631
152	0xc080216c	-4.00408
153	0xbf437a12	-0.7635814
154	0x3def53fc	0.116859406
155	0xbd7f95ca	-0.06239871
156	0x3fb13d4a	1.3846829
157	0x4071a4f6	3.7756934
158	0x40658447	3.5861986
159	0x3f8234b1	1.017233
160	0xbe405909	-0.18783964
161	0x3de4e61b	0.11176702
162	0x40b177f2	5.545892
163	0xbea2db85	-0.31808105
164	0xbee07c8a	-0.43845016
165	0x40a57e85	5.1716943
166	0xc01c8ce5	-2.4460995
167	0x3fc734e0	1.5563011
168	0x3ff85edd	1.940395
169	0x3fcce76f	1.6008128
170	0xbfb23d51	-1.3924962
171	0xbfd82eb6	-1.6889255
172	0xbf17e0c2	-0.5932733
173	0xbfc2c29e	-1.5215642
174	0x3fc74ae3	1.5569729
175	0x3f63665e	0.88828075
176	0xbf3a7029	-0.7282739
177	0x408fdb00	4.4954834
178	0x40247949	2.5699027
179	0x3f6fd938	0.93690825
180	0x3fcc2476	1.5948627
181	0x3fb38b3c	1.4026866
182	0xc0a36b31	-5.106835
183	0x3f81f8b1	1.015402
184	0x3f93c4fb	1.1544489
185	0x3e05692e	0.13028404
186	0xbdc85513	-0.097818516
187	0xbffc2dd5	-1.9701487
188	0x3fd8be27	1.693303
189	0xbff12d9a	-1.8842041
190	0xbfc8e2cf	-1.5694216
191	0xbd382ac6	-0.044962667
192	0x3ecd86e3	0.40141973
193	0x3efc513f	0.49280736
194	0xbfaf6170	-1.370161
195	0x3fda99e9	1.707822
196	0xbf9dc97a	-1.2327111
197	0x3f96ceef	1.1781901
198	0x3ff94f1f	1.9477271
199	0xc01cb23c	-2.4483786
200	0xbfda6d93	-1.7064689
201	0xbe671dbe	-0.2256994
202	0x4025a6bf	2.5883024
203	0x3f61e4d1	0.8823977
204	0xc010640f	-2.256107
205	0xbf815987	-1.0105447
206	0xbf4af88f	-0.7928552
207	0x4081a7e7	4.051746
208	0x407617db	3.845206
209	0xc02ea5a9	-2.728861
210	0xbf44f590	-0.769372
211	0xbfdd9282	-1.7310336
212	0xc087d636	-4.244899
213	0xc07766e3	-3.8656547
214	0x3f1bf5e2	0.6092206
215	0xbed30ffb	-0.4122313
216	0x3fea05f0	1.8283062
217	0x4029bb53	2.6520584
218	0x3fbb8d88	1.4652567
219	0xbfc170c4	-1.5112538
220	0xc01839d1	-2.3785288
221	0x400cc079	2.1992476
222	0xbfa541a0	-1.2910652
223	0xc087df69	-4.2460217
224	0xbfff3104	-1.9936833
225	0x40060db4	2.0945864
226	0x3fcd808b	1.6054853
227	0x3ea24faa	0.31701404
228	0x3e18a875	0.14908011
229	0xbfb6d2f0	-1.4283123
230	0xc0903322	-4.506242
231	0xbf9e3d14	-1.236239
232	0x406f738f	3.7414281
233	0xbfb7ff4b	-1.4374784
234	0x3fd1226d	1.6338631
235	0xbff67451	-1.9254247
236	0xc08847b8	-4.2587547
237	0x3ff16548	1.8859034
238	0xbfd207af	-1.6408595
239	0x401b9080	2.4306946
240	0xbeb3d645	-0.35124412
241	0x4093ce4b	4.6189322
242	0x3fac025d	1.3438221
243	0x3eb8fe99	0.36131743
244	0x3f809b5c	1.0047412
245	0x4062f76b	3.5463512
246	0x400e9f9e	2.2284923
247	0xc0623d17	-3.5349786
248	0x4011da97	2.2789667
249	0xbcbfb77f	-0.023402927
250	0xc0763694	-3.8470812
251	0xc0448108	-3.0703754
252	0x400586d2	2.0863538
253	0xbfa77400	-1.3082275
254	0x4027ab00	2.619812
255	0xbf1e44fe	-0.61824024

embedding.net_.linear_clamped_.bias f4 [1000]
0	0x4078730e	3.8820224
1	0x4088a55a	4.2701845
2	0x4003c177	2.0586832
3	0x3f9607b4	1.1721101
4	0x4049824f	3.1485784
5	0x401f1eec	2.4862623
6	0x404e1965	3.2203
7	0x4001ff25	2.0311978
8	0x40c5bef4	6.1795597
9	0x3f823d4b	1.0174955
10	0x407d5df8	3.9588604
11	0x4091d2a2	4.556962
12	0x40702b12	3.7526288
13	0x4096e342	4.7152414
14	0x40839b4a	4.112706
15	0x3ecac86a	0.3960603
16	0x40c8a86b	6.270559
17	0x3f2b3c24	0.6688864
18	0x3ebcc617	0.3686988
19	0x40c88ea3	6.2674117
20	0x40481297	3.1261346
21	0x40b2c3c2	5.586396
22	0x3ff78f2e	1.934057
23	0x40243cf0	2.5662193
24	0x40b557e1	5.6669774
25	0x3f59f2ef	0.8513631
26	0x40b5e37d	5.6840196
27	0x3fb21654	1.3913064
28	0x406a0487	3.6565263
29	0x408e8015	4.453135
30	0x40a6f933	5.21792
31	0x3fd7af0d	1.6850296
32	0x3f4acba1	0.79216963
33	0x40b4a3fd	5.645018
34	0x40c2d0c3	6.0879836
35	0x3fa7d11f	1.3110694
36	0x407baf8a	3.932589
37	0x3fa460ef	1.2842082
38	0x4029b343	2.6515663
39	0x3f1fbaff	0.6239471
40	0x3f77b9b6	0.9676775
41	0x4073fd14	3.8123217
42	0x3ed60878	0.41803336
43	0x3faa3b99	1.3299438
44	0x3f9cb38d	1.2242295
45	0x409c72c7	4.889011
46	0x406e9ea4	3.7284327
47	0x4061b73e	3.5268092
48	0x4078133b	3.8761737
49	0x40b1ecd1	5.5601583
50	0x408709a8	4.2199287
51	0x3fe78829	1.8088428
52	0x3fecb051	1.8491307
53	0x3e8ec7fd	0.27886954
54	0x4034eefd	2.8270867
55	0x40838b02	4.1107187
56	0x4034a829	2.8227637
57	0x4089a893	4.301828
58	0x407d67dc	3.959464
59	0x3e75295e	0.23941562
60	0x402044fd	2.5042107
61	0x401b1db8	2.423689
62	0x40aa567b	5.3230567
63	0x4093c7ec	4.6181545
64	0x4007da96	2.1227164
65	0x40c8ab08	6.270878
66	0x40a00c31	5.001488
67	0x40548bf8	3.321043
68	0x4096cc8a	4.712468
69	0x407fe668	3.998438
70	0x3e517939	0.20456399
71	0x40239e6c	2.5565443
72	0x3fb6c2f1	1.4278241
73	0x4039ad5c	2.901206
74	0x4085f7ce	4.1864996
75	0x40a90513	5.2818694
76	0x4070d047	3.7627122
77	0x3febcccc	1.8421874
78	0x40a3e63f	5.121856
79	0x40b5c20e	5.6799383
80	0x40a9fcdd	5.312117
81	0x40b3fe00	5.624756
82	0x3ebafcbe	0.36520952
83	0x400555fa	2.0833726
84	0x404d122b	3.204234
85	0x3dbfa60f	0.09357845
86	0x3f21a478	0.63141584
87	0x408bad27	4.3648868
88	0x3f4ac7ed	0.7921131
89	0x40a0bb00	5.022827
90	0x407b0a90	3.9225197
91	0x4057d257	3.3722131
92	0x39bb5146	0.00035727973
93	0x3fb65fb0	1.4247952
94	0x40bd0f1f	5.908096
95	0x409d4855	4.9150796
96	0x40030640	2.0472565
97	0x40b72bc3	5.724092
98	0x404231a5	3.03428
99	0x40956336	4.6683607
100	0x3f50be72	0.81540596
101	0x3f8c3b82	1.095566
102	0x40bba4b3	5.863855
103	0x3f2e5a8c	0.68106914
104	0x40505490	3.2551613
105	0x3f1c7b81	0.6112595
106	0x403a314b	2.9092586
107	0x3fc597c4	1.543694
108	0x3eba1991	0.3634763
109	0x3e3edccd	0.18638916
110	0x40237155	2.5537922
111	0x403f430b	2.988467
112	0x4057044e	3.3596377
113	0x406575ba	3.5853105
114	0x40b76384	5.730898
115	0x3fab5394	1.3384881
116	0x3fb51abe	1.4148786
117	0x40a84fbb	5.2597327
118	0x404ea404	3.2287607
119	0x4023a0fb	2.5567005
120	0x3fff6b78	1.9954672
121	0x408e7315	4.451548
122	0x4001ea6b	2.0299327
123	0x4026fc0d	2.609134
124	0x40a3cacb	5.118505
125	0x40ae7b9d	5.4525895
126	0x403c4ceb	2.9421947
127	0x3f41487a	0.75501215
128	0x3f913dea	1.134702
129	0x400ee9c9	2.233019
130	0x408b80b0	4.359459
131	0x40958deb	4.673574
132	0x4051c1fb	3.2774646
133	0x4094ba0f	4.647712
134	0x40bac039	5.8359647
135	0x40093370	2.1437645
136	0x406a1d66	3.6580443
137	0x3f2efce7	0.6835465
138	0x4063811c	3.5547552
139	0x40a8c4d9	5.2740293
140	0x401e1f8d	2.4706757
141	0x40810bc9	4.0326886
142	0x40948848	4.641636
143	0x40944d08	4.634403
144	0x409d6cfd	4.919554
145	0x403334bf	2.8000944
146	0x404ffbe7	3.24975
147	0x40a6b4f4	5.209589
148	0x404a7907	3.163637
149	0x404b4d61	3.1765978
150	0x4089411f	4.2891994
151	0x3f3729b2	0.71547997
152	0x3f8e8ea2	1.1137278
153	0x3d1d99e8	0.038476855
154	0x40918ae7	4.548206
155	0x40c18f4c	6.0487423
156	0x40802b9f	4.005325
157	0x3fa2da1a	1.2722809
158	0x408ed8e6	4.463977
159	0x40133544	2.300126
160	0x40b24e67	5.5720706
161	0x3fd4facf	1.6639041
162	0x3f836230	1.026434
163	0x4018e20e	2.3887973
164	0x403b388d	2.9253266
165	0x3fb0fffd	1.3828121
166	0x3f396f81	0.72435766
167	0x409f238e	4.97309
168	0x3e2b8bbc	0.16752523
169	0x401c72b5	2.4445012
170	0x401ab93b	2.4175556
171	0x3f123ce3	0.57124156
172	0x408ed124	4.46303
173	0x40b2069a	5.563306
174	0x4023b8ab	2.5581462
175	0x40c31fa1	6.097611
176	0x40b24889	5.5713544
177	0x40bbe387	5.8715243
178	0x4081e16e	4.0587683
179	0x3ffda84b	1.9816984
180	0x3f3fff66	0.7499908
181	0x4002687b	2.037627
182	0x4073fbc4	3.8122416
183	0x40328439	2.7893202
184	0x3fd811e0	1.6880455
185	0x40c2126e	6.0647497
186	0x3fccc836	1.59986
187	0x3f637603	0.88851947
188	0x40b7ed4a	5.747716
189	0x3e8df04d	0.27722397
190	0x3e37b6d2	0.17940834
191	0x400cef10	2.2020912
192	0x40b89bb7	5.769008
193	0x3f124338	0.5713382
194	0x400e7b97	2.2262933
195	0x3f02090e	0.50795066
196	0x4075e688	3.8421955
197	0x3fdbeb8a	1.7181256
198	0x40822092	4.066476
199	0x3fc20049	1.5156337
200	0x4030b0ce	2.7607913
201	0x408156fb	4.0418677
202	0x40bbaf03	5.8651137
203	0x3eb84d46	0.35996455
204	0x400f7bcf	2.2419317
205	0x403cea83	2.9518135
206	0x3f847d2d	1.0350701
207	0x40347df8	2.8201885
208	0x40bd2124	5.9102955
209	0x3cc3cc1d	0.02390104
210	0x40b808c1	5.7510686
211	0x4018a58b	2.385104
212	0x40932882	4.598695
213	0x406ab535	3.66731
214	0x40b65c7a	5.6987886
215	0x3ff851d6	1.9399974
216	0x4091f61b	4.561292
217	0x3ec58fb7	0.38586208
218	0x40ad0c55	5.4077554
219	0x3db12cbf	0.08651113
220	0x3d84bbaa	0.064811066
221	0x3e79162f	0.24324869
222	0x4023d5a2	2.559914
223	0x3dbbb7c4	0.0916591
224	0x3f6203de	0.8828715
225	0x3f386c52	0.72040284
226	0x402e6add	2.7252724
227	0x4085b9a7	4.1789126
228	0x4062aa48	3.5416431
229	0x3d4187b4	0.047248557
230	0x40c2281e	6.067397
231	0x4057f3ec	3.3742628
232	0x4010e9cc	2.2642698
233	0x4049904e	3.1494327
234	0x404c6bd8	3.1940823
235	0x3f134ce8	0.57539225
236	0x3de91f76	0.11382954
237	0x3fd6c23e	1.6778028
238	0x40a70b42	5.2201242
239	0x4038a54d	2.8850892
240	0x406f3e50	3.7381783
241	0x4065a3c3	3.5881202
242	0x401c9650	2.4466743
243	0x405fb71d	3.4955513
244	0x4032ae02	2.7918706
245	0x3fb83c76	1.4393451
246	0x405d0a0e	3.4537387
247	0x40b9f0e8	5.8106575
248	0x40abdafe	5.3704824
249	0x408d604c	4.418005
250	0x40b806ba	5.750821
251	0x40bb27d4	5.848612
252	0x40bfe759	5.9969907
253	0x3dafd90f	0.085863225
254	0x40a66747	5.200107
255	0x40c5ddc9	6.1833234

embedding.net_.prediction_.weight f4 [1, 1000]
0	0x3f7fb5a7	0.99886554
1	0x3f3d3e25	0.7392295
2	0x3f28fa8c	0.66007304
3	0xbe93bd68	-0.28855443
4	0xbf33ee48	-0.70285463
5	0x3fa26622	1.2687418
6	0x3f0178f6	0.50575197
7	0xbd858191	-0.065188535
8	0x3ec51e50	0.3849969
9	0xbde1514d	-0.11001835
10	0x3ea3171f	0.31853577
11	0xbe663a19	-0.224831
12	0x3eb1790c	0.34662664
13	0x3c963d1b	0.018339684
14	0x3fbc1614	1.4694238
15	0xbeb4c204	-0.35304272
16	0xbf4fd928	-0.8119073
17	0x3e3daf3f	0.18523882
18	0xbf2df1ce	-0.6794709
19	0xbdf8de62	-0.12151791
20	0xbf8c8f88	-1.0981302
21	0xbece2d97	-0.40269157
22	0xbf90e473	-1.1319717
23	0x3efabbbf	0.48971364
24	0xbf9c31b6	-1.220267
25	0xbf224135	-0.6338075
26	0xbf0014fd	-0.50032026
27	0xbe842a67	-0.258136
28	0xbe8134c4	-0.2523557
29	0x3e2284d3	0.15870981
30	0xbe143396	-0.14472803
31	0xbe3ce315	-0.18446
32	0xbec23f83	-0.3793908
33	0xbf013b33	-0.50480956
34	0x3f218227	0.6308922
35	0x3f6b321b	0.9187333
36	0x3e27db4e	0.16392252
37	0xbd9a4202	-0.07532121
38	0x3e4cdfa4	0.20007187
39	0xbf5f022f	-0.87112707
40	0xbe1d5ec7	-0.15368186
41	0x3cd15d63	0.025557226
42	0xbf4088a5	-0.75208503
43	0xbf3c8f98	-0.73656607
44	0x3ccea447	0.025224818
45	0x3bc96032	0.0061455006
46	0x3f811684	1.0084996
47	0x3ed14b8b	0.40877947
48	0x3f7752a8	0.966105
49	0x3cb02c38	0.02150546
50	0x3e3de7d2	0.18545464
51	0xbe0c8321	-0.13721897
52	0xbfe09fa1	-1.7548715
53	0xbf0adf40	-0.542469
54	0x3f2523c3	0.64507693
55	0x3d99c35d	0.07507966
56	0x3f2dd71c	0.67906356
57	0x3f0e83ec	0.55670047
58	0x3f3e57df	0.7435283
59	0x3ea7d312	0.3277822
60	0x3f0477b3	0.51745147
61	0x3f0c623e	0.54837406
62	0xbee8e463	-0.45486745
63	0x3e2164ab	0.15761058
64	0x3f25f7a4	0.64830995
65	0xbf5343a5	-0.8252509
66	0xbe218e13	-0.15776853
67	0x3f041c3a	0.5160557
68	0xbff2a08f	-1.8955249
69	0xbe8b86e1	-0.27251342
70	0xbe85867d	-0.2607917
71	0x3ea58c5f	0.32333657
72	0xbdb6e651	-0.08930648
73	0x3f98fcb1	1.1952115
74	0xbf4ba43e	-0.7954749
75	0xbe6359ca	-0.2220222
76	0x3dd9a876	0.106278345
77	0xbed96f35	-0.42467657
78	0xbe733c7b	-0.2375354
79	0xbf05711f	-0.52125734
80	0xbf000501	-0.50007635
81	0x4090aa4c	4.520788
82	0x3f6e0eee	0.9299153
83	0x3d63cff2	0.055618234
84	0x3f813d53	1.009684
85	0xbf63c317	-0.8896956
86	0xbecd8c42	-0.4014607
87	0x3f71e962	0.9449674
88	0x3f52add0	0.82296467
89	0xbf086a4c	-0.53287196
90	0x3fadae5a	1.3568833
91	0xbff1064b	-1.8830045
92	0xbf87f37c	-1.062118
93	0xbd6c4e50	-0.057691872
94	0xbf33ea14	-0.7027905
95	0xbec1e017	-0.3786628
96	0xbe380c6b	-0.17973487
97	0xbf96fd39	-1.1796027
98	0x3ff5493f	1.9162978
99	0xbda624e7	-0.08112507
100	0xbed26b0c	-0.41097295
101	0xbed9847e	-0.42483896
102	0xbf81380c	-1.0095229
103	0x3f277f0e	0.65428245
104	0x3d5b09e6	0.053476237
105	0xbee52679	-0.44755915
106	0xbd738a84	-0.05945827
107	0xbec12f33	-0.37731323
108	0xbf1fda5a	-0.62442553
109	0xbfe43950	-1.782999
110	0x3f3cacb5	0.7370103
111	0xbf040301	-0.51567084
112	0x3f202e20	0.6257038
113	0x3fdbe075	1.7177874
114	0xbf1593e3	-0.5842878
115	0xbfefddee	-1.8739603
116	0xbf0b6674	-0.54453206
117	0xbeb1fff1	-0.3476558
118	0xbf40357f	-0.7508163
119	0x3f121be7	0.57073826
120	0xbdabd137	-0.08389514
121	0x3f1fe36c	0.62456393
122	0x3e2b978a	0.16757026
123	0x3df31788	0.118697226
124	0xbee016be	-0.4376735
125	0x3f3c4d28	0.7355523
126	0x3f1859d1	0.5951205
127	0xbe21724c	-0.15766257
128	0xbfb8dfb1	-1.4443265
129	0x3f25d688	0.64780474
130	0xbfe934d9	-1.8219253
131	0x3e60c9a2	0.21951917
132	0xbeca631f	-0.39528748
133	0x3e3a0b4a	0.18168369
134	0xbe019cb6	-0.12657437
135	0xbe5aff0c	-0.21386355
136	0x3f867041	1.0503007
137	0xbf2655df	-0.6497478
138	0x40007148	2.0069141
139	0x3e041c2d	0.12901373
140	0x3f8085a5	1.0040785
141	0x3ccede4d	0.025252486
142	0x3d8b270e	0.067945585
143	0xbec742c7	-0.38918135
144	0xbe697ccb	-0.22801511
145	0x3f0acddb	0.5422036
146	0x3f527a9f	0.82218355
147	0xbf320373	-0.69536513
148	0x3fc335bf	1.5250777
149	0x3f2e3cbf	0.6806144
150	0x3e54223c	0.20716184
151	0x3e537b03	0.20652394
152	0xbde72de7	-0.11288052
153	0xbf7329ef	-0.9498586
154	0x3e57a242	0.2105799
155	0xbeb1cb67	-0.34725496
156	0xbf555512	-0.8333293
157	0xbba10342	-0.0049137184
158	0x3e514205	0.2043534
159	0x3e943595	0.2894713
160	0x4010ba22	2.2613606
161	0x3e80f889	0.25189617
162	0xbe86db70	-0.26339293
163	0x3dee67c9	0.11640889
164	0x3f8580ab	1.0429891
165	0xbe939706	-0.2882616
166	0xbf0a5e6f	-0.54050344
167	0x3e6b5c31	0.22984387
168	0x3e9525bc	0.29130352
169	0x3efd969e	0.49528974
170	0x3eb6e32e	0.357202
171	0xbf0dc25b	-0.5537469
172	0x3cc9673e	0.024585363
173	0xbeb4ba75	-0.35298505
174	0x3ecbd298	0.39809108
175	0xbe4d5edc	-0.20055717
176	0xbf5676f0	-0.83775234
177	0xbf34f9cc	-0.7069366
178	0x3d59428d	0.053041983
179	0x3e6249a7	0.22098409
180	0xbf0fd45b	-0.56183404
181	0x3e7035c6	0.23458013
182	0x3eb78e25	0.35850635
183	0x3f318255	0.69339496
184	0x3d5aebf7	0.05344769
185	0xbf90527b	-1.1275171
186	0x3e94fdb1	0.290998
187	0xbe5261e3	-0.20545153
188	0xbf0a6168	-0.5405488
189	0xbf40be52	-0.75290406
190	0x3c657fdb	0.014007534
191	0x3ea4d375	0.3219258
192	0xbf268d47	-0.6505932
193	0x3f0fbb60	0.56145287
194	0x3fab515d	1.3384205
195	0xbe95278c	-0.29131734
196	0x3e85fd14	0.26169646
197	0xbe4c9060	-0.1997695
198	0x3eeaa688	0.45830178
199	0x3ecc3982	0.39887625
200	0x3f316fa2	0.69310963
201	0x3ed0d880	0.40790176
202	0xbf09513f	-0.53639597
203	0x3ec8cbc9	0.39217976
204	0x3edc61b7	0.430433
205	0x3e376485	0.17909439
206	0xbeff85e1	-0.4990683
207	0x3f87c0b1	1.060568
208	0x3df3abd0	0.11898005
209	0xbfd3e014	-1.6552758
210	0xbeda9048	-0.42688203
211	0x3ea863bb	0.32888588
212	0x3ecbb695	0.39787737
213	0x3f8c3357	1.0953168
214	0xbf560e9d	-0.8361605
215	0xbef9c51f	-0.48783204
216	0x3dd26d14	0.10274711
217	0xbe7eadd2	-0.24870995
218	0x3e886c83	0.26645288
219	0xbf67303e	-0.90307987
220	0xbf1f60d7	-0.6225714
221	0x3ed94b0d	0.42440072
222	0x3e4e7625	0.20162256
223	0xbd9ca5ad	-0.07648788
224	0xbc3fe9c0	-0.011713445
225	0xbf6b72e9	-0.91972214
226	0x3cb1aefb	0.021689883
227	0x3f93be12	1.154238
228	0x400709d1	2.1099741
229	0x3e464c0a	0.19364944
230	0x3eb01f98	0.34399104
231	0x3ed647d4	0.41851676
232	0x3eb85157	0.35999557
233	0x3efc2cfa	0.49253064
234	0x3f446f75	0.7673257
235	0xc0214e8d	-2.5204194
236	0xbfd77b7e	-1.6834562
237	0xbde76ec6	-0.11300425
238	0x3c893e25	0.016753266
239	0x3e337518	0.17525136
240	0xbef3f91f	-0.47651002
241	0x3f3276f1	0.6971274
242	0x3ed36610	0.41288805
243	0x3ebbf8dd	0.36713305
244	0x4015fa35	2.3433964
245	0x3e50f724	0.20406777
246	0x3f9685ca	1.1759579
247	0x405cae12	3.4481244
248	0x3ec44174	0.38331187
249	0xbcb32c0e	-0.021871593
250	0xbfcf376a	-1.6188786
251	0xbf17001a	-0.5898453
252	0xbe27fc74	-0.16404897
253	0xbebe4102	-0.37158972
254	0xbf51b31a	-0.8191391
255	0xbfd3fa7c	-1.6560817
