models/Angle1.pt (torch, 37579 bytes, 8 tensors)

stiffness.spd.parametrizations.weight.original f4 [2, 2]
00000000: 2a5d 3040 e91b d9be a428 6fb6 26f0 7d3f
2.7556863 -0.42404106 -3.5637431e-06 0.9919456

embedding.net_.net_.0.weight f4 [64, 2]
00000000: ddf3 02bf 6af2 b93e 2e8f 603f 4233 0fbe
00000010: 2154 1a3f dcc6 4e3f a933 6c3f 66a3 163f
00000020: 56e4 3e3f c358 62bf f2ce 58bf d37b f03d
00000030: d242 4d3f 935d cc3e 14d0 18bf c65d 063f
00000040: 3f7d 90bf abc6 d33d 9f30 78bf 50a4 4e3f
00000050: 99df 66bf bfa0 483f 3f16 6cbf 715d de3e
00000060: 4d64 c43d 27f4 203f 91a2 d13e 4bd3 0e3f
00000070: d77e 70bf c3a9 b2be 76d8 003f a498 6bbf
00000080: 8832 bc3e 4c36 1b3f 9e03 b33e 7485 3ebf
00000090: d248 3b3f 73ee 8c3e 0642 9d3e dae4 2dbf
000000a0: a9b9 7dbf 48ab 203f e5c2 483f 3ec6 2a3f
000000b0: 3e35 72bf 1e1a 143f f225 8bbf be70 d13d
000000c0: 1b7e 8d3f 490c cbbd e91f 8e3f d8d1 80be
000000d0: 9013 963f bf97 14be f8f6 76bf 57c4 d93e
000000e0: b53a 39bf 69bf 0c3f f854 c93e 6046 25bf
000000f0: 4484 4c3f a336 08be 3aec 6bbf 8f8a e73e
00000100: 9e00 92bf 2cc2 03bd bb2a c73e fbe5 56bf
00000110: c907 9ebf 6547 54bb 2f93 81bf b8de 26bf
00000120: 4606 063f 2cde 323f 5e65 62bf af33 373f
00000130: ee91 9cbf d49a 093e ae0c 0dbf b779 553f
00000140: 4d35 0cbf 39ea 043f add3 77bf 7c2e 48be
00000150: 2e3b 013f fcb5 5cbf a148 843f 4aee 09bf
00000160: 890b 473d 9712 043f 9c69 42bf 158e 0d3d
00000170: 663d 973f 25cd 84be 85b4 c2be 1a50 c9be
00000180: 772b 86bf 2c94 71be 0eab 8cbe 3c8c 7b3f
00000190: b315 92be c0ec e33e cb3c 7dbd 2faa 253f
000001a0: 1553 49bf 1bd5 083f 1d32 283f 4075 fcbe
000001b0: ca79 273f 41e8 15bf b125 35bb 0d26 59bf
000001c0: 6e97 37bf bb48 f13d 8b07 813f 4d24 2bbf
000001d0: 57a1 43bf 143a 5f3f b60e 543f 588b a2be
000001e0: 5801 95be 6b90 3a3f 6187 85bf 649b 19bf
000001f0: b170 6c3f 8f0b 62be df1d 46be 095f f0bd
-0.51153356 0.3631776 0.87718475 -0.13984397 0.6028462 0.80772185 0.9226633 0.58843076
0.74567163 -0.8841669 -0.84690773 0.117423676 0.80180085 0.3991514 -0.596925 0.52486837
-1.1288222 0.10340627 -0.9694919 0.8071947 -0.9018493 0.7837028 -0.92221445 0.43430665
0.09589443 0.62872547 0.4094434 0.5579116 -0.9394354 -0.34895143 0.50330293 -0.92029786
0.36757302 0.60629725 0.34963697 -0.74422383 0.7315799 0.27525672 0.30714434 -0.67927325
-0.9911142 0.62761354 0.78422385 0.66708744 -0.9461249 0.5785235 -1.0870955 0.10226582
1.1054109 -0.099144526 1.1103488 -0.25160098 1.172472 -0.14511012 -0.96470594 0.42532608
-0.72355205 0.5497957 0.3932264 -0.6456051 0.7988932 -0.13302092 -0.9215733 0.452229
-1.1406438 -0.0321676 0.38899788 -0.8394467 -1.2346126 -0.0032391187 -1.0123042 -0.6518359
0.5235332 0.6987026 -0.88435924 0.7156324 -1.2232034 0.13437968 -0.5509747 0.8338885
-0.5476883 0.51919895 -0.96807367 -0.19548982 0.50480926 -0.86215186 1.0334665 -0.53879225
0.048594985 0.51590866 -0.759424 0.034559328 1.1815612 -0.25937763 -0.3802835 -0.39318925
-1.0482014 -0.2359168 -0.27474254 0.98260856 -0.2853218 0.44516563 -0.061825555 0.64712805
-0.786424 0.53450173 0.65701467 -0.49308205 0.6542021 -0.58557516 -0.0027640874 -0.84823686
-0.7171544 0.1178145 1.0080427 -0.66852266 -0.7641806 0.87197995 0.8283495 -0.31746936
-0.29102588 0.72876614 -1.0431939 -0.6000273 0.92359453 -0.22074722 -0.19347332 -0.117368765

embedding.net_.net_.0.bias f4 [64]
00000000: ee64 d0be 2442 ae3d beb2 3a3f bd43 a0be
00000010: 432b 893d 2ba1 113f 45d7 143f ce3b 573e
00000020: 2790 cc3e a6e7 f9be b860 a5be 42d0 76be
00000030: 29ba 983e 2305 a93e 8e76 12be ec81 13be
00000040: ce91 0d3f cef4 173e 6c26 773e 036c 113f
00000050: 81da 2dbe b738 493e a3e0 333e d159 0ebe
00000060: e67f b9be b6f7 233d 5290 92be 39d0 183f
00000070: b7cd 04bf 8dc0 febe aa84 2dbd 3081 1f3e
00000080: 865e 21be 4fa1 1ebd 9cdb f13e 246f b53e
00000090: e240 2b3f a776 66be 55c3 d53e e32d a6be
000000a0: 9f28 483e b54e 083f a605 db3e 9dbf 9fbd
000000b0: 49fc 81be 3b85 b8be bed0 35be fedc ebbe
000000c0: 34b2 95be 1b59 073d 722c 6ebe 4820 7d3b
000000d0: 5f2f 753e 43b1 d8bd 836e 1bbe ca61 4f3e
000000e0: b751 023f 4801 a5bd e783 84bd 4ee7 08bf
000000f0: 1e08 c23e 0325 373e 2ca5 d0be 7755 96be
-0.40702003 0.08508709 0.7292899 -0.3130168 0.06697705 0.5688655 0.58140975 0.21018907
0.3995373 -0.48809546 -0.32300353 -0.24102882 0.2982953 0.33011732 -0.14303038 -0.1440503
0.55300605 0.1483948 0.2413575 0.5680544 -0.16977884 0.19650541 0.17566161 -0.1390145
-0.3623039 0.040031157 -0.28625733 0.5969272 -0.51876396 -0.4975628 -0.042362846 0.15576625
-0.15758714 -0.038728055 0.4723786 0.35436356 0.6689588 -0.225062 0.4175059 -0.32456884
0.19546746 0.532451 0.42777747 -0.07800219 -0.2538779 -0.36039147 -0.1775541 -0.4606704
-0.2923752 0.033043962 -0.23259142 0.0038623977 0.23943852 -0.10580685 -0.15178876 0.20252147
0.50905937 -0.08056885 -0.06470471 -0.5347794 0.37896818 0.17885213 -0.40751016 -0.2936208

embedding.net_.net_.2.weight f4 [64, 64]
00000000: 67fe d3bd 555a 4abe d399 40be 8466 21be
00000010: e5a4 00be c300 7f3e e6e6 17be 3856 b33b
00000020: 662f 5a3e b692 aa3c 423e ad3c 8f0a 1b3d
00000030: 3264 103d 2425 b43a ee0b 253d e0fe 36be
00000040: 4397 d2bd bf55 0fbe 5590 0fbe ae90 bebd
00000050: 98ad 8b3e 3ae7 11bb d66e df3d 0c45 203e
00000060: c555 24bd 07cf 65be 85f5 e5bd 8c74 373e
00000070: 82e1 c7bd 2289 333c 7d7e a4be e87b 8e3e
00000080: 4400 123e cda4 aebd 4d1c 633d 0712 553e
00000090: 312e 9abd f0a0 9c3e 5df9 ef3d 6a0c ad3d
000000a0: 1e91 613e 1e50 0c3e e118 873b 7ef6 5bbe
000000b0: e2b5 d7bc c743 be3d 1564 9fbe 1a6d 153e
000000c0: 0eb0 103e f741 d63d 40a3 bcbd 7fe5 49bc
000000d0: a120 003e 6784 febd d3f0 89bd 6bd4 d5bc
000000e0: dfc7 cd3d 901a 8cbe c0bf 443e b47b 55bc
000000f0: 8aec da3b cb74 033e b9e6 5ebe 74c7 c2bd
00000100: dc93 f03d 01de ba3d da94 153e 2509 703e
00000110: 113f a13d 8c82 89be 6127 4f3c 9b53 32bd
00000120: f3bf d2bd 7b97 15be 5040 9ebe cf91 1dbd
00000130: 0004 43bd 3608 993d cd70 0fbe fe1e 1a3c
00000140: cf91 693c 277d 953d b49d 673e 38b1 dabc
00000150: 5a10 13bf 98eb 243e 3a93 09be 016a 80be
00000160: d3ca 5c3e 48f3 ce3e f838 3f3e ccc1 c9bd
00000170: 2a6c c2bd 97f4 003e 8b32 a93e cc09 8ebd
00000180: 0585 4ebe 08a2 313e cb85 41be 6bac 61be
00000190: 7e72 ae3c 3721 9fbe 051f 9fbe e600 67be
000001a0: 0514 44be 0db3 6abe 339e 073c f76e 693e
000001b0: a413 483d 777b 6f3c e779 4a3e 27c7 b4bd
000001c0: 24bf e9bd 931b 5d3d d177 e7bc 713e 3bbd
000001d0: 3e0a 20be 060f 903d ba33 293e 9894 06bd
000001e0: b735 0dbd faef 7c3e 2164 84be 532b 853e
000001f0: 5f29 21be f62a 94be bb36 cc3d b7ae 49bd
00000200: f577 1d3e 353a 67be 27b9 53be e322 84be
00000210: ed77 ee3d 63ec e0bc afdc 28be 94d1 b8bd
00000220: da4e 19be 13b0 c7bd d49d 3cbc 9226 3fbd
00000230: 5331 d1bd 8266 95be a5af 113e dae0 273e
00000240: 2903 2ebe 3c66 d03c 89a8 98be 1a95 853d
00000250: 7e4a 5dbb 9d22 60be 2e3a b2bd e97a 6e3e
00000260: c17c 54bd bb11 5abd 8c50 e73d b533 37be
00000270: e070 a1bd 2c89 1e3e b1f0 a93d fad9 76b9
00000280: 7306 053e 7173 7e3e dcb1 803d 29a3 1e3e
00000290: e9e6 10be 8ab0 813d 894f d0bd c95c bbbd
000002a0: 0f69 86be ad99 85bc 07b2 a03d d1bf 4b3d
000002b0: 1fcb 0fbd 10ff 8f3c dd4f ac3d 4b65 003e
000002c0: 3084 963e 6a02 63be 90ce 863d 5669 d9be
000002d0: 9b91 3bbe eb0b 433e 955d 193e 23b6 883e
000002e0: 7214 d9bd 4b35 0e3e 2871 ccbd 9763 083e
000002f0: 71f9 42be 5400 6c3e 2fc7 333e 8cd6 b83d
00000300: db01 363e 4d53 6ebe 61a7 813d 250c e1bd
00000310: 1647 08be caa1 003e 9073 e93b 7c28 b73d
00000320: 0cc9 153e 0bc3 193e 8384 993e 3fe5 923e
00000330: 0f77 173c 0df4 063d 0e52 413e 95eb bbbd
00000340: 1c51 8d3d 51ec ecbc 6392 47be 13d6 f7bd
00000350: 1003 cc3e 4a57 14be 7c06 ad3e 0ce0 943e
00000360: bd2f 8dbe db45 d8be 996a 42be d63f fd3d
00000370: 4cc1 263e ec1b 913d ba26 a1be acc0 213e
00000380: 2d6c da3d db65 75be a99f 843e db80 4b3e
00000390: 7cdd 2e3d dbe2 7b3e de0a a33e 37ec 173e
000003a0: 164d ba3d 7992 f0bc bc32 d0bd 8a4b 34be
000003b0: 9b2d 053e d2d0 a53c 033d 92be c030 a8bc
000003c0: 5bfd 0b3d 2945 fcbc af23 d43d f59c 1c3e
000003d0: d8b7 8a3e 12c2 7ebe 7f52 a0be 38bb 943b
000003e0: 4afc 6b3d 72ab 93be a114 803e dd09 2ebe
000003f0: 371d 413c 45b3 6d3e 45e0 41be 7ff9 933c
-0.10351258 -0.19761021 -0.1880868 -0.15761763 -0.12562902 0.24902634 -0.14834175 0.0054729246
0.21307144 0.02082191 0.02114785 0.037851866 0.035251804 0.0013743979 0.04029458 -0.17870665
-0.10282757 -0.13997553 -0.14019902 -0.09304939 0.2728088 -0.0022263066 0.10909812 0.1565134
-0.04012086 -0.22442256 -0.1122847 0.17915553 -0.09759809 0.010957988 -0.32127753 0.27828908
0.14257914 -0.08527527 0.05544691 0.20807658 -0.075283416 0.30591536 0.11717484 0.084496334
0.22028014 0.13702437 0.004122839 -0.21480748 -0.026331846 0.09290271 -0.31131044 0.145924
0.1412966 0.104618005 -0.09210825 -0.012322783 0.12512447 -0.124275975 -0.06735387 -0.026102265
0.10047888 -0.27364016 0.19213772 -0.013029981 0.0066810297 0.12837522 -0.21767701 -0.09510699
0.11746952 0.09124375 0.14607564 0.23440988 0.07873357 -0.26857412 0.012643666 -0.043536764
-0.10290518 -0.14608566 -0.30908442 -0.038469132 -0.047611237 0.07472269 -0.14007874 0.009406803
0.014255955 0.072992615 0.22618753 -0.026695833 -0.57446826 0.16105497 -0.13435069 -0.25080875
0.21561746 0.40419984 0.18674076 -0.09851417 -0.09493287 0.12593304 0.33046374 -0.06935462
-0.2016793 0.17346966 -0.18898694 -0.22038428 0.021294829 -0.31080028 -0.31078354 -0.22558936
-0.19148262 -0.22919865 0.008277464 0.22796236 0.048846856 0.014616839 0.19773065 -0.08827048
-0.1141341 0.053981375 -0.028255375 -0.045713846 -0.15628907 0.070341155 0.16523638 -0.032856554
-0.034475055 0.24700919 -0.25857642 0.26009616 -0.15738438 -0.28939027 0.099713765 -0.049238887
0.15377791 -0.22580798 -0.20676099 -0.25807866 0.11643968 -0.027456468 -0.16490434 -0.09024349
-0.14971486 -0.0975038 -0.0115122385 -0.046667643 -0.10214486 -0.2917977 0.1422716 0.16394368
-0.16993393 0.025439374 -0.29816082 0.065225795 -0.0033766325 -0.21888204 -0.08702503 0.23289074
-0.051876787 -0.053239565 0.1129466 -0.17890818 -0.07882857 0.15482014 0.08297861 -0.00023541591
0.12990741 0.24848725 0.06283924 0.15491928 -0.14150585 0.063325 -0.1017142 -0.09148557
-0.26252028 -0.01630863 0.07846456 0.049743477 -0.03510582 0.017577678 0.0841367 0.1253864
0.29397726 -0.2216889 0.065823674 -0.42463177 -0.18317263 0.19047515 0.14977105 0.2670146
-0.10599603 0.13887517 -0.0998252 0.1331924 -0.19040467 0.23047 0.17556451 0.090252966
0.17774145 -0.23273964 0.06330753 -0.109886445 -0.13308367 0.12561718 0.007124372 0.08943269
0.14627475 0.15015809 0.2998391 0.28690526 0.009244694 0.03294759 0.18878958 -0.09175793
0.06900236 -0.028921278 -0.19489436 -0.12101378 0.39846087 -0.14486423 0.3379401 0.29077184
-0.27575484 -0.42240795 -0.18985976 0.12365691 0.16284674 0.07085404 -0.3147486 0.15796155
0.10665164 -0.23964636 0.2590306 0.19873373 0.042691693 0.24598257 0.31844229 0.14836203
0.09096734 -0.029366719 -0.10165927 -0.17606941 0.13005678 0.020241175 -0.28562173 -0.020531058
0.034177165 -0.030794697 0.103583686 0.1529425 0.27093387 -0.2487872 -0.3131294 0.00453892
0.05761365 -0.2884174 0.2501574 -0.1699595 0.0117867505 0.23212917 -0.18933208 0.018063305

embedding.net_.net_.2.bias f4 [64]
00000000: a694 bebc 3828 76bd e289 7cbd e63d d13c
00000010: 6cf2 163c aff3 a13d 6023 a6bd df10 66bd
00000020: 19c4 f03c abb0 f93c 938c 2dbe 423a d9bc
00000030: aef8 ebbc 7819 34be fbd0 70be 43fc b43d
00000040: d2ae c3bc 4f5f 8dbc 2b71 64ba 70ad 75bd
00000050: 0330 b5bc 9d7c 723d 5725 fb3d 263c ccbc
00000060: 0b14 e33d 73fe 3dbc 2ca7 be3d 81e9 5f3d
00000070: 6274 d33d ad4c 723d 8aaf 0b3e 6d1a 24bd
00000080: 97c5 98bd c789 043e 9038 1e3d caea f9bc
00000090: b932 a7bd 3a57 b93d 08bd 813d b11c 20bd
000000a0: 7e0c aabd 6734 9bbe d643 003e 2bf5 4ebd
000000b0: ab63 63bd f9f1 19bc 5623 6f3c 1a04 c43a
000000c0: 51a6 703a a8b5 073e 930e 83bd 6625 493c
000000d0: 296a 743d 3c4d 0abd 0709 6cbd fd2a 13be
000000e0: 591f 7dbd 5c4c 3cbd 53dd a53d eb19 d9bd
000000f0: 55fa 79bd 3506 1fbe ac1f 4cbc 9ad5 6ebd
-0.02326424 -0.06009695 -0.061654933 0.02554221 0.009213071 0.07907807 -0.08112216 -0.056168433
0.029390382 0.03047975 -0.16948156 -0.026517037 -0.028805103 -0.1758784 -0.2351722 0.088371776
-0.023887072 -0.01725736 -0.0008714373 -0.059979856 -0.02211762 0.05920087 0.122629814 -0.024931025
0.11087807 -0.01159631 0.09309229 0.054666046 0.10324933 0.059155155 0.13641182 -0.040064264
-0.07459562 0.12943183 0.03862816 -0.030507464 -0.081639715 0.0904984 0.06334883 -0.039089862
-0.08303164 -0.30313417 0.12525877 -0.05052678 -0.055514973 -0.00939607 0.014595827 0.0014954836
0.00091800565 0.1325289 -0.06399264 0.012276983 0.059671555 -0.033765063 -0.057625797 -0.14371867
-0.061797474 -0.04597126 0.08098855 -0.106006466 -0.06102975 -0.15529712 -0.012458723 -0.058309175

embedding.net_.net_.4.weight f4 [64, 64]
00000000: 993a 123d e2e3 8e3c ed20 ef3d bb67 3a3e
00000010: 97ef a4b8 e828 593d 09df a0bd 42dc 663c
00000020: e59b 813e 8530 8d3d 9af9 2c3e b257 e23c
00000030: cef8 53bd 8f15 733d 8e15 933b 462b ee3b
00000040: 34b4 993d 4376 593d fb65 d2bd 93ae 7f3e
00000050: 7c39 4fbb c5b4 7b3d 5eb8 193e d59a babd
00000060: 1570 bc3d a002 e53d e0e9 94bd 0c31 02bd
00000070: c0de 173e f01a 2c3e 15b2 b8bd f35e 17bc
00000080: c7a2 f1bd 5d69 293d 0fe3 ba3d 26bf 54bd
00000090: e9ce f2bd a371 da3d e5b5 00be 441c 4e3c
000000a0: 8cc7 b1bd a5ab 1dbe 67de f7bb 541d 103e
000000b0: a2b5 f73c 1b09 e5bd 42ab bebd 4e17 8c3d
000000c0: c5d0 3bbb 36c0 8cbd 80e7 63bb 398c 0fbe
000000d0: e341 5e3d 3b88 913d f413 c2bd 5afc 843d
000000e0: e1fa a63d 9ad0 eb3c 12eb f3bd e9e1 9b3d
000000f0: caab 263e 9edc 3dbe dad0 773d 92ee f0bd
00000100: 7806 b03e ad92 8abe 33a2 96be a2a7 c63d
00000110: 225c 513e 3c98 c33c 5d3b 033e 2a12 8a3e
00000120: 5100 373e 8a4d 403e eb74 a23d ef25 01be
00000130: 986b 5abe 1754 5ebd 39d4 8a3e 6b1e 83be
00000140: 2964 283d c0f3 6d3e ac5a a73e a9e9 b7bd
00000150: 623a 803e b4f2 81be 20d4 5a3e 3adf 9ebe
00000160: 1af8 ad3d 0189 2c3e bbb2 613e fde1 cabd
00000170: 683c c13e c6c9 aabd d39d 733e 07e3 883e
00000180: b069 2a3e 30bb 093e c558 013d 6169 4fbe
00000190: b355 3abe 299e 713e be60 00bf 4fe8 9a3e
000001a0: bbb2 453d 11d6 b83e d9aa 92be 497a 943e
000001b0: 4a8f 81be 8449 963e e605 b33e 09d4 a2be
000001c0: 84e7 233e 0a4d e93d 3c35 2b3e 06e5 00be
000001d0: fe85 46be b498 863e cdb8 1bbd b1f6 2cbe
000001e0: 6f84 713e 80f4 713e 6431 163e 9ad4 613e
000001f0: 31a2 c73e 1a7e edbd d058 bbbe 2418 bbbe
00000200: 8d4e 97be 25ed 9b3e 981d 413d 58f8 66be
00000210: 4f73 8fbd c58b 8e3e 5831 9fbd fb70 d6bd
00000220: 394c fc3d 8d73 b4be a13b 99be 093e 933e
00000230: 4748 ff3d 03ef 9fbe 2808 c93d 13b3 b33e
00000240: c52e 1f3e 5f3a 1abf bc50 7ebe bcba aabe
00000250: f936 87be c1b8 d63e f52b e4be 232f fb3e
00000260: 1424 e4be e432 18bd 96b7 45be 2191 5b3e
00000270: 17fd c5be 8ad3 87bb 9740 a8be c7eb 0dbf
00000280: 3182 ecbe 5b69 5ebd 8dfe d8be 3a1a 903e
00000290: 0420 903e 216c cdbe c222 923e a7e0 87be
000002a0: 5132 e43e b75d 44bd 9e64 c0bd aef3 54be
000002b0: 6534 0bbe 7f79 67bd c6e9 39bd c2a6 9a3d
000002c0: 285b c63b 25cf 0abe 9820 9fbe 5d9d df3e
000002d0: a672 563e 4443 153d 33ac a7bb a7f7 383e
000002e0: e497 f8bd 2eda cbbd f4e6 9abe 6d4b 33be
000002f0: 51d1 7abe 5ed5 4cbe ff26 953e d049 0f3e
00000300: 10fd f1bd dc44 15be 7fab c2bd 289c 993e
00000310: 3c75 643e a483 b6bd 1f42 58bd 62c8 b73e
00000320: 5917 213e 2972 613a 327f b13e 26c5 78be
00000330: 90f1 d5be 6553 b73e 63a1 303d 0498 5cbe
00000340: 59c2 303e 35bc 573e a877 343e e06e d5bd
00000350: 371b 093d b631 8fbe a184 313e 5a6f 86be
00000360: 36ee c03e 26fb a83c 9f7c 393e 1f62 51be
00000370: 9975 803d 6615 563d 6eba 993d 23cd 7a3e
00000380: df25 3b3e 9e3c ddbd e61a 8a3e 9d3d a13a
00000390: 1602 49be ffbf eb3d 02b4 24be 79e1 a13e
000003a0: 2efd 7cbe 0cff 49be e37a 083d 23ea 7e3e
000003b0: b8d3 6abc ec87 f0bd 5805 53be 954b 91bd
000003c0: 0c25 0e3b e863 2abc 1d0b 153e b638 cbbe
000003d0: cffa bf3c 6ea4 bbbd 2f37 4cbe 8327 b23d
000003e0: 0e42 0a3e b4d1 f73c e980 11bd 1ea4 f13e
000003f0: 0b78 d33e f54d 3cbe d580 4bbe f820 c4bd
0.035700414 0.017442647 0.11676202 0.18203633 -7.8647565e-05 0.053017527 -0.078550406 0.0140905995
0.2531425 0.0689402 0.1689209 0.027629707 -0.05175095 0.05934673 0.0044886535 0.007268342
0.07505074 0.0530913 -0.102733575 0.24968939 -0.0031619957 0.061451692 0.15011737 -0.09111563
0.092010655 0.11182141 -0.072711706 -0.031785056 0.14831066 0.16807151 -0.090183415 -0.009238946
-0.117986254 0.041360248 0.09125339 -0.051940106 -0.11855871 0.10666206 -0.12569387 0.012579981
-0.08680639 -0.15397508 -0.007564354 0.14073688 0.030237976 -0.11183377 -0.093100086 0.068403825
-0.0028658372 -0.06872599 -0.0034775436 -0.14018334 0.054262053 0.07106062 -0.09476462 0.06493445
0.0815332 0.028785992 -0.119100705 0.07611448 0.1627647 -0.1854119 0.06050191 -0.11764254
0.34379935 -0.2706503 -0.29420623 0.09699942 0.20445302 0.023876302 0.12815614 0.26966983
0.17871214 0.18779579 0.079324566 -0.12612127 -0.21330106 -0.054279413 0.27115038 -0.25609145
0.041111145 0.23237514 0.32686365 -0.08980114 0.25044543 -0.2538048 0.21369982 -0.31029683
0.08494587 0.16849138 0.22040837 -0.09906385 0.377414 -0.083392665 0.23790674 0.26735708
0.16641879 0.13450313 0.031578798 -0.20255043 -0.18196754 0.2359549 -0.50147617 0.30255362
0.048266154 0.3610082 -0.2864597 0.28999546 -0.25304633 0.29352963 0.34965438 -0.31802395
0.16006285 0.11391647 0.16719526 -0.12587366 -0.19387051 0.26288378 -0.038018037 -0.1689098
0.23585676 0.23628426 0.14667279 0.22053757 0.3899093 -0.115963176 -0.36591196 -0.36541855
-0.29552117 0.30454364 0.047147363 -0.22555673 -0.07004415 0.2784101 -0.077730834 -0.10470768
0.12319226 -0.35244408 -0.29928306 0.28758267 0.12464958 -0.3123704 0.09816009 0.3509756
0.15545185 -0.6024532 -0.24835485 -0.33345592 -0.26409128 0.4193783 -0.44564787 0.490594
-0.44558775 -0.037157908 -0.19308314 0.21442081 -0.38669655 -0.0041450905 -0.32861778 -0.5543789
-0.46193078 -0.054299694 -0.42381707 0.2814501 0.28149426 -0.40121558 0.28542143 -0.26538584
0.44569638 -0.047940936 -0.09394191 -0.20796081 -0.13594206 -0.056512352 -0.04538896 0.07551338
0.006053347 -0.13555582 -0.31079555 0.43674746 0.20942172 0.036441103 -0.0051169633 0.18063222
-0.12138346 -0.09953724 -0.30254328 -0.17509241 -0.2449391 -0.20003268 0.29131314 0.13993001
-0.11815846 -0.14577049 -0.095053665 0.3000195 0.22310346 -0.08911827 -0.052797433 0.35895067
0.15731563 0.000860008 0.34667355 -0.24293956 -0.4178586 0.35805812 0.04312266 -0.21542364
0.17261638 0.21067889 0.1762377 -0.10421538 0.03347322 -0.27967614 0.1733575 -0.2625683
0.3768174 0.02062757 0.18113945 -0.20447586 0.0627243 0.0522665 0.07506262 0.24492316
0.18276165 -0.108025774 0.26973647 0.0012301687 -0.19629702 0.1151123 -0.16084293 0.31617334
-0.24705955 -0.19726199 0.03332032 0.24894004 -0.014332704 -0.11744675 -0.20607507 -0.07094494
0.0021689562 -0.010399796 0.1455502 -0.39691705 0.023435025 -0.09162222 -0.19942926 0.086989425
0.1350176 0.030251361 -0.03552333 0.47195524 0.41302523 -0.18389113 -0.19873364 -0.09576601

embedding.net_.net_.4.bias f4 [64]
00000000: 7728 d4bd 0640 393d b5dd ffbd 06cb 493e
00000010: 1cfb 58be 9eca 983e 4196 63bd 8a08 09be
00000020: 19b3 adbd 774f a7be 1f30 9a3d 7465 4ebc
00000030: 5e59 39be 012a 133d 513b abbd e0dc 3d3e
00000040: fcff c33e 0f0a af3d 9691 9c3d 5abe 97be
00000050: 01a5 a2be 5d22 cdbd 2e27 d7bd 4de8 edbd
00000060: 0b4f d93d 1a36 93bd e68c b23e 254b afbd
00000070: b0e6 1f3e da31 debc 58a0 ef3c 61ab 7a3e
00000080: 7100 20be b224 6c3e 910a 673e ec4a 743d
00000090: 3701 b33e ae6f 893e 80b0 3a3e 0e76 bf3b
000000a0: 3381 0ebe 83e6 b0bc 496c 363c 4240 81bb
000000b0: 7323 fdbd d7f9 b23d bfba a13d 2d27 56be
000000c0: 8bc2 0c3d 1ec0 88bd eb6e 61bd cf94 31bd
000000d0: 059e 913e 8290 703b 044e 673c 7411 05be
000000e0: 6bd0 0e3e 650f b1be 549b 5cbd 8a37 2dbe
000000f0: 9fc8 6cbe 6a31 a63d 2489 9abe 3de3 56bd
-0.103592806 0.045227073 -0.12493459 0.19706354 -0.2118954 0.29842085 -0.055563215 -0.13382164
-0.08481426 -0.32677814 0.075287096 -0.0125974305 -0.18100497 0.03592873 -0.08360923 0.18541288
0.38281238 0.085468404 0.07644956 -0.29637414 -0.31766513 -0.1001632 -0.1050552 -0.116165735
0.106107794 -0.071880534 0.34873122 -0.085592546 0.15615344 -0.02712338 0.029251263 0.24479438
-0.15625168 0.23060873 0.22562625 0.059641764 0.34961864 0.26843017 0.18231392 0.0058429306
-0.13916473 -0.021594292 0.011134216 -0.0039444277 -0.12360277 0.087390594 0.07896947 -0.20913382
0.034365218 -0.066772684 -0.05503742 -0.043354806 0.28440872 0.0036707227 0.0141177215 -0.12994939
0.13946693 -0.34582058 -0.05385907 -0.16915718 -0.23123406 0.08114894 -0.30182755 -0.052462805

embedding.net_.net_.6.weight f4 [1, 64]
00000000: f04d 7bbe c488 673e 92cb 03bd 9345 14be
00000010: 8138 2bbe e883 43be effa 8f3e 09cc 0b3d
00000020: c85f 843e 793f e9bc 7666 d0bd 8918 07bf
00000030: f4cd 4e3d 1826 da3e a5bc 07be cab6 163e
00000040: 653d c2be e80a 77be 9d28 31be f530 65be
00000050: 5fdb 18be 580b 88be 07ea 4bbe e6aa a73e
00000060: caa7 13be e90a 1fbe a182 c8be 2e43 773e
00000070: 8eed 89bd 6632 9bbe 4567 343e efe4 913d
00000080: 2334 1abe 9543 b1be d885 0d3e 5ae4 4dbe
00000090: df01 15be 8917 15bf a114 2fbe a963 433e
000000a0: 26ae 83be 5de7 753e aa11 4cbe dc79 1b3e
000000b0: cae7 2c3e c1fe d83e 93f8 0e3e 6717 d9bc
000000c0: baab cebd 877e 423e 31df 523e 776f 89be
000000d0: 48f9 2c3e 527c 3a3e 1a01 3a3d dc56 3ebe
000000e0: 7478 953e db61 c1be 6fdd 1ebe ee33 2d3d
000000f0: 7810 f73e 56f0 013e 433e 683e 0860 4ebe
-0.2454145 0.22610766 -0.03217656 -0.14479665 -0.16720773 -0.19093287 0.28121135 0.03413013
0.25854325 -0.028472649 -0.10175793 -0.5277181 0.05048938 0.42607188 -0.13255556 0.14718166
-0.37937465 -0.24125254 -0.17300649 -0.22381957 -0.14927433 -0.26571155 -0.19913493 0.32747573
-0.14419475 -0.15531506 -0.39162162 0.24146721 -0.06734763 -0.30311888 0.17617519 0.07123744
-0.15058951 -0.34621873 0.13820589 -0.2010664 -0.14551495 -0.58239037 -0.17097713 0.19080986
-0.25718802 0.2401404 -0.19928613 0.15183204 0.16885296 0.42381862 0.13962011 -0.026500417
-0.10091348 0.18993579 0.20592953 -0.26842853 0.16891968 0.18211487 0.045411207 -0.18587822
0.2919346 -0.3776997 -0.15514158 0.042285852 0.48254752 0.12689337 0.22680001 -0.2015382
