models/Angle.pt (torch, 137419 bytes, 8 tensors)

stiffness.spd.parametrizations.weight.original f4 [2, 2]
2.917188 0.66814035 2.8818533e-05 2.2053318
00000000: 35b3 3a40 3f0b 2b3f 54bf f137 2824 0d40

embedding.net_.net_.0.weight f4 [128, 2]
0.7904822 -0.46688542 -0.6063567 -0.36486438 -0.4002173 0.5489988 0.06825093 0.41065428
-0.2795762 -0.7586446 0.53712636 -0.44052893 -0.13688372 0.62107575 -0.8102502 -0.012354824
-0.7174234 -0.3727144 0.699664 -0.56484115 -0.52282107 -0.16425595 0.78517395 0.386081
0.28742456 0.18115945 0.72951645 -0.58083147 0.63645166 0.2604473 -0.11862539 0.33650982
0.48491377 0.7799946 0.5899371 0.30250415 0.7075669 -0.7631248 -0.16525991 0.46257985
0.50630766 -0.13779226 0.1525247 0.6876291 -0.5591386 0.6328358 -0.15295132 -0.5754791
0.76079077 0.6920398 0.36687106 -0.29166028 -0.51584214 -0.21994306 -0.5167808 -0.2556044
0.6506749 0.5637417 -0.70749635 0.22789764 -0.19173048 0.62519974 -0.06759861 -0.4803483
0.8399525 0.23823854 -0.7938965 -0.7326582 0.061995927 -0.5497885 0.43292415 -0.20273572
-0.696891 0.2826833 -0.068371624 -0.23242925 0.5029127 -0.18026435 0.59574485 0.019297548
0.63388264 0.2925593 -0.62534934 -0.59686744 0.12696858 0.50817955 0.72966444 0.03646476
0.005412249 -0.7459461 -0.54463303 0.076664105 0.30107987 -0.34010947 0.6325932 0.75677055
0.5134666 0.5781765 -0.6515999 0.518136 -0.10872873 0.53215647 0.5277107 -0.6001168
-0.6654329 0.053776972 0.5178818 0.17746098 0.15391842 0.6648531 -0.29360595 -0.2890266
0.098486856 0.64168257 -0.21512999 -0.75024676 -0.07317579 0.5296952 -0.26160794 -0.64767104
0.74047303 -0.15137057 -0.5121273 0.42494386 -0.58425105 0.20122443 0.3546425 -0.34002906
-0.67156976 0.12661901 -0.310736 -0.53273153 -0.44772556 0.20426331 0.27471864 0.68371075
-0.6586862 0.3839928 -0.25416937 -0.39655873 -0.46192896 0.5836163 -0.008468349 0.5799861
-0.23328492 -0.5329196 -0.5424909 0.57642823 0.38300514 -0.34768265 0.33213493 -0.31914225
-0.69370615 0.40631926 0.04272293 0.32668236 -0.50388813 0.038615596 0.15085785 -0.6915052
-0.6928793 0.4252599 0.73365164 0.25647932 -0.16229457 -0.3038971 0.45932794 -0.71393865
-0.14870155 -0.7407675 0.67067933 -0.061735716 -0.69936854 0.25471643 0.3044113 0.27226502
0.66529965 -0.4472453 0.38311246 -0.4615619 -0.20432456 0.58800995 -0.7250836 0.5263573
0.19862191 -0.56200916 0.69682765 -0.5591292 0.8087985 0.570071 0.3825367 -0.14158669
-0.6801783 -0.569941 -0.09667061 -0.5263747 -0.6076928 0.7207794 -0.8148288 -0.11737555
0.06430484 0.20985942 0.14446694 -0.61837643 0.64182734 -0.3016716 -0.38249084 -0.49088725
-0.20616487 0.3905473 -0.27645266 -0.32945964 -0.45239362 0.05921395 -0.60171944 0.14167705
0.60418123 0.08557124 -0.31606615 0.17438804 0.6089892 0.22049013 -0.82561874 0.2961332
0.5667466 -0.10233815 0.2802251 -0.62125856 -0.7125269 0.02371353 -0.34576207 -0.25305238
-0.24137509 -0.64077085 -0.8031098 0.3053978 -0.2781827 -0.79695517 0.32153222 -0.25323322
-0.8061335 -0.5316019 0.722342 0.749293 -0.71203625 -0.28895092 -0.29124722 0.2912635
-0.8959349 -0.5896914 0.5492084 0.53351086 0.060456373 -0.7558256 -0.28908196 -0.49612847
00000000: 0b5d 4a3f 9b0b efbe 313a 1bbf 81cf babe
00000010: 48e9 ccbe 2f8b 0c3f 25c7 8b3d 4741 d23e
00000020: 9d24 8fbe 8836 42bf 1d81 093f 028d e1be
00000030: 3f2b 0cbe d2fe 1e3f 8f6c 4fbf e36b 4abc
00000040: 0fa9 37bf 6cd4 bebe 2e1d 333f 6e99 10bf
00000050: 9ad7 05bf b632 28be 2901 493f 69ac c53e
00000060: 5029 933e dd81 393e 97c1 3a3f 5fb1 14bf
00000070: 7fee 223f 5959 853e def1 f2bd 044b ac3e
00000080: 9e46 f83e baad 473f 1e06 173f d3e1 9a3e
00000090: 1b23 353f 265c 43bf e539 29be 44d7 ec3e
000000a0: 619d 013f 6a19 0dbe 6f2f 1c3e 7608 303f
000000b0: b523 0fbf 8701 223f 459f 1cbe 9952 13bf
000000c0: 2fc3 423f 8529 313f 86d6 bb3e 7f54 95be
000000d0: 3b0e 04bf c138 61be bf4b 04bf 94de 82be
000000e0: a192 263f 6051 103f 7b1e 35bf 005e 693e
000000f0: ff54 44be 170d 203f 2471 8abd 36f0 f5be
00000100: 2107 573f cef4 733e cd3c 4bbf 7d8f 3bbf
00000110: 71ef 7d3d f0be 0cbf 3ca8 dd3e f499 4fbe
00000120: 7367 32bf debb 903e 6c06 8cbd ef01 6ebe
00000130: e3be 003f 3897 38be bc82 183f e415 9e3c
00000140: 2246 223f 55ca 953e e516 20bf 4ecc 18bf
00000150: 0d04 023e 0e18 023f 4acb 3a3f 125c 153d
00000160: 3c59 b13b 53f6 3ebf 126d 0bbf 1202 9d3d
00000170: 2427 9a3e d422 aebe a1f1 213f b7bb 413f
00000180: 8c72 033f 6003 143f 40cf 26bf 90a4 043f
00000190: 2bad debd 683b 083f 0c18 073f 41a1 19bf
000001a0: cf59 2abf 3e45 5c3d e793 043f 55b8 353e
000001b0: ca9c 1d3e d033 2a3f 8553 96be 4bfb 93be
000001c0: 7ab3 c93d 4f45 243f 094b 5cbe 2c10 40bf
000001d0: 30dd 95bd 1b9a 073f 7af1 85be c5cd 25bf
000001e0: a48f 3d3f e300 1bbe c61a 03bf 3e92 d93e
000001f0: 7a91 15bf c70d 4e3e b493 b53e 4a18 aebe
00000200: ffeb 2bbf 6aa8 013e ca18 9fbe 1861 08bf
00000210: 493c e5be 672a 513e eca7 8c3e ab07 2f3f
00000220: a99f 28bf b49a c43e 7d22 82be bf09 cbbe
00000230: f481 ecbe e167 153f d5be 0abc f879 143f
00000240: 3ee2 6ebe 6b6d 08bf afe0 0abf cd90 133f
00000250: 4019 c43e 7603 b2be 970d aa3e 9d66 a3be
00000260: ba96 31bf 1409 d03e 3dfe 2e3d e942 a73e
00000270: d0fe 00bf 632b 1e3d 7b7a 1a3e 7c06 31bf
00000280: 8a60 31bf aabb d93e 98d0 3b3f 4251 833e
00000290: 8c30 26be 6798 9bbe 082d eb3e afc4 36bf
000002a0: 3845 18be f0a2 3dbf a4b1 2b3f 97de 7cbd
000002b0: d109 33bf 316a 823e ccdb 9b3e 5266 8b3e
000002c0: 1451 2a3f 56fd e4be 5127 c43e d751 ecbe
000002d0: 753a 51be d287 163f 149f 39bf 5abf 063f
000002e0: 8b63 4b3e d5df 0fbf 4c63 323f 1723 0fbf
000002f0: 6b0d 4f3f 2cf0 113f dadb c33e 1afc 10be
00000300: 2a20 2ebf a7e7 11bf 3efb c5bd 7ec0 06bf
00000310: c191 1bbf 0085 383f 9f98 50bf 9862 f0bd
00000320: 42b2 833d 63e5 563e 24ef 133e eb4d 1ebf
00000330: cc4e 243f b374 9abe d7d5 c3be 9355 fbbe
00000340: e21c 53be d1f5 c73e 348b 8dbe efae a8be
00000350: 23a0 e7be 548a 723d 490a 1abf ca13 113e
00000360: 9fab 1a3f f93f af3d 6cd3 a1be c792 323e
00000370: b7e6 1b3f 2ac8 613e c05b 53bf c59e 973e
00000380: 4e16 113f aa96 d1bd aa79 8f3e cd0a 1fbf
00000390: 2a68 36bf e042 c23c ba07 b1be 1590 81be
000003a0: 082b 77be 8f09 24bf 9b98 4dbf 1a5d 9c3e
000003b0: f66d 8ebe 4105 4cbf df9f a43e c9a7 81be
000003c0: c45e 4ebf 1017 08bf 68eb 383f abd1 3f3f
000003d0: 0248 36bf 60f1 93be 5b1e 95be 7d20 953e
000003e0: fd5b 65bf 04f6 16bf ec98 0c3f 2b94 083f
000003f0: 1aa1 773d c97d 41bf 8d02 94be 8d04 febe

embedding.net_.net_.0.bias f4 [128]
-0.4650135 -0.6431626 -0.27585718 0.5758957 0.19225745 -0.3159816 0.37940204 -0.23055683
-0.3901875 0.6274304 -0.37713236 -0.13172418 0.5347628 0.41516054 0.31383497 -0.30689886
0.33017394 0.13999854 0.36537027 -0.05480713 0.41917235 -0.52263725 0.20599565 -0.1743921
0.7517456 -0.62958676 -0.01595112 -0.20877859 0.61947066 -0.14892729 -0.22709349 -0.2413221
-0.017891807 0.29078588 -0.21338467 0.23312949 -0.2340709 0.044304945 -0.10867917 0.4227244
0.2651364 -0.045567255 -0.07298918 0.014697058 0.02751121 -0.23621194 -0.46437278 0.6601145
0.5335171 -0.65968895 0.49240065 -0.31748575 0.43842775 -0.068714075 0.29156557 0.19616073
0.3920611 0.61116654 -0.2435344 0.3356837 -0.5924256 -0.48845658 0.04611133 -0.41597942
0.020702707 0.5024152 -0.5459365 -0.2681104 -0.16327648 0.5839238 -0.18144032 -0.27608162
-0.38542554 0.4747382 -0.56859636 0.48328117 -0.50479454 0.5146906 0.031011567 -0.535314
0.26318488 -0.43499392 0.530944 0.29762796 -0.08537192 -0.48281288 0.5438062 -0.6213564
-0.57122207 0.5842114 -0.28387487 0.06765034 -0.65781456 0.63962287 0.13960953 -0.401535
-0.5540443 -0.5588438 0.59923893 -0.10783468 -0.4054983 0.519116 -0.5346889 0.10698162
0.53783906 -0.16748801 0.24935044 0.41988328 -0.077376656 0.43335232 -0.4684006 0.3635662
0.4060718 0.13581237 -0.3854723 -0.3812047 -0.6574105 0.07650419 -0.49386838 0.18613723
0.023295393 -0.4982698 0.57907134 -0.16594584 -0.04500074 -0.53772014 -0.400972 -0.62226176
00000000: 4016 eebe 4ea6 24bf 273d 8dbe e76d 133f
00000010: 23df 443e 57c8 a1be fc40 c23e 1717 6cbe
00000020: a8c6 c7be 479f 203f 7e17 c1be b4e2 06be
00000030: 37e6 083f ec8f d43e faae a03e d921 9dbe
00000040: 8f0c a93e c75b 0f3e d011 bb3e 717d 60bd
00000050: c29d d63e 8ecb 05bf 86f0 523e d893 32be
00000060: 6672 403f 992c 21bf ecab 82bc 0eca 55be
00000070: a195 1e3f 6580 18be 328b 68be 241d 77be
00000080: d791 92bc e3e1 943e 8381 5abe 7fb9 6e3e
00000090: 48b0 6fbe 1a79 353d 2f93 debd 556f d83e
000000a0: f5bf 873e bba4 3abd 5a7b 95bd eecb 703c
000000b0: 305f e13c 8be1 71be 45c2 edbe 44fd 283f
000000c0: 9494 083f 60e1 28bf f01b fc3e 7e8d a2be
000000d0: 9a79 e03e f7b9 8cbd 1548 953e 5cde 483e
000000e0: 3cbc c83e 6975 1c3f 1561 79be bcde ab3e
000000f0: 34a9 17bf fb16 fabe 3cdf 3c3d 41fb d4be
00000100: b998 a93c 489e 003f 7fc2 0bbf c445 89be
00000110: f331 27be 087c 153f 7ecb 39be 925a 8dbe
00000120: 7f56 c5be e310 f33e 888f 11bf a170 f73e
00000130: 373a 01bf c3c2 033f f80b fe3c 570a 09bf
00000140: 2bc0 863e 86b7 debe f2eb 073f b162 983e
00000150: 79d7 aebd 4033 f7be e236 0b3f 3711 1fbf
00000160: 9c3b 12bf e18e 153f 0c58 91be 438c 8a3d
00000170: 8966 28bf 53be 233f cdf5 0e3e ff95 cdbe
00000180: d9d5 0dbf 6310 0fbf b967 193f 6ed8 dcbd
00000190: 799d cfbe c9e4 043f 5fe1 08bf 2e19 db3d
000001a0: d2af 093f fa81 2bbe b955 7f3e f1fa d63e
000001b0: a777 9ebd 5be0 dd3e 34d2 efbe 5925 ba3e
000001c0: a5e8 cf3e 6612 0b3e a05c c5be 432d c3be
000001d0: 0e4c 28bf 3bae 9c3d 51dc fcbe c29a 3e3e
000001e0: fbd5 be3c 381d ffbe 053e 143f b5ed 29be
000001f0: b252 38bd 07a8 09bf 344c cdbe 8c4c 1fbf

embedding.net_.net_.2.weight f4 [128, 128]
-0.042162444 -0.32523236 -0.045603994 0.13425739 -0.07382701 -0.11451186 0.16827536 -0.34755492
-0.44217363 -0.004211967 -0.46699107 0.036821265 0.16207726 0.090419956 0.3446338 0.020219123
0.22035183 0.29188892 -0.07083454 0.027729252 0.17880905 0.027088195 -0.0634056 -0.18501136
0.89473504 -0.19488564 -0.16254589 -0.27514538 0.87029535 -0.31333295 0.046813652 -0.2961237
0.07831681 0.022538992 -0.22132894 0.11208198 -0.1485726 -0.10126751 0.07007809 0.15738004
0.37348077 -0.077135846 0.06378926 0.15563881 -0.11743638 -0.22416615 -0.16190939 0.5888849
0.5930361 -0.0767521 0.20730224 -0.12669964 -0.00863423 0.16766447 0.12532519 0.029823631
0.3878371 -0.07066883 0.007718227 -0.0518297 0.015023603 -0.106690876 -0.10604143 -0.093017526
-0.030625144 -0.03054733 -0.100957006 -0.011730077 -0.11272056 -0.05778637 -0.083396114 -0.009134909
-0.4165464 0.04974093 -0.110328 0.08044717 -0.034358826 0.10262703 -0.013583147 -0.27905396
0.066744626 0.07557144 0.04480537 0.014662226 -0.023096414 -0.00089256547 0.0014191724 -0.054708265
-0.038254242 0.07227825 0.090407476 -0.17204256 -0.12152116 0.038232613 0.24099691 -0.11904111
-0.55347383 -0.21676396 0.15133905 -0.21593226 -0.13257056 -0.0021590716 -0.058070473 -0.1128918
0.16775547 -0.270802 0.00025669442 0.12002988 0.10350106 0.10905952 0.087562114 -0.049457446
0.14845364 -0.048375912 -0.217305 -0.42803422 -0.35383943 -0.056368276 -0.33401912 0.11733305
-0.044731174 -0.04238644 0.033425767 0.012425366 -0.11482785 0.012964909 -0.18294087 -0.32088843
0.11503588 0.019248925 0.077512726 0.09743373 -0.20808484 0.07869197 0.09240051 -0.30747753
-0.18814203 -0.07372849 -0.027587684 0.34694803 -0.06449998 0.04542563 0.2912158 0.1963045
0.3080272 0.40431425 0.024792556 0.19092491 -0.021209046 0.13845204 0.064456455 -0.27085268
0.06587631 -0.001123741 -0.2788218 -0.2736805 0.16216956 -0.25055954 0.21565022 -0.15511248
0.21068975 -0.33523417 -0.17876539 -0.10907399 -0.13053381 -0.1845946 0.0399343 -0.031298365
0.30320376 -0.31372964 0.21268696 0.33813182 -0.24408528 -0.06764932 -0.0011783338 0.1681088
0.11918897 -0.013954113 -0.040225223 0.033664454 -0.18124957 0.24560042 0.20175643 -0.1330631
0.21929237 -0.16796637 0.13068675 -0.13427734 0.019599028 0.057714146 -0.07247685 0.017405244
-0.11224064 -0.22052976 0.042114064 0.14189866 -0.0060107745 -0.16654728 0.080705196 0.20469207
-0.16561133 -0.0086604105 0.0462791 -0.1443799 -0.03783858 -0.062033113 -0.1734988 -0.037594244
-0.10216146 0.2190521 -0.17964666 -0.09072482 -0.26589456 0.082239926 0.0037542349 0.056089584
0.08004258 0.01149239 0.22462153 -0.069888294 -0.09604551 0.009976657 0.3861704 0.13103679
-0.21683253 -0.052804317 0.028355388 -0.32230607 0.1803198 -0.15820274 0.10336422 -0.20774698
-0.0073194536 -0.32039362 -0.14675409 -0.032459456 0.31079307 -0.09725073 0.11393256 -0.13961461
0.007523283 -0.22964746 -0.11908547 -0.032033198 -0.051602922 -0.15738212 -0.12748156 -0.17588528
-0.24634083 0.22207275 -0.16867128 0.15765727 -0.3572369 0.18435685 -0.11184502 -0.13441853
00000000: 87b2 2cbd db84 a6be 41cb 3abd c57a 093e
00000010: 9e32 97bd 3285 eabd 6050 2c3e b8f2 b1be
00000020: 9564 e2be 8a04 8abb 7419 efbe e5d1 163d
00000030: 95f7 253e 192e b93d d773 b03e 93a2 a53c
00000040: e9a3 613e 7772 953e b311 91bd 7528 e33c
00000050: b819 373e 10e8 dd3c ccda 81bd 9e73 3dbe
00000060: 5b0d 653f 1a90 47be 6e72 26be dbdf 8cbe
00000070: adcb 5e3f 2d6d a0be acbf 3f3d 879d 97be
00000080: 9064 a03d b1a3 b83c 0ea4 62be 3d8b e53d
00000090: 6a23 18be 5765 cfbd 1a85 8f3d 3c28 213e
000000a0: df38 bf3e 66f9 9dbd f2a3 823d c85f 1f3e
000000b0: 7c82 f0bd d08b 65be 93cb 25be 29c1 163f
000000c0: 37d1 173f 3430 9dbd 0a47 543e 8dbd 01be
000000d0: 9676 0dbc 3cb0 2b3e 3f55 003e b050 f43c
000000e0: 9692 c63e d2ba 90bd 2ee9 fc3b 614b 54bd
000000f0: 8f25 763c bf80 dabd 402c d9bd f97f bebd
00000100: 95e1 fabc 653e fabc 8cc2 cebd 822f 40bc
00000110: 09da e6bd 67b1 6cbd 95cb aabd 96aa 15bc
00000120: 9245 d5be 25bd 4b3d a5f3 e1bd 7cc1 a43d
00000130: d7bb 0cbd 1f2e d23d d98b 5ebc 29e0 8ebe
00000140: 68b1 883d 33c5 9a3d d685 373d d539 703c
00000150: b134 bdbc 0efb 69ba 8603 ba3a c615 60bd
00000160: 7bb0 1cbd 9e06 943d 8e27 b93d ed2b 30be
00000170: 16e0 f8bd cd99 1c3d e5c7 763e d3cb f3bd
00000180: 76b0 0dbf 5ff7 5dbe a0f8 1a3e 591d 5dbe
00000190: 94c0 07be 367f 0dbb 4edb 6dbd d133 e7bd
000001a0: 17c8 2b3e 8fa6 8abe f194 8639 3ad2 f53d
000001b0: 5df8 d33d 995a df3d c453 b33d e493 4abd
000001c0: 3b04 183e d225 46bd 3485 5ebe 4d27 dbbe
000001d0: 712a b5be 6ce2 66bd 8e04 abbe 4f4c f03d
000001e0: 0938 37bd 679d 2dbd 75e9 083d c393 4b3c
000001f0: dd2a ebbd c56a 543c da54 3bbe 7d4b a4be
00000200: ee97 eb3d ecaf 9d3c febe 9e3d 568b c73d
00000210: 3114 55be 4129 a13d 7b3c bd3d b26d 9dbe
00000220: 4ea8 40be f6fe 96bd 91ff e1bc 2ca3 b13e
00000230: 9118 84bd 3a10 3a3d 3d1a 953e 0c04 493e
00000240: beb5 9d3e 4702 cf3e c219 cb3c d281 433e
00000250: 98be adbc 5fc6 0d3e bf01 843d 34ad 8abe
00000260: 29ea 863d 7e4a 93ba bbc1 8ebe da1f 8cbe
00000270: c70f 263e 5749 80be 69d3 5c3e ced5 1ebe
00000280: 0ebf 573e d0a3 abbe 460e 37be 2f62 dfbd
00000290: a8aa 05be 5e06 3dbe 2692 233d b732 00bd
000002a0: 863d 9b3e 2ca1 a0be 9cca 593e 9d1f ad3e
000002b0: 7ef1 79be ba8b 8abd 5272 9aba b724 2c3e
000002c0: 5919 f43d cb9f 64bc 34c3 24bd bde3 093d
000002d0: 7d99 39be ad7e 7b3e 3d99 4e3e b141 08be
000002e0: 2e8e 603e 60ff 2bbe bfd2 053e 0080 09be
000002f0: 248e a03c ab65 6c3d be6e 94bd 7195 8e3c
00000300: 6cde e5bd 8ed2 61be cc7f 2c3d e24d 113e
00000310: 08f6 c4bb 5f8b 2abe c448 a53d cc9a 513e
00000320: 0496 29be 65e4 0dbc 278f 3d3d 53d8 13be
00000330: a0fc 1abd 6f16 7ebd aba9 31be 6cfc 19bd
00000340: 073a d1bd 324f 603e 4bf5 37be efcd b9bd
00000350: 5523 88be 686d a83d 9c09 763b 31be 653d
00000360: 5ded a33d 944a 3c3c 3003 663e 9821 8fbd
00000370: 82b3 c4bd 2275 233c 20b8 c53e 822e 063e
00000380: 5909 5ebe 5749 58bd 8f49 e83c 4d05 a5be
00000390: c1a5 383e e6ff 21be 9fb0 d33d a0bb 54be
000003a0: 07d8 efbb a20a a4be b446 16be 35f4 04bd
000003b0: 4520 9f3e 642b c7bd 7955 e93d 22f7 0ebe
000003c0: df85 f63b b428 6bbe 15e3 f3bd 3e35 03bd
000003d0: 965d 53bd c728 21be 878a 02be 451b 34be
000003e0: c540 7cbe 0a67 633e 2ab8 2cbe e870 213e
000003f0: c1e7 b6be 0bc8 3c3e 000f e5bd 03a5 09be

embedding.net_.net_.2.bias f4 [128]
0.14938128 -0.08414603 0.056045838 -0.16058025 -0.054942872 -0.10718836 -0.14816153 0.08319037
-0.017604837 0.12590058 0.08508613 0.0064272843 -0.08188554 0.089353584 0.063861854 -0.07562216
0.07671244 -0.054345667 -0.07837958 0.017275454 0.010117775 -0.037338365 -0.031202037 0.011082348
0.017749554 0.07439008 -0.05179183 -0.043511566 -0.01776824 0.052918322 -0.031573284 0.07623029
0.0005766128 -0.011013437 0.047109257 0.005625568 -0.06230419 -0.011475733 -0.077625655 0.037657846
-0.061712112 0.12663656 0.040363133 -0.10841634 0.007903722 -0.04874028 0.04037209 0.08507537
0.02640382 -0.01633554 0.08172709 0.11236521 0.014563887 0.1019787 0.028783565 -0.0006066092
-0.03879793 0.07269533 -0.012691169 0.0032719658 0.025019564 0.0207928 -0.05479545 -0.044553638
-0.04341836 0.019344099 -0.1641828 -0.0072827865 0.0007090977 -0.06682666 -0.021402143 -0.05156981
0.0014302877 -0.09705522 -0.111493416 0.10039151 0.0060856775 -0.017451491 0.032504257 -0.03622587
0.0914182 0.10097892 -0.053588413 0.05052448 0.06131926 -0.05696584 -0.0980181 -0.015243427
0.012426052 0.026257917 0.041510932 0.06748771 -0.04536788 -0.07200557 -0.15173462 0.08266877
0.0022546852 -0.02801475 0.05304396 -0.016722577 0.07999737 0.042412788 0.10760395 -0.121067375
0.050469674 -0.023423264 0.025066538 0.10663703 -0.0026837606 0.019194879 0.032346196 -0.01754105
-0.07841516 0.010837677 -0.06526267 0.028148402 -0.09121703 0.023523517 -0.03177525 0.12038686
0.0015136362 -0.043476064 -0.046115533 -0.04406466 0.07059644 -0.017025989 -0.006154949 0.090127006
00000000: 68f7 183e c154 acbd 5290 653d 266f 24be
00000010: c70b 61bd 9285 dbbd a8b7 17be b65f aa3d
00000020: 0538 90bc 15ec 003e a341 ae3d f89b d23b
00000030: 9bb3 a7bd 03ff b63d 01ca 823d cbdf 9abd
00000040: 691b 9d3d 9099 5ebd 7985 a0bd 4185 8d3c
00000050: 06c5 253c 1df0 18bd 6a9b ffbc bd92 353c
00000060: 8367 913c d459 983d ac23 54bd 2f39 32bd
00000070: b38e 91bc e2c0 583d fd52 01bd a01e 9c3d
00000080: d427 173a b471 34bc a3f5 403d af56 b83b
00000090: ae32 7fbd b604 3cbc 33fa 9ebd 1d3f 1a3d
000000a0: d7c5 7cbd 04ad 013e d053 253d 6309 debd
000000b0: 9d7e 013c e3a3 47bd 345d 253d ff3b ae3d
000000c0: d34c d83c 1cd2 85bc 8860 a73d bb1f e63d
000000d0: 5f9d 6e3c 35da d03d 83cb eb3c db04 1fba
000000e0: 94ea 1ebd 4ae1 943d 9fee 4fbc 7a6e 563b
000000f0: d4f5 cc3c a955 aa3c 3271 60bd e07d 36bd
00000100: 73d7 31bd 8477 9e3c 891f 28be 71a4 eebb
00000110: bee2 393a 6adc 88bd 8c53 afbc dd3a 53bd
00000120: 7e78 bb3a e3c4 c6bd a956 e4bd 109a cd3d
00000130: 5d6a c73b 6ef6 8ebc 2f23 053d 9461 14bd
00000140: 7739 bb3d 09ce ce3d 867f 5bbd c2f2 4e3d
00000150: e829 7b3d 0355 69bd b7bd c8bd 91bf 79bc
00000160: a496 4b3c d81a d73c 5e07 2a3d ff36 8a3d
00000170: acd3 39bd a877 93bd 5260 1bbe 3e4e a93d
00000180: 57c3 133b 307f e5bc a044 593d c9fd 88bc
00000190: a9d5 a33d 08b9 2d3d 765f dc3d 2cf2 f7bd
000001a0: 4ab9 4e3d 25e2 bfbc 5758 cd3c 8464 da3d
000001b0: 08e2 2fbb 943e 9d3c 727d 043d 40b2 8fbc
000001c0: 2198 a0bd 8390 313c 6fa8 85bd 7a97 e63c
000001d0: ffcf babd 64b4 c03c c426 02bd 638d f63d
000001e0: 3465 c63a f513 32bd a4e3 3cbd 257d 34bd
000001f0: de94 903d 167a 8bbc 74af c9bb 8294 b83d

embedding.net_.net_.4.weight f4 [128, 128]
-0.05463496 0.053375214 0.037552696 -0.030009147 -0.017707152 -0.025751267 0.09473083 -0.051868957
0.124800116 0.059571274 -0.08673915 0.09374385 -0.032253858 -0.014477632 0.068355076 -0.05685812
-0.029773748 0.13326645 -0.06551149 0.0053781266 0.002266676 -0.010254086 0.022247255 -0.06269551
0.1359672 -0.0010427498 0.078145005 0.15267515 -0.08028808 0.0008464824 0.060815245 0.015937164
0.056274977 -0.07482009 0.14088562 0.03223578 0.03273338 -0.10821249 0.096534684 -0.13785242
0.047520716 -0.029671816 0.07643643 0.12296736 -0.08338399 0.09729653 0.025205577 0.027965944
-0.016210342 -0.03790367 0.005475267 -0.026389025 0.042700913 -0.06924559 0.08388627 -0.09765551
0.09802263 -0.06907819 -0.0806832 0.048401177 0.0026620796 0.06252928 0.0329051 -0.039933734
0.011605769 0.059958775 0.06258048 -0.09134845 0.10531582 -0.08057831 -0.06662516 -0.000575689
0.011767682 0.0778884 -0.1008211 0.062310666 0.061205108 0.03623377 -0.042627867 0.0027492004
0.09865228 -0.08047164 0.09295962 0.10281117 -0.028279921 0.008227857 0.19022547 -0.053929336
0.00096254644 -0.09244042 -0.02189008 -0.10291067 0.04698603 -0.011849854 0.14956897 -0.03036961
0.00091622124 0.03403134 -0.019503664 0.012095763 0.04374906 -0.015660867 -0.21050102 0.011507148
-0.00631275 0.07613257 0.05416466 0.07427504 -0.12552081 -0.04106177 -0.039526463 -0.07384217
-0.0051503116 0.03095626 -0.030034184 -0.10737312 -0.04481274 0.009810079 -0.021021381 0.015570862
-0.15983823 0.08168179 0.04275003 0.05967689 0.012633339 -0.004421265 0.080838844 -0.011107468
0.10501729 0.13871361 0.08688043 0.014353038 -0.091148935 -0.057676498 -0.03743045 -0.017304996
-0.10299043 -0.044482432 0.023081055 0.07809979 -0.023861881 -0.035417154 0.10284693 0.02801961
-0.005276576 -0.046709783 0.10169546 0.09833258 0.011634554 0.05084593 0.06434018 -0.0202112
-0.016808335 -0.011918247 0.02492928 0.11562365 -0.01621005 -0.04433811 0.04011868 -0.033476435
-0.058705073 0.07177491 0.094380245 -0.010715433 0.004978126 0.015263027 -0.06466197 -0.061408687
0.048904717 -0.2097866 0.049081933 0.0068559665 -0.05223132 -0.038374394 0.022433141 -0.13690223
0.1146275 0.12622042 -0.13039665 -0.023848359 -0.0326793 -0.07097328 0.054702338 0.07833121
0.036444347 0.06060068 0.042731922 0.037952177 0.10820071 -0.08523418 0.10691939 -0.07115111
-0.036570955 0.0545926 0.0824268 -0.013155306 0.17503712 -0.020608967 0.014783345 -0.11648189
-0.013361917 -0.1044979 0.023696842 -0.06699695 0.048150517 -0.022656564 0.032287966 -0.042885546
-0.13545 -0.041585233 -0.012191356 0.1187676 0.11790289 -0.106778964 0.07033973 0.030707065
-0.12814602 -0.022291187 0.08860289 -0.0003820675 0.06726633 -0.07562593 0.10168671 0.0034324594
0.027247215 -0.016867721 -0.081741385 -0.020532584 0.10392606 0.055033404 -0.018354466 0.009046891
0.019148173 0.0345959 -0.012130607 -0.08610869 0.053199194 0.030285316 -0.14857852 -0.016101424
0.0830227 -0.05125592 0.05129279 -0.005908618 0.01008072 -0.0038130174 0.06886162 -0.053544708
-0.0661161 0.08969533 -0.100148246 0.06814531 -0.06324412 -0.061581302 -0.11095204 0.0113193365
00000000: e8c8 5fbd f89f 5a3d dbd0 193d bed5 f5bc
00000010: 970e 91bc 52f4 d2bc 3d02 c23d 8b74 54bd
00000020: 3497 ff3d 0201 743d 4ca4 b1bd c7fc bf3d
00000030: 9f1c 04bd 9733 6dbc bffd 8b3d 0fe4 68bd
00000040: 13e8 f3bc 0077 083e e32a 86bd ff3a b03b
00000050: 838c 143b c100 28bc e03f b63c 8166 80bd
00000060: fc3a 0b3e e1ac 88ba 7d0a a03d e056 1c3e
00000070: 146e a4bd 79e6 5d3a 6819 793d a88e 823c
00000080: 9780 663d 463b 99bd 5244 103e aa09 043d
00000090: 7013 063d 839e ddbd fab3 c53d 2f29 0dbe
000000a0: 15a5 423d 4f12 f3bc b48a 9c3d 50d6 fb3d
000000b0: 3ac5 aabd 6743 c73d ed7b ce3c d618 e53c
000000c0: 8dcb 84bc e140 1bbd de69 b33b cc2d d8bc
000000d0: 27e7 2e3d a2d0 8dbd 91cc ab3d 9dff c7bd
000000e0: 17c0 c83d de78 8dbd 3c3d a5bd 5040 463d
000000f0: 4976 2e3b 5a0f 803d 80c7 063d 8e91 23bd
00000100: 2026 3e3c 5597 753d 322a 803d e514 bbbd
00000110: d2af d73d 3e06 a5bd c672 88bd d6e9 16ba
00000120: 3ccd 403c f483 9f3d 4b7b cebd 7839 7f3d
00000130: 35b2 7a3d dd69 143d 8f9a 2ebd ee2b 343b
00000140: 350a ca3d 51ce a4bd 9d61 be3d aa8e d23d
00000150: 4bab e7bc 22ce 063c 77ca 423e 02e5 5cbd
00000160: 6653 7c3a 6751 bdbd d352 b3bc d4c2 d2bd
00000170: 6c74 403d e425 42bc 9c28 193e b0c9 f8bc
00000180: 912e 703a 7264 0b3d 26c6 9fbc 4f2d 463c
00000190: 3732 333d 384b 80bc 948d 57be 7a88 3c3c
000001a0: 2fdb cebb 65eb 9b3d c3db 5d3d 831d 983d
000001b0: 8788 00be 6330 28bd 80e6 21bd 903a 97bd
000001c0: f2c3 a8bb fc97 fd3c 400a f6bc 70e6 dbbd
000001d0: 908d 37bd 74ba 203c 0835 acbc ee1c 7f3c
000001e0: a2ac 23be c848 a73d a81a 2f3d c16f 743d
000001f0: 10fc 4e3c 42e0 90bb d68e a53d 19fc 35bc
00000200: 4e13 d73d f10a 0e3e 5eee b13d 0129 6b3c
00000210: 4bac babd 313e 6cbd ac50 19bd 35c3 8dbc
00000220: a6ec d2bd 3633 36bd 7b14 bd3c c8f2 9f3d
00000230: fe79 c3bc 9411 11bd 69a1 d23d 6289 e53c
00000240: 21e7 acbb c252 3fbd b645 d03d 9762 c93d
00000250: db9e 3e3c d243 503d c9c4 833d f591 a5bc
00000260: a2b1 89bc c044 43bc 7d38 cc3c 18cc ec3d
00000270: f0ca 84bc e19b 35bd 7c53 243d 961e 09bd
00000280: bb74 70bd b9fe 923d 6e4a c13d c98f 2fbc
00000290: 8c1f a33b c611 7a3c 7f6d 84bd ad87 7bbd
000002a0: 5050 483d 4cd2 56be 230a 493d 04a8 e03b
000002b0: 82f0 55bd 782e 1dbd b5c5 b73c 1930 0cbe
000002c0: d3c1 ea3d ed3f 013e b386 05be a25d c3bc
000002d0: bbda 05bd 705a 91bd 8f0f 603d 1d6c a03d
000002e0: ab46 153d 6b38 783d ab07 2f3d be73 1b3d
000002f0: 5598 dd3d 428f aebd 8ef8 da3d acb7 91bd
00000300: 6dcb 15bd 7d9c 5f3d 62cf a83d 5a89 57bc
00000310: ee3c 333e 23d4 a8bc d835 723c 0f8e eebd
00000320: f1eb 5abc ff02 d6bd e11f c23c b235 89bd
00000330: 7a39 453d 429a b9bc 6340 043d c1a8 2fbd
00000340: 68b3 0abe 4755 2abd 41be 47bc 6d3c f33d
00000350: 1277 f13d eeae dabd 470e 903d 628d fb3c
00000360: b638 03be 029c b6bc 6f75 b53d 3b50 c8b9
00000370: eec2 893d c5e1 9abd 1f41 d03d 1df3 603b
00000380: 8d35 df3c 2d2e 8abc 0768 a7bd f333 a8bc
00000390: 30d7 d43d b56a 613d 1b5c 96bc 6939 143c
000003a0: a1dc 9c3c 6eb4 0d3d 74bf 46bc c159 b0bd
000003b0: 66e7 593d e918 f83c f824 18be 22e7 83bc
000003c0: ce07 aa3d baf1 51bd 6318 523d 159d c1bb
000003d0: 9b29 253c d1e3 79bb 5207 8d3d b251 5bbd
000003e0: e167 87bd 2fb2 b73d 861a cdbd c58f 8b3d
000003f0: 2286 81bd ad3c 7cbd d33a e3bd bd74 393c

embedding.net_.net_.4.bias f4 [128]
0.07788694 -0.020289 0.09513746 -0.03306796 -0.019892292 0.010333233 0.0524736 0.05179839
0.09079198 0.0818701 0.008411889 -0.034042913 0.16266273 0.05321662 -0.029260073 -0.06811529
-0.023175051 -0.1467782 -0.003302104 -0.037647426 -0.07650894 0.18905726 -0.02837089 0.041044835
0.10250227 0.114959836 0.1197935 0.038866457 0.13605441 0.09576969 0.11578182 -0.0011214868
0.08585706 -0.051911067 0.09524192 0.039289773 0.04261119 -0.00977513 0.0416228 -0.06985715
0.08075086 0.04884975 0.028019208 -0.09489328 -0.058223255 -0.038946215 0.012576736 0.019934595
-0.075742185 0.036768597 -0.04116486 0.030261485 -0.007500916 0.022265384 -8.6890395e-05 -0.04182003
0.07117128 0.08142884 0.0063932594 -0.33359277 0.10741445 0.03623256 -0.060092535 -0.12606145
0.1274074 -0.029390514 0.029091323 0.006373155 0.043685734 0.09265075 -0.094817385 -0.053873327
-0.024442203 -0.015996069 -0.07091051 0.1559259 -0.03252221 -0.028004868 -0.0321584 -0.032056578
-0.058718808 -0.011284447 0.031083433 0.0479938 -0.031378306 0.09001858 -0.06645702 0.023585472
0.0036567044 -0.07249578 -0.012358008 -0.0486164 0.13991821 0.099885754 0.01834623 -0.08928047
0.010455804 -0.05397182 0.015767843 0.12715559 0.041742418 0.04011147 0.06952324 0.015684346
0.08805222 -0.035533536 0.031819057 0.0137367975 -0.08627788 -0.14838393 -0.1479143 0.011521945
0.061918642 -0.10095974 -0.020092243 -0.11577287 -0.008265267 -0.32468385 -0.0036079485 0.029006446
0.0183327 0.054913305 0.1407452 -0.023044765 -0.03877735 -0.017430272 -0.014637739 0.042494643
00000000: 3083 9f3d 1e35 a6bc 6ed7 c23d 4572 07bd
00000010: 29f5 a2bc b84c 293c 8fee 563d 8c2a 543d
00000020: 25f1 b93d 83ab a73d 05d2 093c 9570 0bbd
00000030: 0f91 263e acf9 593d d2b2 efbc 0780 8bbd
00000040: 9bd9 bdbc 064d 16be 1d68 58bb 3034 1abd
00000050: b8b0 9cbd 3a98 413e 126a e8bc a11e 283d
00000060: b6ec d13d 1070 eb3d 4b56 f53d 6f32 1f3d
00000070: d951 0b3e e622 c43d 051f ed3d dafe 92ba
00000080: d4d5 af3d b3a0 54bd 320e c33d 50ee 203d
00000090: 1289 2e3d de27 20bc ab7c 2a3d 4411 8fbd
000000a0: b560 a53d ad16 483d 8a88 e53c 6857 c2bd
000000b0: 827b 6ebd 1186 1fbd a70e 4e3c e04d a33c
000000c0: b81e 9bbd ab9a 163d 7c9c 28bd efe6 f73c
000000d0: 3eca f5bb e565 b63c ed38 b6b8 7b4b 2bbd
000000e0: 40c2 913d 2ac4 a63d 8c7e d13b accc aabe
000000f0: 1bfc db3d 9868 143d 9723 76bd 4116 01be
00000100: 1677 023e 60c4 f0bc ed50 ee3c e6d5 d03b
00000110: d0ef 323d adbf bd3d 9e2f c2bd 47aa 5cbd
00000120: 043b c8bc 300a 83bc 8839 91bd 0aab 1f3e
00000130: 0236 05bd 776a e5bc 87b8 03bd c24d 03bd
00000140: 2283 70bd 67e2 38bc afa2 fe3c 2695 443d
00000150: 8a86 00bd a95b b83d 9e1a 88bd 5236 c13c
00000160: 52a5 6f3b ab78 94bd 3e79 4abc fe21 47bd
00000170: b846 0f3e e790 cc3d d54a 963c aed8 b6bd
00000180: d24e 2b3c 8e11 5dbd 902b 813c 1335 023e
00000190: 19fa 2a3d ed4b 243d 3362 8e3d 757c 803c
000001a0: b954 b43d 9d8b 11bd b354 023d 4e10 613c
000001b0: 75b2 b0bd f5f1 17be d976 17be 8ac6 3c3c
000001c0: 679e 7d3d fbc3 cebd 7d98 a4bc 541a edbd
000001d0: 0b6b 07bc f63c a6be 5573 6cbb ed9e ed3c
000001e0: 752e 963c c6ec 603d 821f 103e 60c8 bcbc
000001f0: 00d5 1ebd eec9 8ebc 21d3 6fbc dd0e 2e3d

embedding.net_.net_.6.weight f4 [1, 128]
-0.13107473 -0.057757642 0.16253331 -0.03459137 0.11967357 -0.07011079 0.07350384 0.09343173
0.2628126 -0.09591377 0.10860349 0.13625808 -0.099153206 -0.04260642 0.16549754 0.08213002
-0.09289796 0.17667261 -0.13004568 -0.11968182 0.14459202 -0.19643602 -0.074668035 -0.09291582
-0.4394018 -0.12143105 -0.2295528 -0.09287275 -0.05126599 0.061826106 0.001091667 -0.27096778
-0.10622448 -0.1767101 -0.011639851 -0.013584312 -0.0929858 -0.0015073074 -0.09642079 -0.11057149
0.04765615 0.10237884 0.09511216 0.07561768 -0.1913525 0.00050364103 -0.09159313 -0.0014002352
-0.12217757 -0.12492071 -0.18012816 -0.14894682 -0.0015979849 0.076401405 0.00470868 0.006290322
0.03785362 0.07108969 -0.0007614993 0.15163663 -0.14930159 0.05945042 0.05495131 -0.05584773
-0.09976678 -0.04793801 0.08744806 0.08328552 0.13863158 0.2293928 0.10027271 -0.20195927
-0.07849658 -0.009136971 0.096890815 -0.21178861 -0.120480135 0.10551848 -0.15851969 -0.12213398
-0.08743209 0.069068044 0.053164326 -0.2119172 -0.03144085 -0.09848411 -0.054612182 -0.008464731
-0.08842504 0.09769005 -0.106823884 0.13446726 0.1034854 0.0015687621 0.25970578 0.05401202
0.08443562 0.105056696 0.0027083526 0.011044464 0.045408916 0.0017305978 -0.50006235 0.106027134
0.16751942 0.15329254 -0.080598615 -0.28773382 0.08440537 0.00073912315 -0.0013474934 -0.077878
0.08733561 -0.06964601 -0.09900462 0.12557627 -0.08377849 0.2919909 -0.049120836 -0.17739798
0.06930488 -0.116179354 -0.035572 0.12866448 -0.1077806 0.0832277 -0.14569278 -0.18094668
00000000: 7438 06be 4793 6cbd 226f 263e aeaf 0dbd
00000010: 6b17 f53d 3f96 8fbd 2e89 963d 2359 bf3d
00000020: 608f 863e 706e c4bd 826b de3d 3d87 0b3e
00000030: d610 cbbd 1284 2ebd 3078 293e c933 a83d
00000040: 4941 bebd aae9 343e b22a 05be be1b f5bd
00000050: ee0f 143e 8626 49be 8eeb 98bd a64a bebd
00000060: 46f9 e0be d8b0 f8bd e40f 6bbe 1134 bebd
00000070: 49fc 51bd 5f3d 7d3d 4416 8f3a 4abc 8abe
00000080: 388c d9bd 7ef3 34be 13b5 3ebc bc90 5ebc
00000090: 576f bebd d890 c5ba 4378 c5bd 4e73 e2bd
000000a0: 1833 433d ffab d13d 2aca c23d 71dd 9a3d
000000b0: e9f1 43be c706 043a 2e95 bbbd 1988 b7ba
000000c0: 3c38 fabd 6ed6 ffbd 8473 38be 8485 18be
000000d0: 7a73 d1ba 5778 9c3d 454b 9a3b 0c1f ce3b
000000e0: 660c 1b3d 7997 913d 5a9f 47ba a246 1b3e
000000f0: 84e2 18be 4982 733d a014 613d 97c0 64bd
00000100: 8752 ccbd a65a 44bd f817 b33d 9991 aa3d
00000110: 70f5 0d3e f2e5 6a3e c75b cd3d 69ce 4ebe
00000120: d1c2 a0bd 3cb3 15bc b16e c63d 1ddf 58be
00000130: 4abe f6bd 131a d83d fc52 22be 6121 fabd
00000140: 980f b3bd 8c73 8d3d d6c2 593d d300 59be
00000150: 1fc8 00bd 09b2 c9bd 06b1 5fbd a8af 0abc
00000160: 3018 b5bd b911 c83d 7bc6 dabd c9b1 093e
00000170: 27f0 d33d ec9e cd3a 28f8 843e b53b 5d3d
00000180: 95ec ac3d f727 d73d 9e7e 313b d7f3 343c
00000190: b3fe 393d 3ad5 e23a 1604 00bf c124 d93d
000001a0: 368a 2b3e b8f8 1c3e e310 a5bd d951 93be
000001b0: b9dc ac3d b7c1 413a 609e b0ba 807e 9fbd
000001c0: 03dd b23d 91a2 8ebd efc2 cabd 1197 003e
000001d0: 0f94 abbd d57f 953e ee32 49bd d1a7 35be
000001e0: b8ef 8d3d 71ef edbd f2b3 11bd 9fc0 033e
000001f0: 13bc dcbd 4973 aa3d 7d30 15be 164a 39be
