models/Angle2.pt (torch, 4751 bytes, 12 tensors)

stiffness.eig_ f4 [2]
0	0x40897c19	4.2963986
1	0x3f4a964d	0.7913559

stiffness.vec_ f4 [2]
0	0x3f100621	0.5625935
1	0xbdcd905e	-0.100373015

dissipation.eig_ f4 [2]
0	0x40a324a8	5.0982246
1	0x3f7da1e4	0.9907515

dissipation.vec_ f4 [2]
0	0x3f073e43	0.5282938
1	0xbdd5bdf4	-0.10436621

embedding.net_.net_.0.weight f4 [64, 2]
0	0xbf88c018	-1.0683622
1	0x3f3a16cc	0.72691035
2	0xbebfcb0e	-0.37459606
3	0x3e97302f	0.2952895
4	0xc01052ae	-2.2550464
5	0xc029caa4	-2.6529932
6	0x3f4947e9	0.7862535
7	0xbf036d39	-0.51338536
8	0xbf06a734	-0.5259888
9	0x3e690a9a	0.2275795
10	0xbed8962a	-0.42302066
11	0xbebb4844	-0.36578572
12	0xbd8f4efd	-0.06997488
13	0xbefe631a	-0.49684983
14	0x3e7e78bd	0.24850745
15	0xbf1fe7a6	-0.6246284
16	0x3c750491	0.014954702
17	0x3ee0cad7	0.43904755
18	0x3fad748f	1.3551196
19	0x3f42e658	0.76132727
20	0x3e01f869	0.12692417
21	0xbecd9f23	-0.40160474
22	0x3f115099	0.5676361
23	0x3f35249a	0.70758975
24	0xbf02924c	-0.5100448
25	0x3e9e747e	0.3094825
26	0xbe6bc3e2	-0.23023942
27	0x3ef17268	0.47157598
28	0xbf015eee	-0.50535476
29	0xbea0e78f	-0.31426665
30	0xbe9cc809	-0.30621365
31	0x3f3bb45e	0.73322093
32	0x402abda2	2.6678243
33	0x400001dd	2.0001137
34	0x3ec4e740	0.3845768
35	0x3f662abd	0.89908963
36	0x3c97f68e	0.018550184
37	0x3f88ccbe	1.0687482
38	0xbf590141	-0.8476754
39	0x3f683099	0.90699154
40	0xbeac48c4	-0.33649266
41	0xbe5cb99a	-0.21555176
42	0xbebe12f7	-0.37123844
43	0xbee54ded	-0.44786015
44	0xc07446e5	-3.816827
45	0x401299a6	2.290628
46	0x4004f417	2.077398
47	0x3deeb6ec	0.11655983
48	0x3f285d1c	0.65767074
49	0x3e0dba37	0.13840567
50	0xbf36cb66	-0.7140411
51	0xbe22ba10	-0.1589129
52	0x3ea3fa34	0.32026827
53	0x3f226e59	0.6344963
54	0x4029d442	2.6535802
55	0xbfa0426a	-1.2520268
56	0x3e9bfdcd	0.30467072
57	0x3ee982ac	0.45607507
58	0xbfbdac6e	-1.4818246
59	0x3f8486cf	1.035364
60	0x3f5b93e4	0.8577254
61	0xbfbfb1bd	-1.4976116
62	0x3e55f1a8	0.20892966
63	0x3eeb5857	0.45965835
64	0xbf5ced9c	-0.86300063
65	0x3fd7bdd2	1.6854804
66	0x4046ef39	3.108351
67	0x3cc39a2e	0.02387723
68	0x3fa22b95	1.266955
69	0xbe67490c	-0.22586459
70	0x3e4c1952	0.19931534
71	0x3f942be4	1.1575894
72	0x3f7c6792	0.98595536
73	0xbf721814	-0.9456799
74	0xc040de82	-3.0135808
75	0xbfb784e8	-1.4337435
76	0xbf574a9c	-0.8409822
77	0x404c1b33	3.18916
78	0xbe3cd988	-0.18442357
79	0xbdd87b7b	-0.10570427
80	0x3f7f9c3d	0.99847776
81	0x3f17d86c	0.5931461
82	0x3fa365d6	1.2765453
83	0x3dce1b81	0.1006384
84	0x3f965597	1.174487
85	0xbe8be128	-0.27320218
86	0x3bee3ed6	0.007270674
87	0xbf015ea3	-0.5053503
88	0x3f0e91c4	0.5569117
89	0x3f058376	0.5215372
90	0xc05fed16	-3.4988456
91	0x3e95c50c	0.29251897
92	0xbfc008e6	-1.5002716
93	0x3ec6a52e	0.38797897
94	0xbeafe024	-0.34350693
95	0xbeae5214	-0.34046996
96	0x3ea01a2c	0.31269968
97	0x3e6c9498	0.23103559
98	0xbf2323d5	-0.6372655
99	0x3f421865	0.75818473
100	0x3fddbb4b	1.7322782
101	0x3e74e2e4	0.23914677
102	0xbf42e9e2	-0.76138127
103	0xbc6d2f5a	-0.0144766215
104	0xc03d4928	-2.95759
105	0x3f83405a	1.0254014
106	0xbf38fcc9	-0.7226072
107	0x3e2d4940	0.16922474
108	0xbeabffc2	-0.33593565
109	0xbf012c19	-0.5045791
110	0x3ee3a9d1	0.44465497
111	0x3d8e03eb	0.06934341
112	0xbf9d301c	-1.2280307
113	0x3febeb70	1.8431225
114	0xbf421397	-0.7581114
115	0xbf1dce68	-0.61643076
116	0xbf7dc84f	-0.9913377
117	0xbed74226	-0.42042655
118	0xbf28b835	-0.6590608
119	0x3f4fdc75	0.81195766
120	0x3f942bb4	1.1575837
121	0x3f18ece8	0.5973649
122	0x3f180c43	0.5939371
123	0x3e20636c	0.15662926
124	0x3f57c80c	0.8428962
125	0xbf2e0748	-0.6797986
126	0xbeb8fd3b	-0.361307
127	0xbf1df515	-0.6170209

embedding.net_.net_.0.bias f4 [64]
0	0xbe0dae70	-0.13836074
1	0x3e20b70f	0.15694831
2	0xc05443f2	-3.316647
3	0x3ebcfb67	0.36910555
4	0xbe4eb973	-0.20187931
5	0x3e630a51	0.22171904
6	0x3ef7effe	0.48425287
7	0x3ef83a90	0.4848218
8	0xbedaf759	-0.42766836
9	0xbe1f9548	-0.1558429
10	0x3eadfee6	0.33983535
11	0xbf4db4ea	-0.8035418
12	0x3f3f67a4	0.7476752
13	0x3f4e9635	0.8069795
14	0xbf812fb5	-1.0092684
15	0x3fb0a632	1.3800719
16	0x3f470b3a	0.77751505
17	0xbf6049f1	-0.87612826
18	0xbfaf4652	-1.3693335
19	0x3e44f6cd	0.19234772
20	0xbeb9da92	-0.36299568
21	0xbe3f9273	-0.1870821
22	0xbfe06a4b	-1.7532438
23	0x3fd9f084	1.7026525
24	0x3f692be6	0.9108261
25	0xbf78099e	-0.96889675
26	0xbf16a0f1	-0.5883933
27	0x3dfbbee2	0.122922674
28	0x3f29266f	0.6607427
29	0xbfe48ab5	-1.785483
30	0xbf143037	-0.5788607
31	0x3eafbee8	0.34325337
32	0x3f29a6ae	0.6626996
33	0x400490aa	2.0713296
34	0x3f472d23	0.7780325
35	0xbfa77c8c	-1.3084884
36	0xbe33c6ea	-0.17556348
37	0x3f2f56d7	0.6849188
38	0x3f13e5db	0.57772607
39	0x3e267f52	0.16259506
40	0xbe86183f	-0.26190373
41	0x3fa61a20	1.2976723
42	0x3f277cdb	0.6542489
43	0xbf7f4bea	-0.9972521
44	0x3fdcde2e	1.7255304
45	0xbffdd0d2	-1.9829352
46	0xbf2bb743	-0.6707651
47	0x3df2b552	0.1185099
48	0xbe7e6c1c	-0.24845928
49	0x3fcc24a5	1.5948683
50	0x3fda32dc	1.7046771
51	0xbf2efaae	-0.68351257
52	0xbeb135b0	-0.34611273
53	0x3f61e07b	0.88233155
54	0xbe78d6fd	-0.24300762
55	0xbea72e80	-0.32652664
56	0xbf74ab95	-0.95574313
57	0x3f4e5ac6	0.8060726
58	0xbf2ae849	-0.6676069
59	0xbf88a00a	-1.067384
60	0xbeb1bac4	-0.34712803
61	0xbe9b41d3	-0.30323657
62	0x3b8ebce9	0.004356016
63	0xbec50fc3	-0.38488588

embedding.net_.net_.2.weight f4 [1, 64]
0	0x3ecd8241	0.40138438
1	0x3e1499a8	0.1451174
2	0x3f97edc9	1.1869441
3	0xbe13efb8	-0.14446914
4	0x3ea80c58	0.32821918
5	0x3da33851	0.07969726
6	0x3cccbaee	0.024991479
7	0xbe50ab34	-0.20377809
8	0xbd7572f7	-0.059924092
9	0xbe3adacd	-0.18247528
10	0xbd31cbba	-0.04340718
11	0x3e325ba1	0.17417766
12	0xbc90cc1d	-0.017675454
13	0xbd2f7651	-0.042837445
14	0x3e1587b6	0.14602551
15	0xbf0f721b	-0.56033486
16	0xbe4f9f5f	-0.20275639
17	0x3e096c00	0.13420105
18	0x3ed7c183	0.42139825
19	0x3ecfa747	0.4055731
20	0x3e2fff55	0.17187245
21	0x3e42c432	0.19020155
22	0x3f85dd00	1.0458069
23	0xbeb1d032	-0.34729153
24	0xbe63eb1a	-0.22257653
25	0x3e898de6	0.26866072
26	0x3ddbf5c2	0.10740234
27	0xbf4cbdfb	-0.7997739
28	0xbe454eaf	-0.19268297
29	0x3f040b69	0.5157991
30	0xbf1c026c	-0.60941195
31	0xbef36a46	-0.47542018
32	0x3f4459fd	0.7669981
33	0xbf694e3d	-0.9113501
34	0xbeff5b2e	-0.49874252
35	0x3ef30f8e	0.47472805
36	0xbed991d7	-0.4249408
37	0x3efde4dc	0.49588668
38	0xbec0d603	-0.37663278
39	0x3e03fa7d	0.12888522
40	0xbd8f1528	-0.06986457
41	0xbeb020fd	-0.34400168
42	0xbf7b7881	-0.9823075
43	0x3f0cc6f1	0.5499106
44	0xbe125300	-0.14289474
45	0x3f7d8da1	0.99044234
46	0x3f7fe1de	0.9995402
47	0x3d93f9ba	0.07225366
48	0xbd5f5c5d	-0.054531444
49	0xbe82c8f8	-0.25543952
50	0xbea5e557	-0.32401535
51	0x3e5a5bf4	0.2132414
52	0x3faa136e	1.328718
53	0x3e9497a7	0.29021952
54	0x3d56f69a	0.05248127
55	0xbde1751e	-0.110086665
56	0xbfb2e171	-1.3975049
57	0xbde7663f	-0.11298799
58	0xbd0afd90	-0.033933222
59	0x3f2b54ad	0.6692608
60	0xbddee3f9	-0.10883326
61	0xbe16d99e	-0.14731452
62	0xbe81c2dc	-0.25343978
63	0xbda030d5	-0.07821814

velocity_.stiffness.eig_ f4 [2]
0	0x40897c19	4.2963986
1	0x3f4a964d	0.7913559

velocity_.stiffness.vec_ f4 [2]
0	0x3f100621	0.5625935
1	0xbdcd905e	-0.100373015

velocity_.embedding.net_.net_.0.weight f4 [64, 2]
0	0xbf88c018	-1.0683622
1	0x3f3a16cc	0.72691035
2	0xbebfcb0e	-0.37459606
3	0x3e97302f	0.2952895
4	0xc01052ae	-2.2550464
5	0xc029caa4	-2.6529932
6	0x3f4947e9	0.7862535
7	0xbf036d39	-0.51338536
8	0xbf06a734	-0.5259888
9	0x3e690a9a	0.2275795
10	0xbed8962a	-0.42302066
11	0xbebb4844	-0.36578572
12	0xbd8f4efd	-0.06997488
13	0xbefe631a	-0.49684983
14	0x3e7e78bd	0.24850745
15	0xbf1fe7a6	-0.6246284
16	0x3c750491	0.014954702
17	0x3ee0cad7	0.43904755
18	0x3fad748f	1.3551196
19	0x3f42e658	0.76132727
20	0x3e01f869	0.12692417
21	0xbecd9f23	-0.40160474
22	0x3f115099	0.5676361
23	0x3f35249a	0.70758975
24	0xbf02924c	-0.5100448
25	0x3e9e747e	0.3094825
26	0xbe6bc3e2	-0.23023942
27	0x3ef17268	0.47157598
28	0xbf015eee	-0.50535476
29	0xbea0e78f	-0.31426665
30	0xbe9cc809	-0.30621365
31	0x3f3bb45e	0.73322093
32	0x402abda2	2.6678243
33	0x400001dd	2.0001137
34	0x3ec4e740	0.3845768
35	0x3f662abd	0.89908963
36	0x3c97f68e	0.018550184
37	0x3f88ccbe	1.0687482
38	0xbf590141	-0.8476754
39	0x3f683099	0.90699154
40	0xbeac48c4	-0.33649266
41	0xbe5cb99a	-0.21555176
42	0xbebe12f7	-0.37123844
43	0xbee54ded	-0.44786015
44	0xc07446e5	-3.816827
45	0x401299a6	2.290628
46	0x4004f417	2.077398
47	0x3deeb6ec	0.11655983
48	0x3f285d1c	0.65767074
49	0x3e0dba37	0.13840567
50	0xbf36cb66	-0.7140411
51	0xbe22ba10	-0.1589129
52	0x3ea3fa34	0.32026827
53	0x3f226e59	0.6344963
54	0x4029d442	2.6535802
55	0xbfa0426a	-1.2520268
56	0x3e9bfdcd	0.30467072
57	0x3ee982ac	0.45607507
58	0xbfbdac6e	-1.4818246
59	0x3f8486cf	1.035364
60	0x3f5b93e4	0.8577254
61	0xbfbfb1bd	-1.4976116
62	0x3e55f1a8	0.20892966
63	0x3eeb5857	0.45965835
64	0xbf5ced9c	-0.86300063
65	0x3fd7bdd2	1.6854804
66	0x4046ef39	3.108351
67	0x3cc39a2e	0.02387723
68	0x3fa22b95	1.266955
69	0xbe67490c	-0.22586459
70	0x3e4c1952	0.19931534
71	0x3f942be4	1.1575894
72	0x3f7c6792	0.98595536
73	0xbf721814	-0.9456799
74	0xc040de82	-3.0135808
75	0xbfb784e8	-1.4337435
76	0xbf574a9c	-0.8409822
77	0x404c1b33	3.18916
78	0xbe3cd988	-0.18442357
79	0xbdd87b7b	-0.10570427
80	0x3f7f9c3d	0.99847776
81	0x3f17d86c	0.5931461
82	0x3fa365d6	1.2765453
83	0x3dce1b81	0.1006384
84	0x3f965597	1.174487
85	0xbe8be128	-0.27320218
86	0x3bee3ed6	0.007270674
87	0xbf015ea3	-0.5053503
88	0x3f0e91c4	0.5569117
89	0x3f058376	0.5215372
90	0xc05fed16	-3.4988456
91	0x3e95c50c	0.29251897
92	0xbfc008e6	-1.5002716
93	0x3ec6a52e	0.38797897
94	0xbeafe024	-0.34350693
95	0xbeae5214	-0.34046996
96	0x3ea01a2c	0.31269968
97	0x3e6c9498	0.23103559
98	0xbf2323d5	-0.6372655
99	0x3f421865	0.75818473
100	0x3fddbb4b	1.7322782
101	0x3e74e2e4	0.23914677
102	0xbf42e9e2	-0.76138127
103	0xbc6d2f5a	-0.0144766215
104	0xc03d4928	-2.95759
105	0x3f83405a	1.0254014
106	0xbf38fcc9	-0.7226072
107	0x3e2d4940	0.16922474
108	0xbeabffc2	-0.33593565
109	0xbf012c19	-0.5045791
110	0x3ee3a9d1	0.44465497
111	0x3d8e03eb	0.06934341
112	0xbf9d301c	-1.2280307
113	0x3febeb70	1.8431225
114	0xbf421397	-0.7581114
115	0xbf1dce68	-0.61643076
116	0xbf7dc84f	-0.9913377
117	0xbed74226	-0.42042655
118	0xbf28b835	-0.6590608
119	0x3f4fdc75	0.81195766
120	0x3f942bb4	1.1575837
121	0x3f18ece8	0.5973649
122	0x3f180c43	0.5939371
123	0x3e20636c	0.15662926
124	0x3f57c80c	0.8428962
125	0xbf2e0748	-0.6797986
126	0xbeb8fd3b	-0.361307
127	0xbf1df515	-0.6170209

velocity_.embedding.net_.net_.0.bias f4 [64]
0	0xbe0dae70	-0.13836074
1	0x3e20b70f	0.15694831
2	0xc05443f2	-3.316647
3	0x3ebcfb67	0.36910555
4	0xbe4eb973	-0.20187931
5	0x3e630a51	0.22171904
6	0x3ef7effe	0.48425287
7	0x3ef83a90	0.4848218
8	0xbedaf759	-0.42766836
9	0xbe1f9548	-0.1558429
10	0x3eadfee6	0.33983535
11	0xbf4db4ea	-0.8035418
12	0x3f3f67a4	0.7476752
13	0x3f4e9635	0.8069795
14	0xbf812fb5	-1.0092684
15	0x3fb0a632	1.3800719
16	0x3f470b3a	0.77751505
17	0xbf6049f1	-0.87612826
18	0xbfaf4652	-1.3693335
19	0x3e44f6cd	0.19234772
20	0xbeb9da92	-0.36299568
21	0xbe3f9273	-0.1870821
22	0xbfe06a4b	-1.7532438
23	0x3fd9f084	1.7026525
24	0x3f692be6	0.9108261
25	0xbf78099e	-0.96889675
26	0xbf16a0f1	-0.5883933
27	0x3dfbbee2	0.122922674
28	0x3f29266f	0.6607427
29	0xbfe48ab5	-1.785483
30	0xbf143037	-0.5788607
31	0x3eafbee8	0.34325337
32	0x3f29a6ae	0.6626996
33	0x400490aa	2.0713296
34	0x3f472d23	0.7780325
35	0xbfa77c8c	-1.3084884
36	0xbe33c6ea	-0.17556348
37	0x3f2f56d7	0.6849188
38	0x3f13e5db	0.57772607
39	0x3e267f52	0.16259506
40	0xbe86183f	-0.26190373
41	0x3fa61a20	1.2976723
42	0x3f277cdb	0.6542489
43	0xbf7f4bea	-0.9972521
44	0x3fdcde2e	1.7255304
45	0xbffdd0d2	-1.9829352
46	0xbf2bb743	-0.6707651
47	0x3df2b552	0.1185099
48	0xbe7e6c1c	-0.24845928
49	0x3fcc24a5	1.5948683
50	0x3fda32dc	1.7046771
51	0xbf2efaae	-0.68351257
52	0xbeb135b0	-0.34611273
53	0x3f61e07b	0.88233155
54	0xbe78d6fd	-0.24300762
55	0xbea72e80	-0.32652664
56	0xbf74ab95	-0.95574313
57	0x3f4e5ac6	0.8060726
58	0xbf2ae849	-0.6676069
59	0xbf88a00a	-1.067384
60	0xbeb1bac4	-0.34712803
61	0xbe9b41d3	-0.30323657
62	0x3b8ebce9	0.004356016
63	0xbec50fc3	-0.38488588

velocity_.embedding.net_.net_.2.weight f4 [1, 64]
0	0x3ecd8241	0.40138438
1	0x3e1499a8	0.1451174
2	0x3f97edc9	1.1869441
3	0xbe13efb8	-0.14446914
4	0x3ea80c58	0.32821918
5	0x3da33851	0.07969726
6	0x3cccbaee	0.024991479
7	0xbe50ab34	-0.20377809
8	0xbd7572f7	-0.059924092
9	0xbe3adacd	-0.18247528
10	0xbd31cbba	-0.04340718
11	0x3e325ba1	0.17417766
12	0xbc90cc1d	-0.017675454
13	0xbd2f7651	-0.042837445
14	0x3e1587b6	0.14602551
15	0xbf0f721b	-0.56033486
16	0xbe4f9f5f	-0.20275639
17	0x3e096c00	0.13420105
18	0x3ed7c183	0.42139825
19	0x3ecfa747	0.4055731
20	0x3e2fff55	0.17187245
21	0x3e42c432	0.19020155
22	0x3f85dd00	1.0458069
23	0xbeb1d032	-0.34729153
24	0xbe63eb1a	-0.22257653
25	0x3e898de6	0.26866072
26	0x3ddbf5c2	0.10740234
27	0xbf4cbdfb	-0.7997739
28	0xbe454eaf	-0.19268297
29	0x3f040b69	0.5157991
30	0xbf1c026c	-0.60941195
31	0xbef36a46	-0.47542018
32	0x3f4459fd	0.7669981
33	0xbf694e3d	-0.9113501
34	0xbeff5b2e	-0.49874252
35	0x3ef30f8e	0.47472805
36	0xbed991d7	-0.4249408
37	0x3efde4dc	0.49588668
38	0xbec0d603	-0.37663278
39	0x3e03fa7d	0.12888522
40	0xbd8f1528	-0.06986457
41	0xbeb020fd	-0.34400168
42	0xbf7b7881	-0.9823075
43	0x3f0cc6f1	0.5499106
44	0xbe125300	-0.14289474
45	0x3f7d8da1	0.99044234
46	0x3f7fe1de	0.9995402
47	0x3d93f9ba	0.07225366
48	0xbd5f5c5d	-0.054531444
49	0xbe82c8f8	-0.25543952
50	0xbea5e557	-0.32401535
51	0x3e5a5bf4	0.2132414
52	0x3faa136e	1.328718
53	0x3e9497a7	0.29021952
54	0x3d56f69a	0.05248127
55	0xbde1751e	-0.110086665
56	0xbfb2e171	-1.3975049
57	0xbde7663f	-0.11298799
58	0xbd0afd90	-0.033933222
59	0x3f2b54ad	0.6692608
60	0xbddee3f9	-0.10883326
61	0xbe16d99e	-0.14731452
62	0xbe81c2dc	-0.25343978
63	0xbda030d5	-0.07821814
