models/Angle2bk.pt (torch, 4751 bytes, 12 tensors)

stiffness.eig_ f4 [2]
3.9802012 0.7857999
00000000: 9ebb 7e40 2f2a 493f

stiffness.vec_ f4 [2]
0.6976638 -0.12658708
00000000: 189a 323f 0ba0 01be

dissipation.eig_ f4 [2]
4.8129635 1.0360359
00000000: cc03 9a40 d39c 843f

dissipation.vec_ f4 [2]
0.6739749 -0.14019364
00000000: 9e89 2c3f ec8e 0fbe

embedding.net_.net_.0.weight f4 [64, 2]
-2.8879056 2.1490533 -1.9369476 0.7771592 -0.34557778 -0.30953705 -3.9756112 2.3996053
-0.8179989 -0.06149196 -0.5719434 0.86604434 -0.7025432 -0.11829578 2.0972903 -0.153426
2.8718865 0.19141588 -0.48922879 0.43580934 0.45338222 0.39894652 0.57399017 -0.11828742
3.6683118 -1.948949 1.7228551 -1.1400517 -0.91587895 0.25384533 -1.1984489 0.8130846
0.025851944 0.4848009 -0.10079961 0.4118842 -0.45819354 -0.13874248 2.8553188 -0.09708292
-0.61372507 0.54194236 0.27085304 0.08610719 0.7359187 -0.35879835 -0.89180243 0.6668362
-0.61175007 0.19508189 -0.18994741 -0.13994214 -1.395431 -1.518114 -0.55290115 0.015037847
0.71939474 0.25310674 0.68344265 0.11064173 -0.5654961 -1.3237603 -0.5950999 -0.2901464
-4.25052 -0.87768656 3.3449636 2.379879 -0.115714215 -0.43795562 -0.20917393 -0.2738956
-0.47641864 0.41152582 -0.51638436 0.2578856 0.69534534 -0.02934349 0.6800397 -0.3427009
-0.32409728 -4.3759503 0.7406566 -0.38012818 0.42724225 0.15835384 -0.50015163 0.35666952
2.82842 -0.24373408 0.38386154 -0.06738393 1.0983989 0.84803396 -0.3681338 -0.16327995
-0.50030065 -0.42742845 -0.11624595 -0.1783181 0.5158817 0.20033208 -0.19629651 -0.44322518
0.7356569 -0.15924716 -0.6421281 2.0649602 -0.14923714 0.97314084 2.6863837 -0.8280605
-0.5420259 -0.38471803 4.2191534 -0.5885099 -0.36756334 -0.25699428 1.1405938 0.0022091004
0.32377645 -0.4781004 0.048902046 0.59841555 -0.21659096 -0.388095 -0.40529388 -0.12166841
00000000: 72d3 38c0 178a 0940 e6ed f7bf e8f3 463f
00000010: 92ef b0be a47b 9ebe 6a70 7ec0 2293 1940
00000020: 6068 51bf fede 7bbd e26a 12bf 15b5 5d3f
00000030: dfd9 33bf 0f45 f2bd 013a 0640 b51b 1dbe
00000040: fdcc 3740 8602 443e 327c fabe 6722 df3e
00000050: b721 e83e b842 cc3e 05f1 123f ad40 f2bd
00000060: 9fc5 6a40 2977 f9bf 8486 dc3f 37ed 91bf
00000070: 0b77 6abf 04f8 813e c666 99bf 5026 503f
00000080: 75c7 d33c d337 f83e 0770 cebd 7ce2 d23e
00000090: 5898 eabe 8212 0ebe 8bbd 3640 69d3 c6bd
000000a0: 161d 1dbf bcbc 0a3f 40ad 8a3e f758 b03d
000000b0: 2b65 3c3f 6bb4 b7be 2a4d 64bf c7b5 2a3f
000000c0: a79b 1cbf 8cc3 473e 9381 42be fe4c 0fbe
000000d0: 7c9d b2bf 8f51 c2bf ee8a 0dbf 4d61 763c
000000e0: 412a 383f 3597 813e 19f6 2e3f 2298 e23d
000000f0: 5ac4 10bf fa70 a9bf 7858 18bf 128e 94be
00000100: 4304 88c0 11b0 60bf e213 5640 f04f 1840
00000110: 93fb ecbd b83b e0be b131 56be 0b3c 8cbe
00000120: 25ed f3be 83b3 d23e c431 04bf 9509 843e
00000130: 2702 323f c261 f0bc 1517 2e3f 7e76 afbe
00000140: 14f0 a5be c907 8cc0 ac9b 3d3f 29a0 c2be
00000150: 7fbf da3e 8227 223e f009 00bf 639d b63e
00000160: d504 3540 6d95 79be 8089 c43e 9600 8abd
00000170: 5698 8c3f c118 593f 097c bcbe dc32 27be
00000180: b413 00bf e7d7 dabe 5b12 eebd 0599 36be
00000190: d310 043f da23 4d3e f401 49be 69ee e2be
000001a0: 0354 3c3f b011 23be 8262 24bf 4f28 0440
000001b0: 9fd1 18be c21f 793f b6ed 2b40 c6fb 53bf
000001c0: 36c2 0abf c3f9 c4be 4e03 8740 96a8 16bf
000001d0: 4331 bcbe c194 83be fafe 913f 8ec6 103b
000001e0: 07c6 a53e 93c9 f4be 834d 483d c331 193f
000001f0: 05ca 5dbe 63b4 c6be ae82 cfbe 4a2d f9bd

embedding.net_.net_.0.bias f4 [64]
-0.5773121 -0.3041948 -0.69205344 -1.6469574 -1.0026025 -0.3651973 -1.0441033 1.3846042
0.03999497 0.0262764 -0.10382474 0.7580455 0.035575926 -0.08157816 0.94607556 0.025060399
-0.59492 0.6913163 0.10880792 2.055896 -1.0480087 0.49066862 0.5694656 -0.35008928
0.7063844 0.39161834 -0.42516208 -0.3983204 -0.50293934 1.1885895 0.70750254 -0.7052063
0.933187 -0.6731945 0.34377903 0.29382303 0.39179668 -0.48340887 0.56618124 -0.73192877
-3.6442018 -0.7847694 -0.38246 -0.24344374 1.7988771 -0.6479404 0.19219807 -0.6345525
0.283771 0.25124437 -0.20532852 -0.4557752 -0.7925083 1.1799881 -0.6105797 0.28245765
0.4859247 1.2342212 -0.9334437 1.3220563 0.31780127 -0.1393212 0.19463071 -0.65110147
00000000: baca 13bf 6cbf 9bbe 6a2a 31bf 80cf d2bf
00000010: 4755 80bf 24fb babe 2da5 85bf b63a b13f
00000020: c4d1 233d 9b41 d73c 11a2 d4bd 450f 423f
00000030: 10b8 113d 7312 a7bd 0232 723f 774b cd3c
00000040: ad4c 18bf 1bfa 303f b0d6 de3d cd93 0340
00000050: 2625 86bf eb38 fb3e 7fc8 113f e73e b3be
00000060: 9cd5 343f 3382 c83e d8ae d9be a7f0 cbbe
00000070: a2c0 00bf b323 983f e31e 353f 6688 34bf
00000080: 58e5 6e3f 7a56 2cbf ce03 b03e f96f 963e
00000090: 9399 c83e 5e81 f7be 41f1 103f af5f 3bbf
000000a0: 9a3a 69c0 a6e6 48bf ccd1 c3be 5149 79be
000000b0: 9b41 e63f 6cdf 25bf 92cf 443e 0872 22bf
000000c0: 6f4a 913e 1aa3 803e a441 52be 5e5b e9be
000000d0: d3e1 4abf da09 973f f44e 1cbf 4a9e 903e
000000e0: 1fcb f83e f6fa 9d3f 2bf6 6ebf 2439 a93f
000000f0: d9b6 a23e 37aa 0ebe 464d 473e 96ae 26bf

embedding.net_.net_.2.weight f4 [1, 64]
0.990272 -0.38521862 -0.22927478 -0.53885496 -0.28646746 -0.21423388 -0.2739827 0.32369977
-0.9670233 -0.08789106 -0.036587805 0.25329307 1.0230669 0.39058068 -0.17325677 -0.25265843
0.038196333 0.16878942 -0.06558156 0.5629264 -0.3657585 0.24012968 0.22564955 -0.24056402
-0.3389047 0.037444644 -0.18118589 -0.1821999 0.09001682 0.18628846 0.43089667 -0.0023100628
-0.6668419 0.24881595 -0.065093 0.0312102 -0.16808528 -0.22345577 0.1460508 0.101554096
-0.87096804 0.2741233 0.04027083 -0.22850019 0.53084296 0.13944635 0.11892456 -0.046571925
-0.06897734 -0.107398555 0.15519366 -0.052421 0.20260295 -0.64271903 -0.19404496 0.74777985
-0.058354724 1.9465259 -0.037794158 0.25191402 0.14071773 0.031311486 0.0019065063 -0.23964864
00000000: 7782 7d3f 603b c5be 02c7 6abe 66f2 09bf
00000010: ddab 92be 2060 5bbe 7647 8cbe fabb a53e
00000020: d78e 77bf 3a00 b4bd 18dd 15bd a1af 813e
00000030: dbf3 823f 31fa c73e 396a 31be 725c 81be
00000040: c273 1c3d 22d7 2c3e a04f 86bd f21b 103f
00000050: b344 bbbe 8ee4 753e ad10 673e 6a56 76be
00000060: eb84 adbe 8e5f 193d cb88 39be 9c92 3abe
00000070: bd5a b83d 67c2 3e3e 7d9e dc3e 6c64 17bb
00000080: 27b6 2abf 9cc9 7e3e 7b4f 85bd 89ac ff3c
00000090: 8c1e 2cbe 97d1 64be 578e 153e 98fb cf3d
000000a0: c3f7 5ebf e459 8c3e 07f3 243d f4fb 69be
000000b0: 53e5 073f 06cb 0e3e b88e f33d 34c2 3ebd
000000c0: fe43 8dbd c6f3 dbbd 16eb 1e3e 67b7 56bd
000000d0: 2677 4f3e 3c89 24bf b9b3 46be 806e 3f3f
000000e0: 5d05 6fbd c327 f93f 0cce 1abd e0fa 803e
000000f0: 4f18 103e 7940 003d bce3 f93a 7466 75be

velocity_.stiffness.eig_ f4 [2]
3.9802012 0.7857999
00000000: 9ebb 7e40 2f2a 493f

velocity_.stiffness.vec_ f4 [2]
0.6976638 -0.12658708
00000000: 189a 323f 0ba0 01be

velocity_.embedding.net_.net_.0.weight f4 [64, 2]
-2.8879056 2.1490533 -1.9369476 0.7771592 -0.34557778 -0.30953705 -3.9756112 2.3996053
-0.8179989 -0.06149196 -0.5719434 0.86604434 -0.7025432 -0.11829578 2.0972903 -0.153426
2.8718865 0.19141588 -0.48922879 0.43580934 0.45338222 0.39894652 0.57399017 -0.11828742
3.6683118 -1.948949 1.7228551 -1.1400517 -0.91587895 0.25384533 -1.1984489 0.8130846
0.025851944 0.4848009 -0.10079961 0.4118842 -0.45819354 -0.13874248 2.8553188 -0.09708292
-0.61372507 0.54194236 0.27085304 0.08610719 0.7359187 -0.35879835 -0.89180243 0.6668362
-0.61175007 0.19508189 -0.18994741 -0.13994214 -1.395431 -1.518114 -0.55290115 0.015037847
0.71939474 0.25310674 0.68344265 0.11064173 -0.5654961 -1.3237603 -0.5950999 -0.2901464
-4.25052 -0.87768656 3.3449636 2.379879 -0.115714215 -0.43795562 -0.20917393 -0.2738956
-0.47641864 0.41152582 -0.51638436 0.2578856 0.69534534 -0.02934349 0.6800397 -0.3427009
-0.32409728 -4.3759503 0.7406566 -0.38012818 0.42724225 0.15835384 -0.50015163 0.35666952
2.82842 -0.24373408 0.38386154 -0.06738393 1.0983989 0.84803396 -0.3681338 -0.16327995
-0.50030065 -0.42742845 -0.11624595 -0.1783181 0.5158817 0.20033208 -0.19629651 -0.44322518
0.7356569 -0.15924716 -0.6421281 2.0649602 -0.14923714 0.97314084 2.6863837 -0.8280605
-0.5420259 -0.38471803 4.2191534 -0.5885099 -0.36756334 -0.25699428 1.1405938 0.0022091004
0.32377645 -0.4781004 0.048902046 0.59841555 -0.21659096 -0.388095 -0.40529388 -0.12166841
00000000: 72d3 38c0 178a 0940 e6ed f7bf e8f3 463f
00000010: 92ef b0be a47b 9ebe 6a70 7ec0 2293 1940
00000020: 6068 51bf fede 7bbd e26a 12bf 15b5 5d3f
00000030: dfd9 33bf 0f45 f2bd 013a 0640 b51b 1dbe
00000040: fdcc 3740 8602 443e 327c fabe 6722 df3e
00000050: b721 e83e b842 cc3e 05f1 123f ad40 f2bd
00000060: 9fc5 6a40 2977 f9bf 8486 dc3f 37ed 91bf
00000070: 0b77 6abf 04f8 813e c666 99bf 5026 503f
00000080: 75c7 d33c d337 f83e 0770 cebd 7ce2 d23e
00000090: 5898 eabe 8212 0ebe 8bbd 3640 69d3 c6bd
000000a0: 161d 1dbf bcbc 0a3f 40ad 8a3e f758 b03d
000000b0: 2b65 3c3f 6bb4 b7be 2a4d 64bf c7b5 2a3f
000000c0: a79b 1cbf 8cc3 473e 9381 42be fe4c 0fbe
000000d0: 7c9d b2bf 8f51 c2bf ee8a 0dbf 4d61 763c
000000e0: 412a 383f 3597 813e 19f6 2e3f 2298 e23d
000000f0: 5ac4 10bf fa70 a9bf 7858 18bf 128e 94be
00000100: 4304 88c0 11b0 60bf e213 5640 f04f 1840
00000110: 93fb ecbd b83b e0be b131 56be 0b3c 8cbe
00000120: 25ed f3be 83b3 d23e c431 04bf 9509 843e
00000130: 2702 323f c261 f0bc 1517 2e3f 7e76 afbe
00000140: 14f0 a5be c907 8cc0 ac9b 3d3f 29a0 c2be
00000150: 7fbf da3e 8227 223e f009 00bf 639d b63e
00000160: d504 3540 6d95 79be 8089 c43e 9600 8abd
00000170: 5698 8c3f c118 593f 097c bcbe dc32 27be
00000180: b413 00bf e7d7 dabe 5b12 eebd 0599 36be
00000190: d310 043f da23 4d3e f401 49be 69ee e2be
000001a0: 0354 3c3f b011 23be 8262 24bf 4f28 0440
000001b0: 9fd1 18be c21f 793f b6ed 2b40 c6fb 53bf
000001c0: 36c2 0abf c3f9 c4be 4e03 8740 96a8 16bf
000001d0: 4331 bcbe c194 83be fafe 913f 8ec6 103b
000001e0: 07c6 a53e 93c9 f4be 834d 483d c331 193f
000001f0: 05ca 5dbe 63b4 c6be ae82 cfbe 4a2d f9bd

velocity_.embedding.net_.net_.0.bias f4 [64]
-0.5773121 -0.3041948 -0.69205344 -1.6469574 -1.0026025 -0.3651973 -1.0441033 1.3846042
0.03999497 0.0262764 -0.10382474 0.7580455 0.035575926 -0.08157816 0.94607556 0.025060399
-0.59492 0.6913163 0.10880792 2.055896 -1.0480087 0.49066862 0.5694656 -0.35008928
0.7063844 0.39161834 -0.42516208 -0.3983204 -0.50293934 1.1885895 0.70750254 -0.7052063
0.933187 -0.6731945 0.34377903 0.29382303 0.39179668 -0.48340887 0.56618124 -0.73192877
-3.6442018 -0.7847694 -0.38246 -0.24344374 1.7988771 -0.6479404 0.19219807 -0.6345525
0.283771 0.25124437 -0.20532852 -0.4557752 -0.7925083 1.1799881 -0.6105797 0.28245765
0.4859247 1.2342212 -0.9334437 1.3220563 0.31780127 -0.1393212 0.19463071 -0.65110147
00000000: baca 13bf 6cbf 9bbe 6a2a 31bf 80cf d2bf
00000010: 4755 80bf 24fb babe 2da5 85bf b63a b13f
00000020: c4d1 233d 9b41 d73c 11a2 d4bd 450f 423f
00000030: 10b8 113d 7312 a7bd 0232 723f 774b cd3c
00000040: ad4c 18bf 1bfa 303f b0d6 de3d cd93 0340
00000050: 2625 86bf eb38 fb3e 7fc8 113f e73e b3be
00000060: 9cd5 343f 3382 c83e d8ae d9be a7f0 cbbe
00000070: a2c0 00bf b323 983f e31e 353f 6688 34bf
00000080: 58e5 6e3f 7a56 2cbf ce03 b03e f96f 963e
00000090: 9399 c83e 5e81 f7be 41f1 103f af5f 3bbf
000000a0: 9a3a 69c0 a6e6 48bf ccd1 c3be 5149 79be
000000b0: 9b41 e63f 6cdf 25bf 92cf 443e 0872 22bf
000000c0: 6f4a 913e 1aa3 803e a441 52be 5e5b e9be
000000d0: d3e1 4abf da09 973f f44e 1cbf 4a9e 903e
000000e0: 1fcb f83e f6fa 9d3f 2bf6 6ebf 2439 a93f
000000f0: d9b6 a23e 37aa 0ebe 464d 473e 96ae 26bf

velocity_.embedding.net_.net_.2.weight f4 [1, 64]
0.990272 -0.38521862 -0.22927478 -0.53885496 -0.28646746 -0.21423388 -0.2739827 0.32369977
-0.9670233 -0.08789106 -0.036587805 0.25329307 1.0230669 0.39058068 -0.17325677 -0.25265843
0.038196333 0.16878942 -0.06558156 0.5629264 -0.3657585 0.24012968 0.22564955 -0.24056402
-0.3389047 0.037444644 -0.18118589 -0.1821999 0.09001682 0.18628846 0.43089667 -0.0023100628
-0.6668419 0.24881595 -0.065093 0.0312102 -0.16808528 -0.22345577 0.1460508 0.101554096
-0.87096804 0.2741233 0.04027083 -0.22850019 0.53084296 0.13944635 0.11892456 -0.046571925
-0.06897734 -0.107398555 0.15519366 -0.052421 0.20260295 -0.64271903 -0.19404496 0.74777985
-0.058354724 1.9465259 -0.037794158 0.25191402 0.14071773 0.031311486 0.0019065063 -0.23964864
00000000: 7782 7d3f 603b c5be 02c7 6abe 66f2 09bf
00000010: ddab 92be 2060 5bbe 7647 8cbe fabb a53e
00000020: d78e 77bf 3a00 b4bd 18dd 15bd a1af 813e
00000030: dbf3 823f 31fa c73e 396a 31be 725c 81be
00000040: c273 1c3d 22d7 2c3e a04f 86bd f21b 103f
00000050: b344 bbbe 8ee4 753e ad10 673e 6a56 76be
00000060: eb84 adbe 8e5f 193d cb88 39be 9c92 3abe
00000070: bd5a b83d 67c2 3e3e 7d9e dc3e 6c64 17bb
00000080: 27b6 2abf 9cc9 7e3e 7b4f 85bd 89ac ff3c
00000090: 8c1e 2cbe 97d1 64be 578e 153e 98fb cf3d
000000a0: c3f7 5ebf e459 8c3e 07f3 243d f4fb 69be
000000b0: 53e5 073f 06cb 0e3e b88e f33d 34c2 3ebd
000000c0: fe43 8dbd c6f3 dbbd 16eb 1e3e 67b7 56bd
000000d0: 2677 4f3e 3c89 24bf b9b3 46be 806e 3f3f
000000e0: 5d05 6fbd c327 f93f 0cce 1abd e0fa 803e
000000f0: 4f18 103e 7940 003d bce3 f93a 7466 75be
