models/Angle.pt (torch, 10771 bytes, 7 tensors)

stiffness_.weight f4 [2, 2]
1.0 0.0 0.0 1.0
00000000: 0000 803f 0000 0000 0000 0000 0000 803f

stiffness_.spd.weight f4 [2, 2]
5.6907983 0.012533764 0.0024105567 2.896272
00000000: 051b b640 6b5a 4d3c 6efa 1d3b 855c 3940

dissipation_.weight f4 [2, 2]
4.0 0.0 0.0 4.0
00000000: 0000 8040 0000 0000 0000 0000 0000 8040

dissipation_.spd.weight f4 [2, 2]
3.8906448 -0.012750112 -0.006546713 1.6099032
00000000: 5300 7940 d9e5 50bc cf85 d6bb 4f11 ce3f

embedding.net_.linear_clamped_.weight f4 [500, 2]
4.8752146 -1.4126952 1.0460441 -1.4438417 0.20018421 7.5661087 0.25208616 3.081089
-2.2524846 0.74165547 0.19125576 2.157264 -2.1474953 1.17163 1.8542393 -1.7267165
-4.7092085 3.9664128 -1.7332981 -0.41200244 0.31765458 2.841389 -5.571535 1.9237518
2.6826587 2.7271457 -3.4427044 -1.9487321 -1.5680467 -3.6179135 -3.8697743 0.7400592
1.45673 -2.3308907 3.0787668 1.3202572 1.0645578 0.71833634 1.0095993 1.7333896
-0.06355218 -1.0814301 3.6748998 0.44939238 -0.19050312 2.056178 -1.1814104 2.6317842
-0.18404524 -0.57132477 -1.6281952 1.3494178 0.4468604 -0.5765792 -1.3592432 1.5513755
0.12839276 1.9636097 -0.48373678 -1.9381893 -6.4236684 -2.6719034 -1.0328468 -1.824455
1.506374 0.7125695 -1.3873891 1.8217163 1.2889967 0.89805984 -3.8093824 1.930573
0.5172421 -1.4640485 1.5877861 -0.58691 0.7416866 0.70123434 -1.4528856 -0.9500304
-1.950586 2.349759 -1.8260329 -1.0181884 -2.2152026 -2.210038 0.96254337 -2.2029033
1.5817842 -0.7039049 2.9672906 -2.834409 1.5325805 0.008216016 1.1222633 -0.4820583
0.5518055 -5.8875465 -1.6644584 -3.5115907 3.3147345 -1.554165 -1.4598418 -3.6419132
2.7078648 2.386366 2.2418606 1.2584345 -4.066718 2.3241272 -0.9413816 -2.3806543
2.1113315 2.4610717 -3.573608 -0.56475765 0.25298935 -2.1712224 0.102359414 -2.7541046
1.8319576 0.23651882 -1.4691182 2.7559528 -4.188209 1.961597 -3.367867 0.06365427
-2.5070992 0.400758 3.7735162 -2.855991 -0.47448108 -2.1452022 -2.6693246 -3.431538
-1.676632 -0.79839134 -1.0192158 -2.2590802 -0.5051836 0.21311007 -0.34928775 -2.1114454
-1.5852937 0.10856096 0.73991644 -0.92263335 -4.8779836 1.1402924 0.5185447 -0.6857373
1.0104059 0.006824601 3.3368392 -0.24302557 0.5303825 -2.481238e-05 -1.19816 0.30959225
1.7090796 1.9302243 0.81910896 -0.21402548 0.9797821 -0.19257753 -0.501137 -3.0740995
-2.2719328 -0.1443523 -1.5710323 -2.1620812 1.3223373 4.6800976 -1.7544123 1.6299099
0.8047648 0.49887803 3.8524077 1.1301776 1.4492639 -0.14253993 1.6192967 -1.5409378
0.27883533 0.7406068 0.9678672 2.8873045 -0.9772669 -1.0107713 2.4136896 0.7607596
0.32093334 0.1564723 0.011349766 2.402737 1.4766072 1.0299687 0.030043904 -1.6979468
0.96335304 -0.24253795 0.7194708 -3.1769023 -0.022949653 -2.848448 -3.487296 3.938347
1.468104 -1.6630368 0.93453217 -0.27580556 1.3996153 2.3698292 -2.785681 0.110531166
-3.9120705 1.2608292 -0.91960466 -1.2779758 1.2091782 -2.4142675 0.26693982 0.44701415
-3.3507738 -4.5960164 0.44083044 0.18757705 -2.7695987 2.9101026 -3.0732133 -2.4205058
-1.8416916 1.431963 2.315887 -0.22827058 -1.2363623 -2.3394856 2.7913535 -2.462148
-1.7158324 0.41886944 4.5789175 0.26809746 -1.9074713 -1.2484403 -2.7864916 3.4784381
3.2217894 0.6938884 -1.7324148 -1.4359226 -2.1668515 -0.8535587 -1.1094142 -1.6800567
00000000: c201 9c40 32d3 b4bf c6e4 853f cecf b8bf
00000010: 17fd 4c3e 901d f240 7011 813e 9030 4540
00000020: b528 10c0 22dd 3d3f 8dd8 433e 9d10 0a40
00000030: 9070 09c0 f9f7 953f b757 ed3f 0c05 ddbf
00000040: d6b1 96c0 b5d9 7d40 b6dc ddbf fcf1 d2be
00000050: 9fa3 a23e 51d9 3540 044a b2c0 803d f63f
00000060: aeb0 2b40 8e89 2e40 4555 5cc0 0e70 f9bf
00000070: c1b5 c8bf e58b 67c0 62aa 77c0 8574 3d3f
00000080: 2176 ba3f 502d 15c0 840a 4540 30fe a83f
00000090: 6e43 883f e4e4 373f 8d3a 813f b6df dd3f
000000a0: a527 82bd 4d6c 8abf 8f31 6b40 c216 e63e
000000b0: 4013 43be 6c98 0340 7538 97bf 276f 2840
000000c0: 5b76 3cbe 5742 12bf b368 d0bf b9b9 ac3f
000000d0: e3ca e43e b29a 13bf aefb adbf 7993 c63f
000000e0: 6479 033e 9057 fb3f 59ac f7be 9616 f8bf
000000f0: b18e cdc0 7700 2bc0 5334 84bf be87 e9bf
00000100: ddd0 c03f f46a 363f f795 b1bf 002e e93f
00000110: d8fd a43f 40e7 653f eccc 73c0 041d f73f
00000120: fa69 043f f165 bbbf 933c cb3f bc3f 16bf
00000130: 2cdf 3d3f 1884 333f 28f8 b9bf 3135 73bf
00000140: cdac f9bf 7462 1640 72bb e9bf ff53 82bf
00000150: e1c5 0dc0 4371 0dc0 3e69 763f 5efc 0cc0
00000160: e877 ca3f 1d33 34bf 17e8 3d40 f566 35c0
00000170: 992b c43f 789c 063c 53a6 8f3f 58d0 f6be
00000180: 2043 0d3f c866 bcc0 f90c d5bf e7bd 60c0
00000190: 9c24 5440 e1ee c6bf 19dc babf 1b15 69c0
000001a0: a84d 2d40 38ba 1840 a57a 0f40 6214 a13f
000001b0: 8e22 82c0 80be 1440 62fe 70bf a45c 18c0
000001c0: 0e20 0740 3382 1d40 feb5 64c0 f593 10bf
000001d0: d287 813e 4ff5 0ac0 d0a1 d13d 4043 30c0
000001e0: 967d ea3f fd31 723e 110c bcbf 8861 3040
000001f0: cf05 86c0 9c15 fb3f 228b 57c0 2b5d 823d
00000200: 5074 20c0 2730 cd3e 4a81 7140 8ec8 36c0
00000210: 2fef f2be fe4a 09c0 37d6 2ac0 529e 5bc0
00000220: e19b d6bf 6063 4cbf aa75 82bf c594 10c0
00000230: b653 01bf 8739 5a3e d8d5 b2be ec21 07c0
00000240: e7ea cabf 3555 de3d 2a6b 3d3f b331 6cbf
00000250: 7118 9cc0 1af5 913f 58bf 043f 7b8c 2fbf
00000260: fb54 813f e7a0 df3b c68e 5540 b2db 78be
00000270: 26c7 073f 2e24 d0b7 4f5d 99bf e082 9e3e
00000280: 1fc3 da3f 9711 f73f 20b1 513f 7f29 5bbe
00000290: 00d3 7a3f 0b33 45be 844a 00bf 0cbe 44c0
000002a0: 5967 11c0 17d1 13be 9617 c9bf 8a5f 0ac0
000002b0: 5942 a93f 5cc3 9540 9590 e0bf e3a0 d03f
000002c0: 1105 4e3f f16c ff3e d98d 7640 a9a9 903f
000002d0: 7b81 b93f fdf5 11be 1d45 cf3f 733d c5bf
000002e0: 81c3 8e3e 6898 3d3f 25c6 773f 99c9 3840
000002f0: 2a2e 7abf f460 81bf e479 1a40 24c1 423f
00000300: 6051 a43e 463a 203e 5ef4 393c 71c6 1940
00000310: 7701 bd3f 04d6 833f a21e f63c 5256 d9bf
00000320: 4e9e 763f de5b 78be 3d2f 383f 5e52 4bc0
00000330: e900 bcbc f94c 36c0 dc2f 5fc0 e10d 7c40
00000340: d5ea bb3f 64de d4bf 803d 6f3f 6336 8dbe
00000350: 9826 b33f 48ab 1740 9948 32c0 2a5e e23d
00000360: 5d5f 7ac0 da62 a13f 366b 6bbf b694 a3bf
00000370: 5ac6 9a3f 5c83 1ac0 56ac 883e 0adf e43e
00000380: 1473 56c0 9112 93c0 87b4 e13e 3314 403e
00000390: 1b41 31c0 1f3f 3a40 87af 44c0 91e9 1ac0
000003a0: 8dbc ebbf 904a b73f 7e37 1440 c3bf 69be
000003b0: 1f41 9ebf 22ba 15c0 89a5 3240 d593 1dc0
000003c0: 65a0 dbbf 0e76 d63e 7e86 9240 1244 893e
000003d0: 0528 f4bf e4cc 9fbf e155 32c0 bb9e 5e40
000003e0: cc31 4e40 aca2 313f c5bf ddbf 50cc b7bf
000003f0: b2ad 0ac0 d382 5abf 4901 8ebf 190c d7bf

embedding.net_.linear_clamped_.bias f4 [500]
0.097226895 0.72339183 0.37382656 4.685977 5.511858 5.747065 0.35331517 1.5994364
4.5594583 1.0301154 6.040635 2.0871584 1.7889438 3.6730373 2.6998856 4.870097
4.0978665 1.9424815 2.0333166 6.121016 2.2082279 0.034334432 2.2214453 4.5940204
4.487263 1.6119566 1.7883704 4.928132 1.4451703 2.8227367 1.0875175 3.4733198
0.68756986 4.870616 6.151094 3.38787 5.0410247 5.729984 1.1057017 3.4422991
5.900539 3.7780738 0.66325456 0.97198623 5.5432715 5.790733 3.3531282 2.3803084
5.574 5.499555 4.4553833 0.056917954 5.496789 3.3119957 5.192109 6.020116
0.6792419 4.1960907 2.3785362 1.2018223 2.4145129 2.936594 2.6663246 5.9546266
1.8185107 1.5693392 5.9644566 2.9434752 1.3766104 2.7549746 0.82073706 1.6773964
0.6988601 5.0039344 5.0115237 0.04620518 6.1144695 6.2692056 1.9752951 6.1311555
1.0533059 0.110648476 2.0558403 1.0499552 5.507219 0.01765838 2.4481223 6.203318
4.7542906 1.4188608 4.0420513 3.7621288 3.7792232 2.4948435 3.1188965 2.9737897
1.4901253 1.2125688 4.5095434 2.983265 5.760921 1.379667 0.25641972 4.549438
3.3430173 4.7457128 3.4431956 0.57935715 1.0620372 5.8407116 1.5354788e-05 1.5355096
5.2160864 3.8933425 4.6242805 5.03921 2.0565338 3.4617872 0.09458063 2.9477036
3.2599385 5.7625823 2.7081826 2.410075 4.012156 4.9269133 4.491116 6.174172
4.0193853 5.203458 1.9086422 5.652268 1.2670449 2.4064364 5.1652803 0.10181236
0.41757873 3.0809257 4.82093 0.35985407 2.9249036 2.833438 5.66384 5.6687665
0.86980456 3.1417468 3.528778 0.17067297 3.0158389 1.5881191 6.1680775 1.38814
4.872182 0.9038727 1.682328 3.448941 2.5312138 1.3336023 4.0796394 0.11555078
1.6771178 3.992641 3.9061399 3.570427 5.2554045 1.6462218 5.4314675 1.8796524
3.4878159 4.896173 4.513084 0.9764582 4.628242 5.2388635 0.81990004 6.230359
3.832146 2.8589714 1.0163065 4.4486322 3.4743834 2.609674 0.81152755 0.6977134
1.858938 0.11514594 1.6566528 3.1263907 3.9375029 5.837929 5.640739 4.9848766
4.4492326 4.598738 1.25607 4.602921 1.2284782 0.17522548 5.57375 5.9393
2.9387968 3.2362568 0.35216284 6.0151353 4.853056 5.9039145 0.9482837 4.7769413
3.6602786 0.13940762 5.371794 1.7474476 2.0947964 6.2298555 5.1188807 5.8444858
4.3923035 2.8489387 2.903562 0.23978786 0.20665897 2.805945 1.5333558 1.6597055
4.029884 1.595063 3.3947394 0.70116144 2.3599317 3.8507986 0.9496652 2.1657884
0.4284031 1.4707083 1.0215979 0.47234476 5.5751047 1.0973064 0.8122376 4.9479194
3.3453758 2.1372151 2.737343 5.0851336 4.0163474 1.6528842 0.59827125 5.034809
2.6878884 1.0635158 3.4123023 2.9779358 0.44082513 2.6677144 3.2669747 0.43380687
00000000: e51e c73d 3530 393f 3266 bf3e 86f3 9540
00000010: 2461 b040 f5e7 b740 bae5 b43e 55ba cc3f
00000020: 15e7 9140 d2da 833f e24c c140 0194 0540
00000030: 1cfc e43f 0b13 6b40 edca 2c40 d6d7 9b40
00000040: b921 8340 3ca3 f83f dc21 0240 5ddf c340
00000050: 9b53 0d40 43a2 0c3d 292c 0e40 3702 9340
00000060: a997 8f40 9854 ce3f 52e9 e43f 42b3 9d40
00000070: 57fb b83f b8a7 3440 c633 8b3f df4a 5e40
00000080: 9404 303f 16dc 9b40 c3d5 c440 ddd2 5840
00000090: 1350 a140 075c b740 a287 8d3f a14e 5c40
000000a0: 37d1 bc40 f6cb 7140 0dcb 293f 17d4 783f
000000b0: 7b62 b140 af4d b940 a799 5640 f956 1840
000000c0: 355e b240 5bfc af40 8092 8e40 cd22 693d
000000d0: b2e5 af40 bdf7 5340 c225 a640 caa4 c040
000000e0: cce2 2d3f 6046 8640 f039 1840 50d5 993f
000000f0: 6187 1a40 28f1 3b40 10a5 2a40 4d8c be40
00000100: f5c4 e83f 1be0 c83f d4dc be40 e661 3c40
00000110: c534 b03f 8151 3040 d31b 523f edb4 d63f
00000120: 7fe8 323f 3b20 a040 675e a040 a541 3d3d
00000130: bca9 c340 559d c840 78d6 fc3f 6d32 c440
00000140: bad2 863f ab9b e23d e392 0340 ef64 863f
00000150: 233b b040 4fa8 903c 09ae 1c40 9581 c640
00000160: 2623 9840 3b9d b53f 7c58 8140 b8c6 7040
00000170: cbde 7140 84ab 1f40 009c 4740 9252 3e40
00000180: 6dbc be3f 7435 9b3f 2e4e 9040 d0ed 3e40
00000190: 7759 b840 ee98 b03f 7249 833e ff94 9140
000001a0: fff3 5540 e1dc 9740 515d 5c40 c050 143f
000001b0: d6f0 873f 1ce7 ba40 28ce 8037 948b c43f
000001c0: 2eea a640 862c 7940 1bfa 9340 3541 a140
000001d0: 409e 0340 ec8d 5d40 7db3 c13d 2da7 3c40
000001e0: d5a2 5040 1367 b840 dd52 2d40 ab3e 1a40
000001f0: 9563 8040 46a9 9d40 39b7 8f40 d192 c540
00000200: ce9e 8040 ba82 a640 634e f43f 61df b440
00000210: 872e a23f 0e03 1a40 fa49 a540 0083 d03d
00000220: e1cc d53e e32d 4540 0f45 9a40 cb3e b83e
00000230: 9f31 3b40 0c57 3540 2d3e b540 8966 b540
00000240: 83ab 5e3f 6112 4940 80d7 6140 e5c4 2e3e
00000250: 8103 4140 7d47 cb3f e460 c540 92ae b13f
00000260: eae8 9b40 3464 673f 8656 d73f 73bb 5c40
00000270: 68ff 2140 7bb3 aa3f 688c 8240 e3a5 ec3d
00000280: ccab d63f 6e87 7f40 32fe 7940 e081 6440
00000290: 462c a840 65b7 d23f 95ce ad40 7398 f03f
000002a0: 6038 5f40 73ad 9c40 2f6b 9040 2af9 793f
000002b0: 8f1a 9440 c5a4 a740 f8e4 513f 1a5f c740
000002c0: e141 7540 63f9 3640 5516 823f 325b 8e40
000002d0: 4c5c 5e40 e604 2740 45c0 4f3f 589d 323f
000002e0: aef1 ed3f a2d1 eb3d 330d d43f c916 4840
000002f0: 0c00 7c40 50d0 ba40 ef80 b440 1c84 9f40
00000300: 1d60 8e40 dd28 9340 e7c6 a03f 214b 9340
00000310: c63e 9d3f 4f6e 333e 295c b240 bf0e be40
00000320: 3f15 3c40 d51e 4f40 b04e b43e fd7b c040
00000330: 3c4c 9b40 deec bc40 b8c2 723f b4dc 9840
00000340: 0142 6a40 dfc0 0e3e bde5 ab40 5dac df3f
00000350: 2511 0640 fa5a c740 dfcd a340 0706 bb40
00000360: c08d 8c40 0355 3640 f6d3 3940 f38a 753e
00000370: 699e 533e 9a94 3340 0145 c43f 3b71 d43f
00000380: cff4 8040 062b cc3f 6943 5940 517f 333f
00000390: 1f09 1740 7c73 7640 421d 733f 479c 0a40
000003a0: a757 db3e 2b40 bc3f b8c3 823f 2cd7 f13e
000003b0: 4267 b240 8974 8c3f ceee 4f3f 5b55 9e40
000003c0: a31a 5640 22c8 0840 a130 2f40 6ab9 a240
000003d0: eb85 8040 b691 d33f 4e28 193f 281d a140
000003e0: 5d06 2c40 4921 883f 2963 5a40 8096 3e40
000003f0: d5b3 e13e d5bb 2a40 1d16 5140 ef1b de3e

embedding.net_.prediction_.weight f4 [1, 500]
-4.385726 1.9150126 1.0467007 -0.58311117 1.6478679 0.059360515 0.9396726 0.50137126
-0.749568 0.8014994 -0.2905982 -3.9086523 -0.78219914 -2.8578746 -0.039992392 -0.5658865
-0.44853106 -3.188453 0.13998494 0.6411662 -0.29948282 -0.11778997 -0.13543896 -0.77559656
-0.056124978 -0.85130745 1.2087268 1.0589278 0.45050117 -0.49299297 1.1948104 -0.5170784
2.408258 0.63589704 1.3445028 2.4566803 -0.036886547 1.2859275 1.386565 -1.3195299
0.93463475 -1.4568127 1.7773763 0.45934573 0.82438517 -0.48605692 -3.4307184 -0.21856688
-1.4744928 0.056375194 -1.589064 -0.01626201 1.869607 -1.7910658 4.17151 0.37675497
0.79755706 -3.3776503 -0.6337229 -0.77734864 -1.4336832 -0.37985194 1.6314145 -0.676277
0.24189188 3.076641 0.39943486 -0.95261276 0.09634465 -0.4984573 -1.0907795 -0.6742515
1.1508696 -0.73950976 1.6334729 2.5087729 2.398457 -0.37818602 1.3728538 3.5873606
0.81089205 3.8540466 0.7610735 -0.7237308 1.6310412 0.9483179 -0.2416547 1.8465142
-0.9587191 -2.9216506 -2.59171 -2.2280402 -0.72668886 0.3017034 -1.0089065 -2.1416576
1.1943499 0.59648675 -1.1920457 -0.62814987 0.70374805 -1.0275759 -0.27622372 -0.83513
-1.997386 -1.5340235 -0.67152405 1.5891763 -2.6242268 1.0539229 0.8047291 0.2837327
0.013573143 -2.1715376 0.5828597 -0.5402479 -1.7076837 -1.9313197 0.5102988 0.23604299
-2.442464 -2.5161994 -1.6025746 -0.17492145 0.72818524 0.78550607 -1.1743804 0.77982116
-0.45876497 0.44258064 -0.58851457 0.30925316 0.34764355 -0.22377387 2.224264 1.6033851
0.45587257 2.7997181 -1.3003684 1.4535693 -2.8007882 0.9953907 0.76411825 -0.10013626
0.3532801 -0.97703546 -1.7347865 0.89990157 -2.2105868 -0.22991106 2.147693 -2.5998828
0.010442745 -1.1783668 -0.122384116 0.8936185 -0.261804 0.14565633 -0.22843353 1.2021198
0.3272837 -0.5300949 -2.7554183 -1.2052087 1.043949 0.21425782 -1.5697299 -0.32681516
0.60971457 2.0892804 -2.9731407 0.20902155 -0.99763346 2.3418958 -1.6031425 1.4450022
-0.6925711 -1.189528 1.0946506 -0.54799867 3.2222176 -1.4437248 0.0022800532 3.0434523
-0.7332709 -0.09858666 -0.39537284 -0.83695674 -0.18869062 0.21630345 0.7990826 -0.25474364
-0.6825787 0.7132583 -3.528481 -0.7487219 -0.24788725 0.63900125 -0.25277472 -0.58791834
0.372667 0.13767444 1.8380927 1.3405827 -0.68623775 1.0316355 -1.7638006 1.580223
-1.3137519 3.97525 1.0782843 -1.2320837 -2.207863 -1.3391329 0.8419778 0.66981405
0.2778005 1.1541301 -2.3267283 1.8527952 0.4018619 0.6823383 0.67999154 0.83948064
-1.1281257 0.19163649 -0.11881835 0.6237517 -0.041084506 1.5076882 0.1750534 0.2563907
2.7179651 2.603949 0.27817273 0.41759595 0.8759723 -0.90883166 -1.4595978 0.76469535
-0.81563765 0.71278894 -1.6973373 2.0313394 -1.2881701 0.6401963 1.07921 0.915627
0.3370559 0.94890237 -0.74302304 -2.7723136 1.0928125 -0.7961092 1.4287277 -6.5609727
00000000: de57 8cc0 221f f53f 4afa 853f c646 15bf
00000010: 56ed d23f 0324 733d 628e 703f de59 003f
00000020: b0e3 3fbf 112f 4d3f 4ac9 94be 5c27 7ac0
00000030: 343e 48bf 6be7 36c0 10cf 23bd f0dd 10bf
00000040: dda5 e5be 9d0f 4cc0 3658 0f3e 7823 243f
00000050: d055 99be de3b f1bd 83b0 0abe 7f8d 46bf
00000060: 4ee3 65bd 49ef 59bf 8fb7 9a3f f28a 873f
00000070: 17a8 e63e 9369 fcbe 8cef 983f 405f 04bf
00000080: e620 1a40 26ca 223f ab18 ac3f 403a 1d40
00000090: 5916 17bd 4699 a43f f67a b13f 5be6 a8bf
000000a0: 3944 6f3f d778 babf 1181 e33f 5d2f eb3e
000000b0: e80a 533f 74dc f8be e490 5bc0 ffcf 5fbe
000000c0: 2ebc bcbf ade9 663d 7366 cbbf e837 85bc
000000d0: 484f ef3f a541 e5bf 037d 8540 07e6 c03e
000000e0: b32c 4c3f 6c2b 58c0 aa3b 22bf 5200 47bf
000000f0: ee82 b7bf f47b c2be 31d2 d03f 7d20 2dbf
00000100: 81b2 773e b0e7 4440 ba82 cc3e 6ede 73bf
00000110: 5850 c53d cc35 ffbe aa9e 8bbf bf9b 2cbf
00000120: b24f 933f 8350 3dbf a415 d13f bc8f 2040
00000130: 5280 1940 99a1 c1be acb9 af3f 5197 6540
00000140: 9f96 4f3f b3a8 7640 b7d5 423f 6c46 39bf
00000150: f5c5 d03f f6c4 723f 5474 77be 945a ec3f
00000160: 9d6e 75bf 53fc 3ac0 94de 25c0 3698 0ec0
00000170: 4808 3abf de78 9a3e d923 81bf eb10 09c0
00000180: 75e0 983f 5bb3 183f f494 98bf 6ece 20bf
00000190: d528 343f 9b87 83bf 326d 8dbe 14cb 55bf
000001a0: 58aa ffbf e25a c4bf 00e9 2bbf 216a cb3f
000001b0: 55f3 27c0 f2e6 863f ba02 4e3f 6a45 913e
000001c0: e361 5e3c 79fa 0ac0 4b36 153f b04d 0abf
000001d0: 6195 dabf 7c35 f7bf f1a2 023f 41b5 713e
000001e0: 5551 1cc0 6909 21c0 2a21 cdbf 9c1e 33be
000001f0: 596a 3a3f ed16 493f 1952 96bf 5ca2 473f
00000200: 3ee3 eabe ee99 e23e e4a8 16bf 6e56 9e3e
00000210: 56fe b13e fa24 65be 575a 0e40 b93b cd3f
00000220: 2168 e93e 952e 3340 7972 a6bf 8f0e ba3f
00000230: 1d40 33c0 edd1 7e3f 419d 433f 3d14 cdbd
00000240: 21e1 b43e ff1e 7abf 7c0d debf f35f 663f
00000250: 417a 0dc0 ce6d 6bbe cd73 0940 7b64 26c0
00000260: 0c18 2b3c b9d4 96bf 86a4 fabd 2fc4 643f
00000270: 2d0b 86be ef26 153e 7bea 69be 10df 993f
00000280: bb91 a73e 4db4 07bf c658 30c0 4744 9abf
00000290: 1fa0 853f 6766 5b3e e9ec c8bf 5154 a7be
000002a0: 4116 1c3f c5b6 0540 f047 3ec0 bf09 563e
000002b0: e864 7fbf 9fe1 1540 c633 cdbf d5f5 b83f
000002c0: 574c 31bf 7442 98bf 831d 8c3f a449 0cbf
000002d0: d038 4e40 f9cb b8bf f26c 153b ecc7 4240
000002e0: a4b7 3bbf cee7 c9bd 4f6e cabe cc42 56bf
000002f0: 1d38 41be a77e 5d3e ad90 4c3f c26d 82be
00000300: 7abd 2ebf 1998 363f a2d2 61c0 3dac 3fbf
00000310: 28d6 7dbe 9695 233f b06b 81be d181 16bf
00000320: 36ce be3e 87fa 0c3e 9f46 eb3f 3798 ab3f
00000330: 47ad 2fbf a20c 843f 38c4 e1bf bf44 ca3f
00000340: 0629 a8bf 7f6a 7e40 3805 8a3f ebb4 9dbf
00000350: a14d 0dc0 b568 abbf db8b 573f ef78 2b3f
00000360: de3b 8e3e 89ba 933f 1ee9 14c0 6528 ed3f
00000370: d8c0 cd3e b9ad 2e3f ed13 2e3f 34e8 563f
00000380: 6c66 90bf 5b3c 443e 0957 f3bd 31ae 1f3f
00000390: 3a48 28bd edfb c03f 3341 333e a445 833e
000003a0: 24f3 2d40 1aa7 2640 a86c 8e3e 23cf d53e
000003b0: b83f 603f 31a9 68bf 1ad4 babf 13c3 433f
000003c0: a1cd 50bf 5679 363f 5942 d9bf 7701 0240
000003d0: c2e2 a4bf e8e3 233f 8e23 8a3f 8866 6a3f
000003e0: 9792 ac3e 44eb 723f c236 3ebf 966d 31c0
000003f0: 48e1 8b3f d0cd 4bbf 8de0 b63f 7df3 d1c0
