models/Angle2.pt (torch, 4751 bytes, 12 tensors)

stiffness.eig_ f4 [2]
4.876114 0.7277351
00000000: 2009 9c40 d94c 3a3f

stiffness.vec_ f4 [2]
0.7991915 -0.0049533686
00000000: d097 4c3f de4f a2bb

dissipation.eig_ f4 [2]
5.877406 1.2901415
00000000: b613 bc40 5b23 a53f

dissipation.vec_ f4 [2]
0.7853094 -0.01899142
00000000: 090a 493f e593 9bbc

embedding.net_.net_.0.weight f4 [64, 2]
-2.0697513 1.8253908 -1.798527 0.6569772 -0.40052262 -0.34718493 -3.9921582 2.330139
-1.0975305 -0.13824423 -1.0040946 0.7957887 -0.9926262 -0.1886474 2.2377572 0.126232
3.0806139 -0.10780622 -1.1791159 0.38174924 0.57851535 0.3947256 1.0054926 -0.10032113
2.8300686 -1.5458384 1.9983195 -0.6669991 -4.49692 1.5132556 -1.7564182 0.5749285
0.3551073 0.5523883 -0.21799183 0.4630628 -0.4605013 -0.24337025 3.0035625 0.07696491
-0.6911552 0.5923631 0.38667575 0.12949662 1.0817859 -0.34355593 -1.1607823 0.6263744
-0.89919627 -0.036649045 -0.2583051 -0.13823457 0.28587088 -2.6628401 -0.95847344 -0.0031007656
0.6648811 0.3063255 0.9640407 0.19615577 0.07631134 -1.227431 -0.86298513 -1.6497431
-5.1074357 -0.56143844 2.28461 2.1345165 -0.3003366 -0.57770693 -0.36615214 -0.25410843
-1.2035964 0.33210447 -0.90770113 0.24705368 1.148335 -0.01659428 2.2375464 -0.56526786
-0.20920518 -4.524409 1.8529059 -0.35520613 0.37952423 0.41122395 -0.9605898 0.32864296
3.0199738 0.0046460787 3.0373583 -0.88204813 0.6804854 1.7218825 -0.42478406 -0.2757395
-0.44157648 -0.60602295 -0.21074724 -0.2318164 0.54307514 0.25090417 -0.10963405 -0.54451007
4.6103644 -1.6488277 -4.7770386 3.3930435 -0.6236004 0.9023862 3.2400615 -0.8276925
-0.5415768 -0.47294253 4.48719 -0.1694862 -0.38386297 -0.34899285 1.3252122 0.14759707
0.72705764 -0.42365527 0.41830018 1.0071108 -0.8530052 -1.5845209 -0.6020205 -0.15831065
00000000: ce76 04c0 68a6 e93f 2236 e6bf a82f 283f
00000010: 4d11 cdbe 39c2 b1be 857f 7fc0 ff20 1540
00000020: e17b 8cbf e58f 0dbe 2c86 80bf cfb8 4b3f
00000030: c01c 7ebf c92c 41be 6a37 0f40 f642 013e
00000040: c728 4540 82c9 dcbd 45ed 96bf a374 c33e
00000050: 9519 143f 7919 ca3e fbb3 803f 2a75 cdbd
00000060: d81f 3540 08de c5bf efc8 ff3f 74c0 2abf
00000070: c5e6 8fc0 5cb2 c13f 50d2 e0bf 842e 133f
00000080: a0d0 b53e 5269 0d3f 4039 5fbe 9116 ed3e
00000090: d4c6 ebbe 0d36 79be 5e3a 4040 c79f 9d3d
000000a0: 8cef 30bf 1ca5 173f 5dfa c53e c39a 043e
000000b0: f677 8a3f 90e6 afbe 8494 94bf 135a 203f
000000c0: ba31 66bf 4f1d 16bd 9140 84be 5d8d 0dbe
000000d0: ab5d 923e f96b 2ac0 845e 75bf 3736 4bbb
000000e0: a635 2a3f b2d6 9c3e 5fcb 763f 0fdd 483e
000000f0: 1f49 9c3d 761c 9dbf 98ec 5cbf c82a d3bf
00000100: 1d70 a3c0 6eba 0fbf 0d37 1240 eb9b 0840
00000110: b8c5 99be 9ae4 13bf 4b78 bbbe 801a 82be
00000120: 720f 9abf 9909 aa3e 1a5f 68bf a4fb 7c3e
00000130: a4fc 923f baf0 87bc f633 0f40 65b5 10bf
00000140: e239 56be f5c7 90c0 052c ed3f 94dd b5be
00000150: 0051 c23e f28b d23e 37e9 75bf e443 a83e
00000160: 4047 4140 223e 983b 1464 4240 e8cd 61bf
00000170: 4b34 2e3f a566 dc3f 4c7d d9be ba2d 8dbe
00000180: 5016 e2be 5224 1bbf 20ce 57be 4761 6dbe
00000190: f906 0b3f 8376 803e d187 e0bd 0365 0bbf
000001a0: 1b88 9340 c90c d3bf 80dd 98c0 a027 5940
000001b0: 47a4 1fbf c802 673f 2b5d 4f40 a8e3 53bf
000001c0: c7a4 0abf 8625 f2be 0f97 8f40 ca8d 2dbe
000001d0: b089 c4be 31af b2be 8ea0 a93f b023 173e
000001e0: 7320 3a3f 58e9 d8be 712b d63e 02e9 803f
000001f0: 8c5e 5abf 95d1 cabf 041e 1abf 301c 22be

embedding.net_.net_.0.bias f4 [64]
-0.83876663 0.25796282 -0.64627916 -1.4676007 -0.80370873 -0.51720774 -0.90059674 1.1491421
0.5123871 0.20298167 0.26815927 -0.03768122 0.03473113 -0.53936225 3.6001654 0.43219614
-0.4522296 0.69664145 -0.15460637 1.8393449 -1.0185369 0.44525245 -0.015524924 -0.20129803
0.19713302 0.32724985 -0.74106294 -0.049147908 -0.41711304 1.0413449 1.2648156 -0.9086873
0.9573378 -0.8770821 0.21875611 0.119735055 0.2945643 -0.10543016 0.007540177 -2.0756247
-3.90073 -0.51034176 0.35024834 0.039030094 1.5814118 -2.5994804 0.0475085 -0.6008255
0.2353968 0.17028733 -0.04896491 -0.321126 -3.7211719 3.6330476 -0.8902926 -1.3720832
0.38096067 1.2753248 -0.89056283 1.098714 0.38946268 -0.14914167 -0.88936806 -0.5913887
00000000: 69b9 56bf b413 843e 8d72 25bf 57da bbbf
00000010: dbbf 4dbf ba67 04bf 828d 66bf 1717 933f
00000020: cd2b 033f 6dda 4f3e 2c4c 893e 9f57 1abd
00000030: 3b42 0e3d a513 0abf 1c69 6640 d048 dd3e
00000040: a38a e7be 1857 323f 2251 1ebe a76f eb3f
00000050: 6b5f 82bf 21f8 e33e 405c 7ebc 1221 4ebe
00000060: 3ddd 493e 4b8d a73e 4db6 3dbf 514f 49bd
00000070: d78f d5be ca4a 853f 7ae5 a13f bb9f 68bf
00000080: 1714 753f 7488 60bf 9a01 603e a737 f53d
00000090: 22d1 963e c5eb d7bd 9713 f73b 09d7 04c0
000000a0: 8fa5 79c0 c2a5 02bf c053 b33e 05de 1f3d
000000b0: b46b ca3f e35d 26c0 4698 423d b3cf 19bf
000000c0: dc0b 713e cd5f 2e3e 6e8f 48bd a16a a4be
000000d0: ae27 6ec0 da83 6840 37ea 63bf 6ca0 afbf
000000e0: 470d c33e d83d a33f edfb 63bf a9a2 8c3f
000000f0: a767 c73e 98b8 18be a0ad 63bf 4065 17bf

embedding.net_.net_.2.weight f4 [1, 64]
0.7819332 -0.58521193 -0.25652143 -0.47185424 -0.45762008 -0.23210804 -0.4113652 0.4543999
-0.8410248 -0.22223452 -0.030645795 0.8330723 0.6615481 0.67538226 2.71259 -0.54909194
0.09254641 0.24696189 -0.063936695 0.5999877 -0.40761292 0.29261965 0.39597306 -0.32492158
-0.37625456 0.039868657 -0.48789224 -0.5280654 0.09201828 0.32206708 0.42759132 0.25700346
-1.1302813 0.2949456 -0.13628396 0.01166205 -0.2726427 -0.36693802 0.5651221 -0.68793255
-1.0962627 0.6960029 0.0006103897 -0.33500037 0.5897412 -2.0467744 0.35311627 -0.067069285
-0.1268216 -0.15087074 0.16596718 -0.093056664 -3.023823 -2.0463302 -0.19096965 1.6568023
-0.09909097 2.0185037 -0.058091685 0.42949998 0.15542924 0.18134765 0.1845176 -0.3130272
00000000: c62c 483f 73d0 15bf c756 83be e196 f1be
00000010: 2e4d eabe bbad 6dbe 769e d2be 1ba7 e83e
00000020: 674d 57bf 7291 63be e40c fbbc 3a44 553f
00000030: 375b 293f dae5 2c3f 139b 2d40 4a91 0cbf
00000040: f988 bd3d 94e3 7c3e 3ef1 82bd cb98 193f
00000050: a4b2 d0be 3ed2 953e fbbc ca3e 1f5c a6be
00000060: 70a4 c0be 514d 233d 03cd f9be 4b2f 07bf
00000070: 1474 bc3d fae5 a43e 40ed da3e f595 833e
00000080: 0fad 90bf 1c03 973e 068e 0bbe 2f12 3f3c
00000090: d397 8bbe 4ddf bbbe d8ab 103f 591c 30bf
000000a0: 5652 8cbf 3f2d 323f 8f02 203a 2b85 abbe
000000b0: 47f9 163f 5afe 02c0 a8cb b43e 9f5b 89bd
000000c0: 86dd 01be dc7d 1abe 4df3 293e 7e94 bebd
000000d0: 5186 41c0 13f7 02c0 8c8d 43be 1912 d43f
000000e0: 35f0 cabd 2a2f 0140 8cf1 6dbd 6ce7 db3e
000000f0: d828 1f3e 33b3 393e 2ff2 3c3e 1a45 a0be

velocity_.stiffness.eig_ f4 [2]
4.876114 0.7277351
00000000: 2009 9c40 d94c 3a3f

velocity_.stiffness.vec_ f4 [2]
0.7991915 -0.0049533686
00000000: d097 4c3f de4f a2bb

velocity_.embedding.net_.net_.0.weight f4 [64, 2]
-2.0697513 1.8253908 -1.798527 0.6569772 -0.40052262 -0.34718493 -3.9921582 2.330139
-1.0975305 -0.13824423 -1.0040946 0.7957887 -0.9926262 -0.1886474 2.2377572 0.126232
3.0806139 -0.10780622 -1.1791159 0.38174924 0.57851535 0.3947256 1.0054926 -0.10032113
2.8300686 -1.5458384 1.9983195 -0.6669991 -4.49692 1.5132556 -1.7564182 0.5749285
0.3551073 0.5523883 -0.21799183 0.4630628 -0.4605013 -0.24337025 3.0035625 0.07696491
-0.6911552 0.5923631 0.38667575 0.12949662 1.0817859 -0.34355593 -1.1607823 0.6263744
-0.89919627 -0.036649045 -0.2583051 -0.13823457 0.28587088 -2.6628401 -0.95847344 -0.0031007656
0.6648811 0.3063255 0.9640407 0.19615577 0.07631134 -1.227431 -0.86298513 -1.6497431
-5.1074357 -0.56143844 2.28461 2.1345165 -0.3003366 -0.57770693 -0.36615214 -0.25410843
-1.2035964 0.33210447 -0.90770113 0.24705368 1.148335 -0.01659428 2.2375464 -0.56526786
-0.20920518 -4.524409 1.8529059 -0.35520613 0.37952423 0.41122395 -0.9605898 0.32864296
3.0199738 0.0046460787 3.0373583 -0.88204813 0.6804854 1.7218825 -0.42478406 -0.2757395
-0.44157648 -0.60602295 -0.21074724 -0.2318164 0.54307514 0.25090417 -0.10963405 -0.54451007
4.6103644 -1.6488277 -4.7770386 3.3930435 -0.6236004 0.9023862 3.2400615 -0.8276925
-0.5415768 -0.47294253 4.48719 -0.1694862 -0.38386297 -0.34899285 1.3252122 0.14759707
0.72705764 -0.42365527 0.41830018 1.0071108 -0.8530052 -1.5845209 -0.6020205 -0.15831065
00000000: ce76 04c0 68a6 e93f 2236 e6bf a82f 283f
00000010: 4d11 cdbe 39c2 b1be 857f 7fc0 ff20 1540
00000020: e17b 8cbf e58f 0dbe 2c86 80bf cfb8 4b3f
00000030: c01c 7ebf c92c 41be 6a37 0f40 f642 013e
00000040: c728 4540 82c9 dcbd 45ed 96bf a374 c33e
00000050: 9519 143f 7919 ca3e fbb3 803f 2a75 cdbd
00000060: d81f 3540 08de c5bf efc8 ff3f 74c0 2abf
00000070: c5e6 8fc0 5cb2 c13f 50d2 e0bf 842e 133f
00000080: a0d0 b53e 5269 0d3f 4039 5fbe 9116 ed3e
00000090: d4c6 ebbe 0d36 79be 5e3a 4040 c79f 9d3d
000000a0: 8cef 30bf 1ca5 173f 5dfa c53e c39a 043e
000000b0: f677 8a3f 90e6 afbe 8494 94bf 135a 203f
000000c0: ba31 66bf 4f1d 16bd 9140 84be 5d8d 0dbe
000000d0: ab5d 923e f96b 2ac0 845e 75bf 3736 4bbb
000000e0: a635 2a3f b2d6 9c3e 5fcb 763f 0fdd 483e
000000f0: 1f49 9c3d 761c 9dbf 98ec 5cbf c82a d3bf
00000100: 1d70 a3c0 6eba 0fbf 0d37 1240 eb9b 0840
00000110: b8c5 99be 9ae4 13bf 4b78 bbbe 801a 82be
00000120: 720f 9abf 9909 aa3e 1a5f 68bf a4fb 7c3e
00000130: a4fc 923f baf0 87bc f633 0f40 65b5 10bf
00000140: e239 56be f5c7 90c0 052c ed3f 94dd b5be
00000150: 0051 c23e f28b d23e 37e9 75bf e443 a83e
00000160: 4047 4140 223e 983b 1464 4240 e8cd 61bf
00000170: 4b34 2e3f a566 dc3f 4c7d d9be ba2d 8dbe
00000180: 5016 e2be 5224 1bbf 20ce 57be 4761 6dbe
00000190: f906 0b3f 8376 803e d187 e0bd 0365 0bbf
000001a0: 1b88 9340 c90c d3bf 80dd 98c0 a027 5940
000001b0: 47a4 1fbf c802 673f 2b5d 4f40 a8e3 53bf
000001c0: c7a4 0abf 8625 f2be 0f97 8f40 ca8d 2dbe
000001d0: b089 c4be 31af b2be 8ea0 a93f b023 173e
000001e0: 7320 3a3f 58e9 d8be 712b d63e 02e9 803f
000001f0: 8c5e 5abf 95d1 cabf 041e 1abf 301c 22be

velocity_.embedding.net_.net_.0.bias f4 [64]
-0.83876663 0.25796282 -0.64627916 -1.4676007 -0.80370873 -0.51720774 -0.90059674 1.1491421
0.5123871 0.20298167 0.26815927 -0.03768122 0.03473113 -0.53936225 3.6001654 0.43219614
-0.4522296 0.69664145 -0.15460637 1.8393449 -1.0185369 0.44525245 -0.015524924 -0.20129803
0.19713302 0.32724985 -0.74106294 -0.049147908 -0.41711304 1.0413449 1.2648156 -0.9086873
0.9573378 -0.8770821 0.21875611 0.119735055 0.2945643 -0.10543016 0.007540177 -2.0756247
-3.90073 -0.51034176 0.35024834 0.039030094 1.5814118 -2.5994804 0.0475085 -0.6008255
0.2353968 0.17028733 -0.04896491 -0.321126 -3.7211719 3.6330476 -0.8902926 -1.3720832
0.38096067 1.2753248 -0.89056283 1.098714 0.38946268 -0.14914167 -0.88936806 -0.5913887
00000000: 69b9 56bf b413 843e 8d72 25bf 57da bbbf
00000010: dbbf 4dbf ba67 04bf 828d 66bf 1717 933f
00000020: cd2b 033f 6dda 4f3e 2c4c 893e 9f57 1abd
00000030: 3b42 0e3d a513 0abf 1c69 6640 d048 dd3e
00000040: a38a e7be 1857 323f 2251 1ebe a76f eb3f
00000050: 6b5f 82bf 21f8 e33e 405c 7ebc 1221 4ebe
00000060: 3ddd 493e 4b8d a73e 4db6 3dbf 514f 49bd
00000070: d78f d5be ca4a 853f 7ae5 a13f bb9f 68bf
00000080: 1714 753f 7488 60bf 9a01 603e a737 f53d
00000090: 22d1 963e c5eb d7bd 9713 f73b 09d7 04c0
000000a0: 8fa5 79c0 c2a5 02bf c053 b33e 05de 1f3d
000000b0: b46b ca3f e35d 26c0 4698 423d b3cf 19bf
000000c0: dc0b 713e cd5f 2e3e 6e8f 48bd a16a a4be
000000d0: ae27 6ec0 da83 6840 37ea 63bf 6ca0 afbf
000000e0: 470d c33e d83d a33f edfb 63bf a9a2 8c3f
000000f0: a767 c73e 98b8 18be a0ad 63bf 4065 17bf

velocity_.embedding.net_.net_.2.weight f4 [1, 64]
0.7819332 -0.58521193 -0.25652143 -0.47185424 -0.45762008 -0.23210804 -0.4113652 0.4543999
-0.8410248 -0.22223452 -0.030645795 0.8330723 0.6615481 0.67538226 2.71259 -0.54909194
0.09254641 0.24696189 -0.063936695 0.5999877 -0.40761292 0.29261965 0.39597306 -0.32492158
-0.37625456 0.039868657 -0.48789224 -0.5280654 0.09201828 0.32206708 0.42759132 0.25700346
-1.1302813 0.2949456 -0.13628396 0.01166205 -0.2726427 -0.36693802 0.5651221 -0.68793255
-1.0962627 0.6960029 0.0006103897 -0.33500037 0.5897412 -2.0467744 0.35311627 -0.067069285
-0.1268216 -0.15087074 0.16596718 -0.093056664 -3.023823 -2.0463302 -0.19096965 1.6568023
-0.09909097 2.0185037 -0.058091685 0.42949998 0.15542924 0.18134765 0.1845176 -0.3130272
00000000: c62c 483f 73d0 15bf c756 83be e196 f1be
00000010: 2e4d eabe bbad 6dbe 769e d2be 1ba7 e83e
00000020: 674d 57bf 7291 63be e40c fbbc 3a44 553f
00000030: 375b 293f dae5 2c3f 139b 2d40 4a91 0cbf
00000040: f988 bd3d 94e3 7c3e 3ef1 82bd cb98 193f
00000050: a4b2 d0be 3ed2 953e fbbc ca3e 1f5c a6be
00000060: 70a4 c0be 514d 233d 03cd f9be 4b2f 07bf
00000070: 1474 bc3d fae5 a43e 40ed da3e f595 833e
00000080: 0fad 90bf 1c03 973e 068e 0bbe 2f12 3f3c
00000090: d397 8bbe 4ddf bbbe d8ab 103f 591c 30bf
000000a0: 5652 8cbf 3f2d 323f 8f02 203a 2b85 abbe
000000b0: 47f9 163f 5afe 02c0 a8cb b43e 9f5b 89bd
000000c0: 86dd 01be dc7d 1abe 4df3 293e 7e94 bebd
000000d0: 5186 41c0 13f7 02c0 8c8d 43be 1912 d43f
000000e0: 35f0 cabd 2a2f 0140 8cf1 6dbd 6ce7 db3e
000000f0: d828 1f3e 33b3 393e 2ff2 3c3e 1a45 a0be
