models/Angle.pt (torch, 10139 bytes, 5 tensors)

stiffness.spd.weight f4 [2, 2]
11.509039 0.006127883 0.014419646 2.1092737
00000000: 0625 3841 69cc c83b 6140 6c3c 57fe 0640

dissipation.spd.weight f4 [2, 2]
6.3503313 -0.013140103 -0.012823462 1.203415
00000000: ea35 cb40 9649 57bc 7f19 52bc 8109 9a3f

embedding.net_.linear_clamped_.weight f4 [500, 2]
1.2117932 -2.8404012 0.3760746 -1.682455 -2.2254405 -0.46436554 4.7630186 -1.3685801
0.2719147 -0.96903634 2.1127698 -2.6227863 1.6675102 -2.4169092 6.46139 -1.8182799
1.0194844 -0.81775963 1.7387089 4.511861 -0.63282746 -2.8941348 -1.9004425 -4.384524
3.0894487 1.5814233 4.4252386 0.7320348 0.4910279 2.9377072 2.4122338 4.2223506
2.5905712 -2.9083564 -2.208918 3.3004663 -1.2883556 0.7600563 -4.692743 0.5081437
-1.5130252 1.6773715 3.4764562 2.2762938 -0.2519011 -0.28790316 0.77813166 4.283786
0.37841517 -3.5568058 1.5460128 2.3608222 -1.6407084 2.3426251 0.1404214 -0.6638819
-3.2756975 -0.9450759 1.9039067 -0.00071555015 -5.912166 -1.0466154 -0.7002203 -4.8383446
1.9935755 -0.2646101 0.5334817 -0.93288845 -1.2548697 -1.9788172 2.9629343 -1.391283
1.3128774 -1.4482102 2.6126392 -1.9134605 2.6274896 -2.9816098 3.078098 1.3044128
-7.547969 1.2782533 -2.70985 -2.391269 2.7732997 -0.7559195 2.938664 2.6911817
-4.096837 -2.3817568 3.7508993 0.6020204 0.017971499 -0.0061972504 -5.568531 -2.6003509
-1.5714053 1.0519376 -3.0535507 0.44274083 -2.2036972 1.2941096 -2.5549083 1.3594872
-2.2235878 -0.4565552 -1.4103705 -1.7001941 -0.1471993 2.0712886 -1.2078841 -1.3970068
-0.53182095 -1.8384029 3.9203482 -3.9599562 0.3193934 2.5748591 -1.0167696 -2.675975
2.798403 -2.4861062 3.307776 0.84697235 4.1137033 -2.4039445 1.7141308 0.57662976
4.841834 -1.4824772 2.9475458 1.4611766 0.1991603 0.6396551 3.3346617 0.7619673
1.2697533 6.340324 -0.57684666 -1.6957788 -0.09104263 -0.8908229 1.1012731 1.1374817
-1.9508789 1.1969584 0.21095796 -2.8924475 -0.81615317 -2.7385938 0.98237234 -0.1037881
1.3997263 4.5655694 0.25481656 -0.32751778 4.037774 -2.721367 -2.212768 2.8122752
-0.046668574 -0.16968772 -1.8688306 4.4259505 1.0827657 1.8214127 -3.6674044 -4.585171
1.50034 -1.8186808 -2.9269543 0.43775916 1.6144629 3.7500837 3.0334933 1.7485676
-1.855622 3.2746303 -0.39172646 -1.674198 -3.1196725 3.3139503 1.1138783 -1.3030597
-0.13118924 0.8000785 -5.113404 2.3266304 -0.65123075 -1.1630025 2.1065483 -2.7652798
-1.0440431 0.49741128 -0.6765828 1.1661607 -2.3802938 0.43754357 1.7456433 3.3302128
3.5725284 2.1852777 0.14712968 -2.1521719 1.0917159 -7.60968 3.3941405 1.9889208
2.0391312 1.4383078 -2.7653015 -2.3560736 3.7185717 -1.2361001 0.0016953319 3.7272546
-0.9360703 -0.5945167 0.52076906 -3.4915147 -2.8854232 2.8464475 -1.1344408 -2.003068
0.5164426 4.03684 0.1252314 4.834458 0.33903056 -1.340138 -2.0073924 1.1486547
1.0813072 -2.2827184 -1.1196009 -2.1620553 -3.2352796 0.46084964 1.0033832 -1.4427994
0.45963508 -2.3867157 1.899697 -0.13535419 -0.68235517 1.239749 0.03466542 0.11287825
-2.9386756 1.7583679 -2.5990114 2.6223183 -0.7721918 -1.3679932 1.5833489 -1.3826389
00000000: 0a1c 9b3f 22c9 35c0 da8c c03e af5a d7bf
00000010: 9e6d 0ec0 52c1 edbe a66a 9840 a22d afbf
00000020: 6738 8b3e c412 78bf 9f37 0740 bbdb 27c0
00000030: f970 d53f a4ae 1ac0 b5c3 ce40 65bd e8bf
00000040: 777e 823f b258 51bf 038e de3f 2a61 9040
00000050: fb00 22bf 8139 39c0 b341 f3bf 054e 8cc0
00000060: 87b9 4540 146c ca3f 8e9b 8d40 a266 3b3f
00000070: 0268 fb3e 6503 3c40 0a62 1a40 7f1d 8740
00000080: ebcb 2540 8322 3ac0 ea5e 0dc0 d73a 5340
00000090: d6e8 a4bf 0d93 423f f32a 96c0 b515 023f
000000a0: cfaa c1bf 1cb4 d63f 427e 5e40 ccae 1140
000000b0: 2ef9 80be 0b68 93be a333 473f c614 8940
000000c0: a2bf c13e b5a2 63c0 bfe3 c53f b617 1740
000000d0: bc02 d2bf 92ed 1540 a1ca 0f3e 2af4 29bf
000000e0: 07a5 51c0 7ff0 71bf 37b3 f33f c293 3bba
000000f0: 7730 bdc0 7ef7 85bf a341 33bf b8d3 9ac0
00000100: 7b2d ff3f fa7a 87be 4292 083f c7d1 6ebf
00000110: 929f a0bf e249 fdbf b7a0 3d40 9015 b2bf
00000120: 5e0c a83f f45e b9bf 7b35 2740 46ec f4bf
00000130: ca28 2840 b2d2 3ec0 8fff 4440 00f7 a63f
00000140: f688 f1c0 ce9d a33f 2f6e 2dc0 8d0a 19c0
00000150: be7d 3140 f183 41bf 1213 3c40 523c 2c40
00000160: 4a19 83c0 b46e 18c0 bc0e 7040 021e 1a3f
00000170: f738 933c 4e12 cbbb 6831 b2c0 266c 26c0
00000180: cf23 c9bf e4a5 863f 606d 43c0 edae e23e
00000190: 6009 0dc0 62a5 a53f 9e83 23c0 ad03 ae3f
000001a0: 434f 0ec0 9ac1 e9be 0587 b4bf f69f d9bf
000001b0: 6abb 16be fe8f 0440 f29b 9abf 1ed1 b2bf
000001c0: 6b25 08bf c950 ebbf fce6 7a40 ec6f 7dc0
000001d0: 8887 a33e 7eca 2440 8225 82bf 2d43 2bc0
000001e0: 0919 3340 5d1c 1fc0 9ab2 5340 2ed3 583f
000001f0: 75a3 8340 3ada 19c0 a368 db3f 029e 133f
00000200: 4ef0 9a40 d0c1 bdbf 97a4 3c40 d607 bb3f
00000210: adf0 4b3e 70c0 233f 196b 5540 4a10 433f
00000220: 4787 a23f efe3 ca40 39ac 13bf 480f d9bf
00000230: 8f74 babd f80c 64bf 84f6 8c3f 0099 913f
00000240: 66b6 f9bf ef35 993f 5d05 583e dc1d 39c0
00000250: 6aef 50bf 1f45 2fc0 c17c 7b3f db8e d4bd
00000260: 3b2a b33f 2519 9240 5177 823e 69b0 a7be
00000270: 7235 8140 e02a 2ec0 fe9d 0dc0 51fc 3340
00000280: 8c27 3fbd 9ec2 2dbe d735 efbf 63a1 8d40
00000290: 1198 8a3f 0d24 e93f c1b6 6ac0 b9b9 92c0
000002a0: 240b c03f 88ca e8bf 3853 3bc0 f821 e03e
000002b0: b8a6 ce3f 5f01 7040 c124 4240 10d1 df3f
000002c0: 0685 edbf 8b93 5140 5f90 c8be 1f4c d6bf
000002d0: b7a8 47c0 c317 5440 9093 8e3f a9ca a6bf
000002e0: 7956 06be f2d1 4c3f 01a1 a3c0 83e7 1440
000002f0: 0fb7 26bf 44dd 94bf b0d1 0640 58fa 30c0
00000300: 34a3 85bf b1ac fe3e 8834 2dbf c144 953f
00000310: bc56 18c0 b605 e03e 3d71 df3f 3522 5540
00000320: 4ea4 6440 97db 0b40 2aa9 163e 2fbd 09c0
00000330: 59bd 8b3f 8082 f3c0 9939 5940 f594 fe3f
00000340: 2081 0240 781a b83f b3fa 30c0 e9c9 16c0
00000350: 14fd 6d40 8738 9ebf e635 de3a 578b 6e40
00000360: 4ea2 6fbf 3f32 18bf 1f51 053f fa74 5fc0
00000370: c6aa 38c0 322c 3640 5b35 91bf 4432 00c0
00000380: 9535 043f cb2d 8140 a93c 003e e1b3 9a40
00000390: 6a95 ad3e a489 abbf 1e79 00c0 1e07 933f
000003a0: 4668 8a3f 0f18 12c0 154f 8fbf 1d5f 0ac0
000003b0: d20e 4fc0 7cf4 eb3e dc6e 803f a7ad b8bf
000003c0: 4a55 eb3e f3bf 18c0 4529 f33f 4a9a 0abe
000003d0: d4ae 2ebf 18b0 9e3f 54fd 0d3d b62c e73d
000003e0: 4313 3cc0 3312 e13f 3456 26c0 10d4 2740
000003f0: 5dae 45bf 671a afbf 2dab ca3f 50fa b0bf

embedding.net_.linear_clamped_.bias f4 [500]
0.7996137 1.8390598 3.8058898 2.0238698 4.2993717 0.28812924 4.160488 3.9516149
4.019992 0.015860748 6.2646217 1.811828 0.07386365 4.2512827 3.1794136 4.7960153
0.391722 1.0232285 2.3161159 5.788342 3.939944 0.9489323 6.159843 5.8353157
5.473375 3.6018045 2.4494274 1.0944886 1.0606883 5.5823264 5.855624 4.3381047
0.24721172 4.779201 0.47431466 3.7227554 0.026716957 2.3283436 4.669348 1.8448969
0.27505818 3.934405 2.720233 4.387134 5.157949 4.189981 5.9885583 5.374411
2.881098 1.8263525 4.975167 5.6358056 4.516392 5.2606773 3.4883592 3.1284194
1.6890725 1.2429068 2.5272143 4.326906 3.1362133 3.9560864 5.734772 1.1040696
2.8900647 1.1361679 1.6115547 1.4515743 1.0715253 0.57250404 1.1871079 1.9883987
1.5084994 2.0752199 4.7230563 1.8623314 5.9276185 5.4710207 1.2444551 1.0505615
1.0516862 2.558644 4.23369 5.0294523 1.599857 1.4264123 4.8334723 1.4606534
4.1547837 5.5111814 1.6411344 4.1772203 2.9355686 0.47919148 5.4536033 1.1131821
1.8726101 2.5938807 1.7260797 5.6678925 4.6211815 1.4139614 3.8014224 4.26386
2.1269102 5.06911 4.72389 1.3895855 5.7439365 3.552694 0.3497993 2.9916947
4.555661 2.2587378 2.8267725 0.23188652 3.9889965 6.093745 2.7847779 1.4631312
1.5559232 4.106645 4.5324006 3.887972 3.306632 1.4037861 1.2804381 2.3559055
1.4180166 0.6945162 5.663503 4.724718 2.0598924 4.561276 2.750531 5.149986
1.2026788 1.0746461 0.058209255 0.59513026 2.715782 4.7002254 6.0974927 2.194519
2.5706017 3.2486022 2.6269815 2.9027135 0.50557137 1.3289022 2.5541813 6.024118
4.257042 0.9260121 0.19514325 6.109899 1.9097911 1.7290814 5.4596324 0.496466
2.0224662 1.2321472 4.7940145 0.34623775 5.9917245 0.19270821 3.382827 1.4557531
4.2927313 4.0718946 3.5405285 1.5482129 1.6974255 2.0096247 2.3107874 3.0917945
0.9342576 4.326143 4.9410458 4.6102033 5.826764 2.2216709 2.8337348 0.13216166
1.2365065 4.5563307 1.0161068 2.6916342 0.51043135 2.7486937 2.3970704 1.4413866
3.1267028 1.7553055 1.1462878 4.603932 4.4183555 0.6566427 5.7846437 3.4994256
2.943365 2.542509 1.1515132 0.9975366 2.0580308 3.9581952 1.631016 2.5581303
0.18292797 5.8648252 2.733575 1.299882 1.5215075 2.720389 2.2220914 1.3228585
2.380563 3.655754 1.6896214 3.0706046 5.5907073 1.8766435 1.4612625 3.2833567
5.375114 3.659631 0.5436528 3.9489865 1.0342966 3.022201 3.968769 1.406093
6.202477 3.4746895 0.99780434 3.947498 4.8083525 1.6591932 2.5697598 4.379028
2.9100509 1.700211 0.24806222 5.5167394 6.0130706 5.83734 0.048514765 3.8074663
0.5559763 1.3909053 3.527292 1.1502609 2.1791174 4.1260233 1.3867989 4.521686
00000000: 7cb3 4c3f 5066 eb3f b393 7340 1587 0140
00000010: 7494 8940 ad85 933e b822 8540 42e7 7c40
00000020: c6a3 8040 66ee 813c c877 c840 fbe9 e73f
00000030: d345 973d 820a 8840 837b 4b40 f578 9940
00000040: c98f c83e 27f9 823f 3e3b 1440 193a b940
00000050: 0b28 7c40 3aed 723f 6f1d c540 e8ba ba40
00000060: e325 af40 f783 6640 6bc3 1c40 3418 8c3f
00000070: a2c4 873f 6ba2 b240 4661 bb40 c1d1 8a40
00000080: 1225 7d3e 37ef 9840 5fd9 f23e a041 6e40
00000090: 85dd da3c 9503 1540 4c6b 9540 9525 ec3f
000000a0: 6dd4 8c3e 4bcd 7b40 4c18 2e40 6763 8c40
000000b0: eb0d a540 5314 8640 45a2 bf40 2dfb ab40
000000c0: e963 3840 ebc5 e93f 9134 9f40 8558 b440
000000d0: 4986 9040 7857 a840 4741 5f40 0638 4840
000000e0: 8733 d83f 9217 9f3f e1bd 2140 0476 8a40
000000f0: b8b7 4840 8530 7d40 4183 b740 2752 8d3f
00000100: d2f6 3840 f36d 913f 6d47 ce3f 30cd b93f
00000110: be27 893f a08f 123f 27f3 973f d983 fe3f
00000120: 8216 c13f 67d0 0440 4723 9740 e060 ee3f
00000130: 0daf bd40 9a12 af40 4e4a 9f3f cd78 863f
00000140: a79d 863f d3c0 2340 637a 8740 46f1 a040
00000150: 1dc8 cc3f ae94 b63f ceab 9a40 b1f6 ba3f
00000160: fdf3 8440 995b b040 b110 d23f caab 8540
00000170: 5be0 3b40 9658 f53e eb83 ae40 c07c 8e3f
00000180: b0b1 ef3f 2402 2640 2ef0 dc3f 605f b540
00000190: b8e0 9340 b0fc b43f 814a 7340 8b71 8840
000001a0: 4c1f 0840 2636 a240 1b2a 9740 f0dd b13f
000001b0: 54ce b740 575f 6340 e518 b33e ed77 3f40
000001c0: fac7 9140 298f 1040 d7e9 3440 a973 6d3e
000001d0: b84b 7f40 f6ff c240 cd39 3240 e247 bb3f
000001e0: 7e28 c73f a369 8340 6d09 9140 89d4 7840
000001f0: dc9f 5340 43af b33f 65e5 a33f 28c7 1640
00000200: 9181 b53f d0cb 313f 6b3b b540 e430 9740
00000210: 47d5 0340 f9f5 9140 b308 3040 afcc a440
00000220: 61f1 993f 018e 893f d46c 6e3d 755a 183f
00000230: 5fcf 2d40 3f68 9640 a91e c340 0073 0c40
00000240: bd84 2440 19e9 4f40 7720 2840 0fc6 3940
00000250: 206d 013f 7819 aa3f b577 2340 93c5 c040
00000260: b039 8840 210f 6d3f a2d3 473e 4b84 c340
00000270: 0974 f43f 8a52 dd3f 4fb5 ae40 cb30 fe3e
00000280: 1670 0140 00b7 9d3f 9168 9940 1346 b13e
00000290: 35bc bf40 4d55 453e 3d80 5840 1e56 ba3f
000002a0: 0e5e 8940 f64c 8240 0598 6240 d72b c63f
000002b0: 3d45 d93f b19d 0040 f1e3 1340 f6df 4540
000002c0: 822b 6f3f c36f 8a40 0c1d 9e40 c986 9340
000002d0: da74 ba40 db2f 0e40 e95b 3540 6355 073e
000002e0: d845 9e3f 76cd 9140 ca0f 823f bc43 2c40
000002f0: a1ab 023f 99ea 2f40 9a69 1940 5b7f b83f
00000300: e61b 4840 daad e03f 8fb9 923f 6953 9340
00000310: 2b63 8d40 bc19 283f cd1b b940 97f6 5f40
00000320: 1860 3c40 78b8 2240 c964 933f 8f5e 7f3f
00000330: c7b6 0340 1253 7d40 22c5 d03f 68b8 2340
00000340: 7851 3b3e a6ac bb40 e5f2 2e40 8962 a63f
00000350: c2c0 c23f da1a 2e40 bf36 0e40 6d53 a93f
00000360: 255b 1840 e0f7 6940 8445 d83f c984 4440
00000370: 13e7 b240 db35 f03f a60a bb3f 8422 5240
00000380: ef00 ac40 6537 6a40 d42c 0b3f 32bc 7c40
00000390: d563 843f be6b 4140 5000 7e40 dbfa b33f
000003a0: b17a c640 5061 5e40 1b70 7f3f cfa3 7c40
000003b0: 06de 9940 7160 d43f f276 2440 ff20 8c40
000003c0: 463e 3a40 84a0 d93f 0604 7e3e 2189 b040
000003d0: 136b c040 7dcb ba40 6bb7 463d 87ad 7340
000003e0: 7654 0e3f 2f09 b23f 27bf 6140 c03b 933f
000003f0: a976 0b40 6208 8440 a082 b13f a7b1 9040

embedding.net_.prediction_.weight f4 [1, 500]
1.588997 -2.1898043 4.595329 -7.6150613 6.175067 -1.2115456 -1.047221 10.569645
4.9469905 0.021574665 0.93350345 -0.40828907 -3.573339 -7.872488 -0.8896214 0.21638668
-1.2800342 -2.101802 4.7060084 9.978478 2.0997767 -1.3659853 -1.1526885 0.7370813
0.6148551 0.29428944 0.7627854 -6.4183836 -5.6293764 -3.6702013 12.566525 2.0387273
-4.272102 4.2937202 0.46605045 -0.4363439 -3.9770398 1.1883891 -0.6998701 2.2910824
5.1434703 2.2117705 1.8613825 1.4511347 -0.0017031971 -3.6238701 4.4132385 7.39467
4.884064 -4.3521476 0.49871683 -1.2771266 -0.24225974 -1.262476 -0.25075907 -1.496655
-0.8311265 -8.074604 0.20861419 0.6830472 1.8316925 -0.1514802 4.0903044 -3.0971725
-8.847353 -0.8954002 0.17437327 2.790985 2.029848 0.6209885 -2.0799737 -1.4962658
-1.3096517 -0.79056823 1.3506869 -3.2396677 -0.2347688 4.31699 -8.992514 -1.910866
-0.4070287 -0.7681786 0.353553 -1.3983805 1.413437 -3.5326767 -1.0437055 -0.09700256
2.0337505 1.9363983 1.5421512 3.9931445 2.2104352 9.733477 -0.3911394 3.5802302
4.1352797 5.5679154 -0.02443977 -1.2052187 -0.03318298 -2.757273 8.303972 0.74490905
0.35280874 -1.4274293 0.5548287 1.3219322 -3.5923278 -1.5169021 -1.4675614 -1.8568739
-2.2135708 0.31438625 0.6798648 -3.945501 0.5628739 1.7257758 -0.78184885 -2.522736
-1.1208106 3.3796453 -2.9075341 -0.29102197 0.45126384 -0.85289234 0.84809 2.186549
-1.756007 0.23026778 -1.6494826 0.21841241 5.590664 -1.862406 6.064015 -1.2568942
1.3891993 -4.467198 -1.1654438 1.1668054 1.2483032 -0.23571108 -4.8864284 -0.9857313
0.83961844 4.0698867 3.4548333 3.5304117 4.9709706 0.8207234 -2.1721518 1.5352204
-1.3632118 0.821514 -1.6255677 -2.0702538 -1.334696 2.0722716 -4.6784635 -1.8078401
-0.9540659 9.227002 0.30839705 -0.9820544 -4.8605323 -4.913803 -0.52822715 9.21727
2.634762 0.22417367 1.7623811 3.242808 2.1312532 1.5229858 -1.0973951 3.1353302
10.99008 0.61503494 0.9512144 -4.244581 -1.6846296 1.7576538 3.2556698 -0.07213218
-1.0704885 1.2544473 0.67949355 1.5044627 0.37148684 0.1498873 2.0646026 1.9475089
4.501546 -0.9589144 2.0068917 2.9318178 1.0744977 -1.9337579 -2.5931532 -7.79147
-0.073227115 3.7742014 -2.181334 -1.558063 1.1535767 -1.8067138 3.224093 -2.6666746
-6.386963 -1.3637772 3.9059725 -3.4421928 -0.7139402 -5.186169 -2.4014437 -1.701801
-3.8304458 3.6066213 2.1094048 -0.5614494 -4.9588866 -8.597338 1.3415883 3.5706542
-3.7755222 -6.590757 -1.7560018 2.3003483 -0.7781818 0.4218696 1.937033 -2.1036305
2.6859078 -2.0625095 0.95394814 0.74065846 -0.16751222 2.1103485 -4.9388747 -0.98918426
2.774718 2.728889 -1.0227554 -4.8346643 -1.6848544 1.478786 0.13035671 0.26519653
-0.83599436 -1.3746133 1.7149352 -3.529544 1.9377149 1.5086137 0.12769349 0.53617454
00000000: 4164 cb3f c125 0cc0 ef0c 9340 95ae f3c0
00000010: 269a c540 ed13 9bbf 560b 86bf 441d 2941
00000020: bf4d 9e40 5abd b03c 15fa 6e3f 440b d1be
00000030: 96b1 64c0 6ceb fbc0 3abe 63bf 7894 5d3e
00000040: 29d8 a3bf ed83 06c0 9f97 9640 d9a7 1f41
00000050: be62 0640 9bd8 aebf 4c8b 93bf 5cb1 3c3f
00000060: 2567 1d3f 1bad 963e e745 433f 6663 cdc0
00000070: da23 b4c0 94e4 6ac0 7d10 4941 827a 0240
00000080: 0fb5 88c0 2866 8940 2a9e ee3e 7868 dfbe
00000090: d287 7ec0 221d 983f b02a 33bf 18a1 1240
000000a0: 4f97 a440 a68d 0d40 c841 ee3f c8be b93f
000000b0: d03d dfba 7ded 67c0 4039 8d40 23a1 ec40
000000c0: 414a 9c40 cb44 8bc0 d057 ff3e e278 a3bf
000000d0: f012 78be d098 a1bf 7e63 80be 6492 bfbf
000000e0: b5c4 54bf 9431 01c1 f59e 553e 2edc 2e3f
000000f0: e674 ea3f a01d 1bbe c6e3 8240 1338 46c0
00000100: c28e 0dc1 f338 65bf e88e 323e 809f 3240
00000110: 08e9 0140 1af9 1e3f 4a1e 05c0 a385 bfbf
00000120: aba2 a7bf ae62 4abf 4fe3 ac3f b756 4fc0
00000130: 3b67 70be c824 8a40 56e1 0fc1 4297 f4bf
00000140: 1166 d0be 5aa7 44bf e604 b53e 22fe b2bf
00000150: 81eb b43f 6017 62c0 2498 85bf 47a9 c6bd
00000160: f828 0240 e6db f73f 3665 c53f ae8f 7f40
00000170: c577 0d40 52bc 1b41 6c43 c8be 7e22 6540
00000180: 3654 8440 5d2c b240 ea35 c8bc 9b44 9abf
00000190: e0ea 07bd 2977 30c0 12dd 0441 5cb2 3e3f
000001a0: 59a3 b43e 01b6 b6bf 4109 0e3f 1335 a93f
000001b0: b3e8 65c0 d929 c2bf 0dd9 bbbf 0bae edbf
000001c0: 25ab 0dc0 3cf7 a03e 9f0b 2e3f 1783 7cc0
000001d0: 8118 103f 39e6 dc3f 3f27 48bf 8274 21c0
000001e0: b976 8fbf 1c4c 5840 0a15 3ac0 d500 95be
000001f0: 0e0c e73e 2757 5abf 6d1c 593f 6bf0 0b40
00000200: d6c4 e0bf 51cb 6b3e 3f22 d3bf 81a7 5f3e
00000210: b8e6 b240 5263 eebf 690c c240 e9e1 a0bf
00000220: 48d1 b13f 49f3 8ec0 432d 95bf e159 953f
00000230: 66c8 9f3f 3f5e 71be 9f5d 9cc0 e358 7cbf
00000240: 3cf1 563f 833c 8240 fd1b 5d40 44f2 6140
00000250: 3112 9f40 ee1a 523f 8904 0bc0 1a82 c43f
00000260: b97d aebf be4e 523f 9a12 d0bf 0a7f 04c0
00000270: 52d7 aabf 19a0 0440 f9b5 95c0 4e67 e7bf
00000280: aa3d 74bf cda1 1341 38e6 9d3e eb67 7bbf
00000290: 7b89 9bc0 e03d 9dc0 e539 07bf f079 1341
000002a0: f19f 2840 c88d 653e b495 e13f 2b8a 4f40
000002b0: 7466 0840 33f1 c23f 7177 8cbf 40a9 4840
000002c0: 5ed7 2f41 ee72 1d3f c982 733f 9cd3 87c0
000002d0: f1a1 d7bf cdfa e03f e55c 5040 09ba 93bd
000002e0: c405 89bf bb91 a03f 4af3 2d3f 3c92 c03f
000002f0: 8633 be3e 0e7c 193e 7322 0440 f947 f93f
00000300: aa0c 9040 6a7b 75bf ea70 0040 e7a2 3b40
00000310: 2489 893f 6185 f7bf 39f6 25c0 b953 f9c0
00000320: 19f8 95bd 848c 7140 fa9a 0bc0 9c6e c7bf
00000330: 67a8 933f 6642 e7bf 8a57 4e40 ccaa 2ac0
00000340: 0062 ccc0 4090 aebf 74fb 7940 e34c 5cc0
00000350: c9c4 36bf 19f5 a5c0 41b1 19c0 9dd4 d9bf
00000360: 0626 75c0 e2d2 6640 7d00 0740 26bb 0fbf
00000370: 33af 9ec0 b28e 09c1 2ab9 ab3f 9985 6440
00000380: 28a2 71c0 7be7 d2c0 abc4 e0bf e838 1340
00000390: ec36 47bf 4bff d73e b3f0 f73f e2a1 06c0
000003a0: eae5 2b40 2800 04c0 f235 743f cb9b 3d3f
000003b0: 5388 2bbe f30f 0740 430b 9ec0 2e3b 7dbf
000003c0: fb94 3140 1ea6 2e40 a6e9 82bf 92b5 9ac0
000003d0: 4fa9 d7bf dc48 bd3f 3b7c 053e d7c7 873e
000003e0: ba03 56bf 54f3 afbf ff82 db3f 0de4 61c0
000003f0: 0b07 f83f 411a c13f 15c2 023e bc42 093f
