models/Angle.pt (torch, 17759 bytes, 4 tensors)

stiffness.diagonal_ f4 [2]
0	0x40902683	4.504701
1	0x3f2751b9	0.65359074

embedding.net_.linear_clamped_.weight f4 [1000, 2]
0	0x3f566fe6	0.83764493
1	0x409e7edc	4.952986
2	0x3fe43582	1.7828829
3	0x40a0a0c9	5.019627
4	0xbd3d4c49	-0.04621533
5	0xc091c6ef	-4.555534
6	0xbfcdbbef	-1.6072978
7	0xc009ea98	-2.1549435
8	0xbf846842	-1.0344317
9	0xc04a7544	-3.1634073
10	0xbfe017a6	-1.7507217
11	0xbfa9ba44	-1.3259969
12	0xc0c6d222	-6.213151
13	0x3f093628	0.5359826
14	0xc07874c7	-3.8821275
15	0x40ac6116	5.3868513
16	0xc0c45faf	-6.13668
17	0x3f777eed	0.9667805
18	0x40917308	4.545292
19	0xc0934d71	-4.6032033
20	0x3fe849be	1.8147504
21	0xc015fd83	-2.3435981
22	0xbf40fae6	-0.7538284
23	0xbf60196f	-0.8753881
24	0xc0865109	-4.197392
25	0x3f36f35f	0.71465105
26	0x40be3a5a	5.944623
27	0xbf82280d	-1.0168473
28	0xc010f47f	-2.2649229
29	0x3fa067c4	1.2531667
30	0x40ddb021	6.92775
31	0x3fe3c845	1.7795492
32	0xc0875987	-4.2296786
33	0x3f1332cb	0.5749938
34	0xbf865902	-1.0495913
35	0xbdcc9aaa	-0.09990437
36	0x3ffa81e5	1.9570891
37	0xbf362ef3	-0.7116539
38	0x40dd9dd9	6.9255185
39	0xbf0805a2	-0.53133595
40	0xc0aa80c0	-5.3282166
41	0xc07a434c	-3.9103575
42	0xbfffb7e6	-1.9977996
43	0xbf281302	-0.65654004
44	0xbe4d7db7	-0.20067488
45	0xc117292d	-9.447553
46	0xc05f2f6a	-3.487269
47	0x40c2fd68	6.0934334
48	0x3fa4feee	1.2890298
49	0xbfc019b0	-1.5007839
50	0xbefa6be4	-0.4891044
51	0xbe990dac	-0.29893243
52	0xc07d2195	-3.9551747
53	0xc0370dac	-2.8602095
54	0xc00ecad3	-2.2311294
55	0xc008de67	-2.1385744
56	0xc0ce3207	-6.443607
57	0xc044dd8b	-3.076022
58	0xbf6ff6b5	-0.9373582
59	0xbf697745	-0.91197616
60	0x3fd6e116	1.6787441
61	0x408828e1	4.25499
62	0x403472c9	2.819506
63	0x3fe68af7	1.8011159
64	0xbfbfc8fd	-1.4983212
65	0xc0261747	-2.5951707
66	0xbee0a2d7	-0.43874237
67	0xc0cbb7ac	-6.366171
68	0x3f4e20c8	0.8051877
69	0x404e7fc5	3.2265484
70	0x4037361f	2.8626783
71	0x3eccecf6	0.40024537
72	0x4022dabb	2.5446002
73	0xbfe4b0c5	-1.7866446
74	0x3fa31969	1.274213
75	0xbfab231a	-1.3370087
76	0xbec11daa	-0.37717944
77	0xc0c82c3e	-6.2554007
78	0xbfc82be7	-1.5638398
79	0x40a29669	5.0808606
80	0x3fa3f0ef	1.2807902
81	0x40265d80	2.5994568
82	0xbf535128	-0.8254571
83	0xc08f995a	-4.4874697
84	0xc0caec68	-6.341358
85	0x40353765	2.831506
86	0x408191b9	4.0490384
87	0xbfd9fc47	-1.7030114
88	0xbf3700c2	-0.7148553
89	0xbf130b4e	-0.57439125
90	0x4040aec3	3.0106666
91	0xbf934f14	-1.1508508
92	0xbf99dc2e	-1.2020319
93	0xbf187ab2	-0.5956222
94	0xc0a65644	-5.1980305
95	0x3e735530	0.23762965
96	0xc08b7427	-4.3579288
97	0x40222085	2.5332348
98	0x4071b2e8	3.7765446
99	0x3ff60b8b	1.9222273
100	0x400e4bf3	2.2233856
101	0xbfd996e2	-1.6999171
102	0xbf0529c1	-0.52016836
103	0xc011eafa	-2.2799668
104	0x40272d22	2.6121297
105	0x40432ebd	3.0497277
106	0xc039e7af	-2.9047658
107	0x40907424	4.5141773
108	0x3e35ccbf	0.17753886
109	0x406f64ce	3.7405276
110	0xbfab068d	-1.3361374
111	0x3f259570	0.6468115
112	0xc09010ef	-4.502067
113	0xc098dcbd	-4.7769456
114	0x3ff8ef49	1.9448024
115	0xc0787df3	-3.8826873
116	0x403cfc85	2.9529126
117	0x40a78dc1	5.236054
118	0x3f2652d6	0.6497015
119	0x40717846	3.772966
120	0x3f4f1918	0.80897665
121	0x4031e73d	2.7797387
122	0x4041949d	3.0246956
123	0x3eebc89e	0.46051496
124	0x401bd50c	2.4348783
125	0xc058e317	-3.3888605
126	0xc0b8da27	-5.77663
127	0xc0ec5e99	-7.3865476
128	0xbd5e083d	-0.054207075
129	0x40c4415a	6.1329775
130	0x3fd3848c	1.6524825
131	0x40e38940	7.110504
132	0x40a0bfb0	5.0233994
133	0x3e590806	0.21194467
134	0xbf4bb289	-0.795693
135	0x3e7b10e7	0.24518166
136	0xbfae6fa6	-1.3627822
137	0xbfdbbc38	-1.7166815
138	0x3fbf3f9c	1.4941287
139	0x40b8c32c	5.7738247
140	0x3ecf3f51	0.40477994
141	0xbe9b7c3e	-0.30368227
142	0x3fb33122	1.3999369
143	0x3fb0dcc9	1.3817378
144	0x3ffca630	1.9738216
145	0x4035956f	2.8372457
146	0x4086da2f	4.2141337
147	0xbec5ca1a	-0.38630754
148	0xbf5a1536	-0.85188615
149	0x406dabfa	3.7136216
150	0xc0a48f5c	-5.1425
151	0xbfd7fdc3	-1.6874317
152	0x40f7ffc2	7.7499704
153	0xbf8a2695	-1.0793024
154	0xbf9ad772	-1.2096999
155	0x405b6b4d	3.4284241
156	0x3ebd09e2	0.36921602
157	0x3fe699e8	1.8015718
158	0xc07bd272	-3.9347196
159	0xc0a939b3	-5.2882934
160	0x3f6c811e	0.9238452
161	0xbd18caac	-0.037302658
162	0xc0354a11	-2.8326457
163	0xbf322dcf	-0.6960115
164	0xbfc05211	-1.5025045
165	0x405f5e1a	3.4901185
166	0x3e50ed03	0.20402913
167	0x3fb2a8cd	1.3957764
168	0x3e48939e	0.19587561
169	0x3e30bec2	0.17260268
170	0xc012bd56	-2.2928061
171	0xc005c9de	-2.090446
172	0x4020e629	2.5140479
173	0x401b2e8b	2.4247158
174	0xc0744d0c	-3.8172026
175	0x3e626035	0.22107013
176	0x4032bf68	2.7929325
177	0x40281a0d	2.62659
178	0xc0a90a8e	-5.2825384
179	0x402e5e30	2.7244987
180	0xbe8b16af	-0.27165744
181	0x3e2b2c4d	0.16716118
182	0xc0d0d759	-6.5262876
183	0x3ee48b7b	0.44637665
184	0xc0578715	-3.3676198
185	0xc00666ee	-2.1000323
186	0xbf85d136	-1.0454471
187	0x3f5b953a	0.85774577
188	0xbf7f733c	-0.9978521
189	0x3f5b5a13	0.8568432
190	0x3f9ff935	1.2497927
191	0xbddcb384	-0.107764274
192	0x4089a486	4.3013334
193	0x3e563233	0.20917587
194	0xc06629f9	-3.5963118
195	0xbde2f8d4	-0.110826164
196	0xc0098fde	-2.149406
197	0xbda33339	-0.07968754
198	0xbfaa1bd8	-1.3289747
199	0xc0163bbd	-2.3473961
200	0x3fb136a3	1.3844799
201	0x409b6eb1	4.857262
202	0x406b8c8d	3.6804535
203	0x40ae21f1	5.441643
204	0x40b48431	5.6411366
205	0xc07fb775	-3.9955723
206	0xc064faa0	-3.577797
207	0xc0538a97	-3.3053339
208	0xc06ea726	-3.728952
209	0xbebf6795	-0.37383714
210	0xc0f8ca0f	-7.7746654
211	0xc009b3c1	-2.1515963
212	0x40ad8b1f	5.4232326
213	0xc0371c39	-2.8610976
214	0x40788fa5	3.8837674
215	0x3f7db9b4	0.99111485
216	0x4000313f	2.0030057
217	0x4087fefa	4.249875
218	0xc055cf67	-3.3407838
219	0xbfd0b796	-1.6306026
220	0x40a06f9b	5.0136237
221	0x3e284062	0.1643081
222	0xc0b11c01	-5.5346684
223	0xbf36228c	-0.71146464
224	0x3f156f78	0.5837321
225	0xbfb8d21a	-1.4439118
226	0x4068a580	3.6351013
227	0x3e6a1613	0.22859983
228	0x407a6b1c	3.9127874
229	0xc082b619	-4.0847287
230	0xbfa3e1e1	-1.2803308
231	0xc0c47f13	-6.140512
232	0x40490adb	3.1412876
233	0xc064eee1	-3.57708
234	0x40a2e7c1	5.0907903
235	0xc08beb32	-4.3724604
236	0x3fef6db9	1.870536
237	0x40232a51	2.5494578
238	0x3f817db1	1.0116483
239	0x3fae2293	1.3604301
240	0xc04ba298	-3.181799
241	0xc0bf58ba	-5.979581
242	0x40270a4f	2.6100042
243	0xc062d6ad	-3.5443528
244	0xc0104ec2	-2.254807
245	0x402b203c	2.6738424
246	0x405abc84	3.417756
247	0xc04a21f0	-3.1583214
248	0xc0621e9b	-3.533118
249	0x40569c80	3.353302
250	0x4014bf0b	2.3241603
251	0xbf521e83	-0.8207781
252	0xbf8bd7d4	-1.092524
253	0xbecd6d27	-0.4012234
254	0xbec95f6c	-0.39330614
255	0xbf2ea6e6	-0.68223417

embedding.net_.linear_clamped_.bias f4 [1000]
0	0x3e75ddb6	0.24010357
1	0x404f4267	3.2384279
2	0x400ca105	2.1973279
3	0x40a0e014	5.0273533
4	0x3f4881a6	0.7832283
5	0x40911e1d	4.534926
6	0x3f1593e4	0.5842879
7	0x3f877879	1.058364
8	0x4003392d	2.0503647
9	0x402e9de5	2.728387
10	0x4089b7a6	4.303668
11	0x4035eed0	2.842701
12	0x40251826	2.579599
13	0x3e12cff4	0.1433714
14	0x3d7e698a	0.06211237
15	0x4058fca3	3.3904197
16	0x408d9067	4.4238772
17	0x40ad5b10	5.417366
18	0x407e14ef	3.9700277
19	0x3e1b428c	0.15162104
20	0x3b4e17e9	0.0031447357
21	0x40924234	4.5705814
22	0x403ecdd9	2.981314
23	0x4081c374	4.055109
24	0x3fd99274	1.6997819
25	0x40bbee28	5.872822
26	0x40475eb5	3.1151555
27	0x40a7ad30	5.239891
28	0x40a78f53	5.2362456
29	0x3e3d9ee9	0.1851765
30	0x4087934a	4.2367296
31	0x40579fed	3.369136
32	0x3ef1d8d7	0.47235748
33	0x40388fdb	2.8837802
34	0x40bcdcc6	5.90195
35	0x4013fc00	2.3122559
36	0x3f43091d	0.7618578
37	0x40b366c0	5.6062927
38	0x3eb40d66	0.35166472
39	0x40306013	2.755864
40	0x40afebb5	5.497523
41	0x3f89b9a7	1.0759782
42	0x40942bb5	4.6303353
43	0x40b8c85e	5.774459
44	0x3f62848d	0.88483506
45	0x402eaa9a	2.7291627
46	0x40996aff	4.794311
47	0x401bff0e	2.4374423
48	0x3dda1a8c	0.10649595
49	0x4078676a	3.881312
50	0x40bd7746	5.9208097
51	0x408998a8	4.299885
52	0x3f837f36	1.0273197
53	0x4060c684	3.5121164
54	0x40a8d81f	5.276382
55	0x405135b7	3.2689035
56	0x3e1d189c	0.15341419
57	0x4031aa7f	2.7760313
58	0x4048a654	3.1351519
59	0x3f7c5cd8	0.9857917
60	0x406fac8d	3.7449067
61	0x406f1ade	3.7360148
62	0x401fd442	2.4973302
63	0x3ffe5d18	1.987216
64	0x400e66a5	2.225015
65	0x3fc22e16	1.5170314
66	0x407fa3b7	3.9943674
67	0x3f922071	1.141615
68	0x40b4b1df	5.646713
69	0x3e9ad20a	0.30238372
70	0x3e750bb7	0.2393025
71	0x3ed5a4b9	0.41727236
72	0x408c41dd	4.38304
73	0x40a892e9	5.2679334
74	0x40b63270	5.693657
75	0x3fb8465a	1.439647
76	0x3d9db36e	0.07700239
77	0x409829e5	4.755114
78	0x40ae4384	5.4457417
79	0x40b74808	5.727543
80	0x3fe5a360	1.7940483
81	0x409b49a6	4.8527403
82	0x4095461a	4.6648073
83	0x40c14787	6.0399814
84	0x409b6ff6	4.857417
85	0x40a24dbe	5.07199
86	0x409be8d6	4.8721724
87	0x406caed0	3.6981697
88	0x40a8677e	5.2626333
89	0x409cebbb	4.9037757
90	0x40207832	2.5073361
91	0x4037c1de	2.8712077
92	0x3fa29a31	1.2703305
93	0x404d37fa	3.2065415
94	0x3ef6e284	0.48219693
95	0x40b99e5d	5.8005815
96	0x40c8ebfd	6.278807
97	0x3e6cce55	0.23125584
98	0x3ef31ec8	0.47484422
99	0x3f692548	0.9107251
100	0x408a055a	4.3131533
101	0x40131a59	2.2984831
102	0x402ff835	2.7495244
103	0x4011f629	2.2806494
104	0x40a52db3	5.1618285
105	0x3fbe932e	1.4888666
106	0x3ffa08a0	1.9533882
107	0x4094325e	4.6311483
108	0x3f917022	1.1362345
109	0x40b29146	5.5802336
110	0x409d0dd5	4.9079385
111	0x4028655a	2.631186
112	0x401732b3	2.3624694
113	0x40973052	4.7246485
114	0x40c88d6d	6.267264
115	0x40c2fe32	6.0935297
116	0x4034acea	2.8230538
117	0x3f08241e	0.5318011
118	0x40951dad	4.6598725
119	0x3f926ef2	1.1440108
120	0x4030c624	2.7620935
121	0x40b18904	5.5479755
122	0x3ec4a508	0.3840716
123	0x40503324	3.2531214
124	0x3e95f8ea	0.2929147
125	0x4093a9c7	4.614475
126	0x4087c3c3	4.2426467
127	0x40594fdd	3.3954995
128	0x40335b30	2.8024406
129	0x3f0e4b2f	0.5558347
130	0x3fb8d479	1.4439842
131	0x4013666b	2.303126
132	0x3f21bec2	0.631817
133	0x3f144b1b	0.579271
134	0x4031354c	2.768878
135	0x40c8dd23	6.276994
136	0x40aa4059	5.320355
137	0x3f8919ae	1.0710962
138	0x405c1b76	3.439176
139	0x4099547c	4.791563
140	0x408f6dfd	4.4821763
141	0x406c2efc	3.6903677
142	0x404ab737	3.1674325
143	0x40910c40	4.5327454
144	0x3ee4b9be	0.4467296
145	0x3f0200f4	0.50782704
146	0x3fc3d357	1.5298871
147	0x3ebf7fac	0.37402093
148	0x401f3b26	2.4879851
149	0x3fbe3258	1.4859114
150	0x3fd3d7fa	1.6550286
151	0x400758fb	2.114806
152	0x40710149	3.7657034
153	0x3c6668f9	0.014063113
154	0x4020d71f	2.51313
155	0x409718c1	4.7217717
156	0x3fde29c3	1.7356495
157	0x3fb2bf43	1.3964618
158	0x402db429	2.714121
159	0x401b2183	2.4239204
160	0x3fbb9dcd	1.4657532
161	0x3ce2ceeb	0.027686557
162	0x3ffd32d7	1.978114
163	0x40029731	2.040478
164	0x40841dde	4.128646
165	0x3ece35f3	0.40275535
166	0x40a8f928	5.2804146
167	0x40b63afd	5.6947007
168	0x40490bf7	3.1413553
169	0x40989096	4.7676497
170	0x40c13e50	6.0388565
171	0x407ad3c8	3.919176
172	0x4051a805	3.27588
173	0x3dbb20c6	0.091371104
174	0x4046c820	3.1059647
175	0x4095c2f8	4.68005
176	0x409352f0	4.603874
177	0x4084f799	4.1552243
178	0x3e90a1bb	0.2824839
179	0x40a38db6	5.1110487
180	0x3fcf2724	1.618382
181	0x403b9f20	2.9315872
182	0x4007cc31	2.1218379
183	0x4066de5e	3.6073222
184	0x3f97c199	1.1855956
185	0x409740b0	4.7266464
186	0x40bf2f64	5.974535
187	0x409dda79	4.932919
188	0x409ca182	4.8947153
189	0x3fa3e7c3	1.2805103
190	0x3f55a77f	0.83458704
191	0x3dc4ee1f	0.096157305
192	0x3efcabf9	0.49349955
193	0x40ad1119	5.408337
194	0x3fbb081e	1.4611852
195	0x3e670850	0.22561765
196	0x40921b84	4.565859
197	0x40abc1df	5.367416
198	0x402d1dab	2.7049358
199	0x406b22e3	3.6740043
200	0x3f80e5c2	1.0070117
201	0x40074e0c	2.1141386
202	0x3facbe50	1.3495579
203	0x3dc13f72	0.09435929
204	0x40c1c628	6.055439
205	0x3faf5af8	1.3699636
206	0x40653e4a	3.5819268
207	0x402d11f2	2.7042203
208	0x406d392e	3.706615
209	0x409f4e74	4.978327
210	0x3fdbded0	1.7177372
211	0x4025bdf1	2.589718
212	0x4039eba1	2.9050066
213	0x40289611	2.6341593
214	0x40c61ec6	6.1912565
215	0x400fb7d8	2.245596
216	0x3f02d8c4	0.5111201
217	0x403990b3	2.8994567
218	0x408b08c8	4.344822
219	0x40c5b17b	6.177915
220	0x40afd948	5.4952736
221	0x4052fd08	3.2966938
222	0x409fb48a	4.9907885
223	0x4043e61e	3.0609202
224	0x408792f0	4.2366867
225	0x404b9963	3.181237
226	0x401a76d4	2.4135027
227	0x3fc6bb07	1.5525826
228	0x4084127e	4.1272573
229	0x40b2816d	5.578299
230	0x4078abe7	3.885492
231	0x408ceaa3	4.403642
232	0x405d8ddb	3.4617832
233	0x400e0a59	2.2193816
234	0x3f15fcb2	0.5858871
235	0x408a8c88	4.3296547
236	0x40c02d80	6.005554
237	0x406f27de	3.7368083
238	0x3fa0db46	1.2566917
239	0x3fd02617	1.6261624
240	0x40a1b7ff	5.0537105
241	0x40b26ee3	5.576036
242	0x4005c242	2.0899816
243	0x3f9119d0	1.1336002
244	0x408bdacf	4.37046
245	0x40c1ff5c	6.062422
246	0x3ea849be	0.3286876
247	0x3fd018f5	1.6257616
248	0x3d1e5be6	0.03866186
249	0x40a42e47	5.130649
250	0x3fdffbbd	1.74987
251	0x406f1cb8	3.7361279
252	0x3e3ec61f	0.18630265
253	0x3da96ba7	0.08272486
254	0x408c8441	4.3911443
255	0x3fa4a2a4	1.2862134

embedding.net_.prediction_.weight f4 [1, 1000]
0	0x3f3471ac	0.7048595
1	0x3e6bfe8f	0.23046325
2	0xc054d8dd	-3.3257363
3	0xbe4fa787	-0.2027875
4	0xbf937697	-1.1520566
5	0x3f82e248	1.0225306
6	0x3fe08629	1.7540942
7	0xc0461429	-3.0949805
8	0x402d870f	2.7113683
9	0x3fad51b1	1.3540555
10	0x3e81171c	0.25212944
11	0x3f926c91	1.1439382
12	0x3fe1a514	1.7628503
13	0xbea3df4e	-0.32006305
14	0x3c4e629d	0.012596753
15	0xc0523826	-3.284677
16	0x3d8c71e0	0.068576574
17	0x3fe271dd	1.7690998
18	0xbecc6c32	-0.39926296
19	0xbeddbe88	-0.43309426
20	0x4042ea25	3.045541
21	0x3fba81a4	1.4570813
22	0xc0613fe3	-3.5195243
23	0x3f97ee71	1.1869642
24	0xbdbd2009	-0.09234626
25	0x3ec810fd	0.3907546
26	0xbfebf86e	-1.843519
27	0xbfbc6cde	-1.4720724
28	0x401fb518	2.495428
29	0xbfad174a	-1.3522732
30	0xbfa6898e	-1.3010728
31	0x3f3af454	0.73029065
32	0xbf952911	-1.1653157
33	0xc08f925e	-4.486617
34	0xbfc9f471	-1.5777723
35	0x3fd3f60a	1.655946
36	0xbff21eff	-1.8915709
37	0xbe34e2b1	-0.17664601
38	0xbe16a174	-0.14710027
39	0xc001e380	-2.0295105
40	0xbf89eeb1	-1.0775968
41	0xbff1ee4c	-1.8900847
42	0xc0063288	-2.0968342
43	0x3f4a60c0	0.7905388
44	0xbfd827b1	-1.6887113
45	0xbe97d189	-0.2965205
46	0x3fa37f78	1.2773275
47	0x3f9e18f2	1.2351363
48	0x3f8e982c	1.1140189
49	0x3e14a1dd	0.14514871
50	0xbe8b5040	-0.27209663
51	0x3fbc760f	1.4723529
52	0xbec61766	-0.38689727
53	0x3ed68e34	0.41905367
54	0xbf5099a3	-0.8148443
55	0x3e5b899e	0.21439216
56	0x4022d9d2	2.5445447
57	0x3ef56188	0.47925973
58	0xbe07958a	-0.13240638
59	0x3e98d5c8	0.29850602
60	0x3f3488fc	0.7052152
61	0x3f053cb2	0.5204574
62	0x3fe25e92	1.768511
63	0x3f2d8025	0.6777366
64	0x3f510e81	0.81662756
65	0x403d267a	2.9554734
66	0x3fe1c1d9	1.7637283
67	0xbf8dc15f	-1.1074637
68	0xbfbb6da5	-1.4642836
69	0x3f9ce522	1.2257426
70	0xbecf5c1e	-0.40499967
71	0xbf858344	-1.0430684
72	0x3ec94f5e	0.39318365
73	0xbe8cba6a	-0.27485973
74	0x3f57cda8	0.8429818
75	0x3f995177	1.1977986
76	0x3f7a12e4	0.97685075
77	0x3fdad9e8	1.709775
78	0xbfd944aa	-1.697408
79	0x3f6fe61b	0.9371049
80	0x40106959	2.25643
81	0x3cda7d7b	0.026671162
82	0x40038b1d	2.0553658
83	0xbfcaff50	-1.5859165
84	0xbf99681c	-1.1984897
85	0xbfaa4779	-1.3303062
86	0x3f6dae9e	0.9284457
87	0x3f55c8ec	0.8350971
88	0x3e3e6317	0.18592487
89	0xbfb18c42	-1.3870928
90	0xbe5c0314	-0.21485549
91	0x3f423ab8	0.7587085
92	0x40095aa2	2.1461568
93	0x3eb39d66	0.35081023
94	0xbbc33d11	-0.0059582074
95	0xbff92daf	-1.9467067
96	0xbeb834ab	-0.35977682
97	0xbf823711	-1.0173055
98	0xbff7fa7b	-1.9373316
99	0xbf6d9560	-0.92806053
100	0xc0259623	-2.5872886
101	0xbfedc4bb	-1.8575662
102	0x3d083381	0.033252243
103	0xbf2988e3	-0.662245
104	0xbec3fba3	-0.3827792
105	0xbf825454	-1.0181985
106	0xbfb4655d	-1.4093434
107	0xbd5dad12	-0.05412013
108	0x3ee5c15b	0.4487408
109	0xbf06fcd3	-0.5272953
110	0x3e8346be	0.2563991
111	0xbe704c27	-0.2346655
112	0x3e98dd1a	0.29856187
113	0xbe84708b	-0.25867113
114	0xbf4afdd6	-0.7929357
115	0x3fc3b2af	1.5288905
116	0x3fad2c10	1.3529072
117	0x3dc28838	0.09498638
118	0x3e99cf80	0.30041122
119	0x3e0dfaa4	0.13865143
120	0xbe4d0815	-0.20022614
121	0xbfe3d485	-1.7799231
122	0xbf07a97b	-0.5299298
123	0xbf202175	-0.6255105
124	0xbec9b65a	-0.39396936
125	0xbf212172	-0.6294166
126	0x3feab0c9	1.83352
127	0x3fe65c14	1.799685
128	0x3f8245b4	1.0177522
129	0xbf9a846d	-1.2071663
130	0xc005cfa1	-2.0907977
131	0xc05e7ac3	-3.4762428
132	0x3ede6216	0.4343421
133	0x3f929980	1.1453094
134	0x3db9ca62	0.090718046
135	0xbf880c5b	-1.062877
136	0xbf9c0f5e	-1.219219
137	0xbf2b9d6b	-0.67037076
138	0xbe7272f6	-0.23676667
139	0x40321313	2.7824142
140	0x3f37cd70	0.7179785
141	0xbe609ce3	-0.21934848
142	0x3f99efe2	1.2026331
143	0xbfd35b69	-1.6512271
144	0xbe7ea3d0	-0.24867177
145	0x3fbaf89d	1.4607121
146	0x403c7209	2.9444602
147	0x3c772b98	0.015086077
148	0x3fcd67be	1.6047285
149	0x3f24368e	0.64145744
150	0x3fe29574	1.770186
151	0xc0027bf7	-2.0388162
152	0xbee1630c	-0.4402088
153	0xbf9bb919	-1.2165862
154	0xbf78ad08	-0.97139025
155	0xbdf9234e	-0.12164937
156	0xbdf0eefc	-0.11764333
157	0x3f944778	1.158431
158	0x3f920043	1.140633
159	0xbd3bb70a	-0.045828857
160	0xc0135ab3	-2.3024108
161	0x3f97f95d	1.1872975
162	0x3ee50cdf	0.44736382
163	0x3ee1917e	0.44056314
164	0x407ad73b	3.9193866
165	0xbfd777f2	-1.683348
166	0x406f70f9	3.7412703
167	0x3d336778	0.043799847
168	0x3f14c3ad	0.5811108
169	0x4051f98e	3.2808566
170	0x3ee553c6	0.44790477
171	0x3fad7ac4	1.355309
172	0x3f2f6629	0.6851526
173	0xbf4ec82d	-0.80774194
174	0xbd852fa2	-0.06503226
175	0xbdbfe7b8	-0.09370369
176	0x3f919c40	1.1375809
177	0x3ecfd6cc	0.40593565
178	0x3e4e5040	0.201478
179	0xbe9ef839	-0.31048754
180	0x403de8e8	2.9673405
181	0xbeb2247f	-0.3479347
182	0x3fc6121d	1.5474278
183	0x3fb43932	1.4079955
184	0x40257099	2.5849974
185	0x3dd6ac92	0.10482134
186	0x403ca81d	2.9477608
187	0xbe255b1e	-0.1614804
188	0xbfa153dd	-1.2603718
189	0x3f203123	0.62574977
190	0x403916e7	2.8920228
191	0xbf50dddd	-0.81588537
192	0x3f7723cf	0.96539015
193	0xbf47bca7	-0.78022236
194	0x3fdd6bae	1.7298486
195	0xbf1c371e	-0.610216
196	0xbf0188f7	-0.50599617
197	0xbfb766a1	-1.4328195
198	0x3f8f6b54	1.1204629
199	0x3f17272d	0.5904415
200	0xbfdefc5a	-1.7420762
201	0x3fc92a9c	1.5716128
202	0xbe3dce83	-0.18535809
203	0x40452a33	3.0807006
204	0xbf26098c	-0.6485832
205	0x40398ee4	2.8993464
206	0x3f976beb	1.1829809
207	0xbfc26ea3	-1.5190014
208	0x3fb03ab2	1.3767912
209	0xbfc71f69	-1.5556461
210	0xbf9568b3	-1.1672577
211	0xc0411a08	-3.0172138
212	0x3f682e8e	0.90696037
213	0xc0738a08	-3.8052998
214	0xbeac7918	-0.33686137
215	0x4051da14	3.2789354
216	0x4077dd08	3.8728657
217	0x3e94d995	0.29072252
218	0x3d34d57d	0.04414891
219	0xbf694b28	-0.91130304
220	0xbe19599d	-0.14975591
221	0xbffe7603	-1.9879764
222	0x40017b06	2.0231338
223	0xbe01a397	-0.12660061
224	0xbf8565fd	-1.0421749
225	0xc04540a8	-3.0820713
226	0x3e58f0ee	0.21185657
227	0x3fff0d32	1.9925902
228	0x3fb26bab	1.3939108
229	0x40771f3c	3.8612814
230	0x3e8bb552	0.27286774
231	0x3f673dc4	0.9032862
232	0x3fa64973	1.2991165
233	0xc0144ad9	-2.3170683
234	0xbfbfed8a	-1.4994366
235	0x3f06c789	0.52648216
236	0xbf9326c5	-1.1496207
237	0xbebf1ca2	-0.37326533
238	0x3d088a45	0.03333499
239	0x3fa91627	1.3209885
240	0xbdde0f67	-0.108427815
241	0xbee5abaa	-0.44857532
242	0xc0269f8d	-2.6034882
243	0xbf9a40e8	-1.2051058
244	0xbf9cc75d	-1.2248341
245	0x3f9f0536	1.2423465
246	0xbf715488	-0.9426961
247	0xbf8e892b	-1.113561
248	0x3f935c0b	1.1512464
249	0xbfae65e0	-1.362484
250	0x40206716	2.5062919
251	0x3f77046b	0.96491116
252	0x3dcd80af	0.1003431
253	0xbd95627b	-0.07294174
254	0xbfde3218	-1.7359037
255	0xbe5f35bd	-0.21797843
