models/Angle.pt (torch, 18075 bytes, 3 tensors)

embedding.net_.linear_clamped_.weight f4 [1000, 2]
000000 4a 84 96 bf 92 09 26 bd 8d f1 54 c0 66 c8 51 40
       -1.1759121 -0.04053647 -3.327243 3.2778563
000010 d5 ad 32 40 1d 8c 3a c0 ab 4a 9b bf 88 7a 1b bf
       2.7918599 -2.9148018 -1.2132162 -0.6073384
000020 f2 b8 99 3f b4 59 be 3f 88 43 59 c0 e4 b3 ae bf
       1.2009566 1.4871125 -3.3947468 -1.3648648
000030 fc ce cd 3e 88 be 17 c0 eb b5 0f 3e a6 2f 22 c0
       0.4019698 -2.371004 0.1403424 -2.5341582
000040 25 f4 7d bf a1 25 05 3e e2 73 83 be cb d0 d2 bf
       -0.9920066 0.13002636 -0.2567435 -1.6469969
000050 e2 3a 16 bf 5b f2 b0 3f 4f e2 9c bf 46 a3 ee 3e
       -0.586836 1.3823961 -1.2256564 0.46608943
000060 17 3d 01 be 2e df 32 3f ae 40 93 c0 56 40 11 3f
       -0.1262096 0.69871795 -4.6016455 0.56738794
000070 8d e8 17 c0 5a 06 46 c0 0c bd 13 40 74 2d 29 40
       -2.3735688 -3.0941377 2.3084135 2.6433992
000080 c7 ee 88 40 ba ec 22 40 a8 f5 b4 c0 54 7a 82 3f
       4.2791476 2.5456986 -5.6549873 1.0193582
000090 aa 40 2b c0 01 3a 71 c0 14 33 30 40 66 8a ff 3f
       -2.6758218 -3.7691653 2.7531176 1.9964111
0000a0 a6 9f 40 3e fc 05 b1 3f 33 9b 29 40 62 22 7d bf
       0.18810901 1.3829951 2.6500976 -0.9888059
0000b0 1d 08 f4 3f 68 63 bc 3f d6 8a 17 c0 46 42 8c 40
       1.9064976 1.4717836 -2.3678489 4.38309
0000c0 0e 0b de 3e 0e 20 5b bf 3d f0 8c 3f 0d df a9 3e
       0.4336781 -0.85595787 1.1010815 0.33177987
0000d0 68 37 64 c0 33 0e 49 40 ea 72 69 3f 20 55 0e c0
       -3.5658817 3.1414917 0.9119097 -2.2239456
0000e0 29 b9 87 c0 1b 9e ae bf 4e fe 01 c0 d6 48 2e 40
       -4.2413526 -1.3642 -2.0311465 2.7231956
0000f0 88 5c 99 be 7a f0 2b 3f a2 34 87 bf 08 42 d2 40
       -0.29953408 0.67163813 -1.0562937 6.5705605
000100 24 70 3b c0 94 19 10 bf 9a a0 73 40 70 a2 f1 be
       -2.9287195 -0.5628903 3.8066773 -0.47194242
000110 6e 42 a6 bf 60 76 d5 3f 54 c5 6c 40 4e 4f 9b 3f
       -1.2989023 1.667675 3.699544 1.2133577
000120 81 92 9c c0 48 6d 17 40 54 dd f9 3f 44 41 ec 3f
       -4.892884 2.366045 1.9520669 1.8457417
000130 ae d8 5e 3f d4 e2 16 bd 47 05 10 3f 2b bb aa 3f
       0.87049377 -0.036837414 0.5625805 1.3338369
000140 9b 95 a6 be 0c 1f 0c 40 e9 5b 95 c0 f5 38 a4 3e
       -0.32536015 2.189395 -4.6674695 0.32074705
000150 ec 6f fa bf 86 58 d3 c0 fe 17 24 c0 6f ab 3d 40
       -1.9565406 -6.604556 -2.5639644 2.9635885
000160 24 1e d4 3e cf 9a 23 c0 20 96 ce 3f 06 2e ce 3d
       0.41429245 -2.5563238 1.6139565 0.10067372
000170 65 8a 21 bf 85 69 b0 bd d8 e6 73 bf 13 60 ec 3f
       -0.631018 -0.08613876 -0.95274115 1.846682
000180 4c 49 e4 3f bd 9c 97 c0 1a 9b ee bf 74 63 e6 bf
       1.7834868 -4.737883 -1.8641083 -1.7999101
000190 83 43 df 3f 99 d6 ad 40 fc b5 2e 40 f8 ae 5c c0
       1.7442478 5.432446 2.7298574 -3.4481792
0001a0 64 5b 8e 40 58 5d fb 3f 7a e5 17 c0 a4 c1 66 bf
       4.448656 1.9637861 -2.3733811 -0.9013922
0001b0 36 9c f6 3e 3a c4 b8 3e 4d 12 8b 3f f6 45 88 bf
       0.48166054 0.3608721 1.086496 -1.064635
0001c0 28 8a 12 c0 75 ad a9 40 03 13 46 bf 31 85 f2 3f
       -2.2896824 5.302424 -0.7737276 1.8946897
0001d0 17 ef 64 bf 56 d5 37 c0 f2 61 79 bf 07 29 08 c0
       -0.8942732 -2.872396 -0.9741508 -2.127504
0001e0 16 72 63 c0 9e 94 51 c0 fb 83 8d 3f 66 07 13 40
       -3.5538383 -3.2746959 1.1055902 2.2973266
0001f0 5b e5 30 40 5a be 30 be 62 8b 3e 40 aa ec 31 c0
       2.7639987 -0.17260113 2.9772573 -2.7800698
000200 2b b6 bd be 3e 9e 08 3f e7 9b 1c bf d8 50 bb 3f
       -0.37053046 0.5336646 -0.6117539 1.4634047
000210 e5 9f 1c 40 ac c4 0c 40 86 ef 00 c0 6d 5f 44 3f
       2.4472592 2.199504 -2.0146194 0.7670811
000220 18 9b 14 bf 6a 2f 1b 40 4e 27 16 be 70 2a 50 c0
       -0.58049154 2.424769 -0.14663431 -3.2525902
000230 c8 95 6d bf 78 22 c9 3f b6 09 20 c0 bb 51 d5 c0
       -0.92806673 1.5713644 -2.5005927 -6.666227
000240 c2 df b3 bf 95 fe a8 bf 28 6b c6 bf 33 53 94 3f
       -1.405266 -1.3202692 -1.5501451 1.158789
000250 3a c5 db bd de 51 35 40 aa 3a 3d 40 d0 2f 54 c0
       -0.10730977 2.8331218 2.9567056 -3.3154182
000260 68 22 2a c0 7f 33 97 40 b2 ef 0c 40 a2 3b 4e 3e
       -2.65835 4.725036 2.2021298 0.20139936
000270 19 c1 e9 3f c6 30 42 c0 5e 16 5f 40 2a b0 64 40
       1.8262054 -3.034227 3.4857402 3.5732522
000280 d6 b7 91 3f 62 26 06 40 b9 6d ab 40 b7 c7 9d c0
       1.1384227 2.0960927 5.357144 -4.9306293
000290 cc ca 29 40 30 44 a5 c0 9a 34 77 be 12 01 a8 c0
       2.6530027 -5.1645737 -0.2414116 -5.2501307
0002a0 08 c3 4a bf 58 46 87 bf e4 99 8a 3c 20 b6 e6 bf
       -0.79203844 -1.0568342 0.016919084 -1.802433
0002b0 ab 76 5e be b4 a6 af c0 6a c7 a6 bf 1a 70 bc bd
       -0.21724956 -5.4890995 -1.3029606 -0.09201069
0002c0 b6 ce a6 3e 2a be ac bf 99 ce af bf ef 50 9a bf
       0.32579583 -1.3495533 -1.3734924 -1.2055949
0002d0 50 69 0b bf 15 87 f0 bf b1 5e f9 bf 3e 06 43 3f
       -0.5445757 -1.8791224 -1.9482023 0.761814
0002e0 3e 5a ea 3f 92 27 1d 40 37 6a c8 40 b0 1b 22 c0
       1.830879 2.4555402 6.2629657 -2.53294
0002f0 ff a0 c8 3f 20 9f 7b 40 1b 39 66 3d a8 fe 7f c0
       1.5674132 3.9315872 0.056206804 -3.999918
000300 86 ba 28 c0 c6 7b d4 c0 b5 84 45 bf 23 eb b4 40
       -2.6363845 -6.640109 -0.7715562 5.653703
000310 00 b1 11 c0 86 a2 39 c0 0b f2 6c 3f 0a 9b 04 be
       -2.2764282 -2.9005446 0.9255683 -0.12949768
000320 94 a7 a2 3f 73 96 30 bf 2e 1e 1b c0 4a d5 93 c0
       1.2707391 -0.6897957 -2.423717 -4.6197863
000330 39 cd 7e bf fc 4d 59 c0 3c 88 32 3f f1 31 af 3f
       -0.99531895 -3.3953848 0.6973913 1.3687116
000340 b9 b1 84 bf 86 7e 95 bf 5e 07 3b bf 0e e2 6b 3e
       -1.0366737 -1.1679237 -0.73058116 0.23035452
000350 c6 0a a6 bf dd b4 ea 3e 68 6c eb bd ad 17 70 bf
       -1.2972038 0.45841113 -0.11495286 -0.93786126
000360 20 6a 8f c0 d7 68 7a 3e aa ad e1 bf 07 fd 43 be
       -4.4817047 0.24454056 -1.7631123 -0.19139491
000370 85 dd 17 40 de e1 fc bf 38 85 87 c0 06 2e e0 3d
       2.3728955 -1.9756429 -4.235012 0.10946278
000380 60 ee 45 3e cb 90 4b 3f fc cc 22 3f 2c 6b 98 bf
       0.19329214 0.7951781 0.6359403 -1.1907706
000390 97 38 18 c0 8c f9 ae 3e 18 44 c8 bf 2b 8a ad 3e
       -2.378454 0.34174764 -1.564578 0.33894476
0003a0 40 40 1c c0 a9 a1 e1 be b7 50 e8 bf 83 68 e1 3f
       -2.4414215 -0.4406865 -1.8149632 1.761002
0003b0 a0 13 61 c0 5d bd 98 c0 b2 7f a5 c0 a1 48 72 40
       -3.5168228 -4.7731156 -5.171838 3.785683
0003c0 be 84 b6 bf 41 e9 12 40 71 6d 41 c0 97 30 18 c0
       -1.425926 2.2954867 -3.0223048 -2.3779657
0003d0 a2 1a 37 bf 27 b1 64 3f ee e9 26 40 76 97 42 3f
       -0.71525013 0.89332813 2.608028 0.7601236
0003e0 9e b0 2c 3f 28 86 99 bd 5a 98 d4 bf f6 a2 89 3f
       0.67456996 -0.074962914 -1.6608994 1.0752857
0003f0 b3 15 29 3f d2 51 b8 3e 67 ca ab 3f 5d 73 3b c0
       0.66048735 0.35999924 1.3421143 -2.9289162

embedding.net_.linear_clamped_.bias f4 [1000]
000000 d1 ef ac 3f 30 ea 7e 40 a5 31 6c 3e 72 17 d3 3f
       1.3510686 3.9830437 0.23065813 1.649153
000010 dd 6a f6 3f 1b 82 61 40 13 cf a2 40 a0 cd 77 40
       1.9251362 3.523566 5.0877776 3.8719254
000020 77 47 94 40 a4 da 99 3f 3b 84 95 40 4a 3c 7f 40
       4.6337237 1.2019849 4.6723914 3.9880548
000030 34 96 f0 3f 9b 5f 0e 40 d1 b5 1f 3f 78 8e f4 3f
       1.8795838 2.2245853 0.62386805 1.9105978
000040 6f 50 3e 40 73 a4 af 3f b0 6b 9f 40 bc 8b 14 40
       2.9736593 1.3722061 4.9818954 2.3210287
000050 0a 60 e9 3f b3 14 60 3f 81 8e 84 40 45 b3 0c 3f
       1.8232434 0.87531585 4.1423955 0.54961044
000060 63 d9 62 40 30 b3 03 40 86 11 24 40 e3 16 4f 40
       3.5445182 2.0578117 2.5635695 3.235772
000070 62 67 17 40 01 5f 4e 40 ce bc 21 40 ba 44 c2 3f
       2.365685 3.2245486 2.5271487 1.5177224
000080 6f 4b a5 40 5a 4e 3d 40 f0 a7 5a 40 a1 97 26 40
       5.165458 2.9579072 3.4165 2.6030047
000090 89 27 a5 40 b3 8e 3e 40 08 5f b7 40 29 dd 50 40
       5.161076 2.9774597 5.7303505 3.2634985
0000a0 9e 33 0c 3e c5 39 95 3a 45 e0 ce 3f 00 dc 69 40
       0.13691565 0.0011385015 1.6162192 3.6540527
0000b0 f8 5c af 40 20 9d ec 3f cd c0 84 40 5d 31 e0 3f
       5.4800987 1.8485451 4.1485353 1.7515064
0000c0 00 15 14 40 c2 72 09 40 b8 06 53 40 36 d1 d9 3f
       2.3137817 2.1476293 3.297285 1.7016971
0000d0 8d 2a ae 3f 01 15 22 40 37 ea cf 3f 01 21 fc 3d
       1.3606735 2.532532 1.6243352 0.123109825
0000e0 60 72 76 3f 99 62 eb 3e 3c af 8c 40 c3 0b 16 3f
       0.9626827 0.45973662 4.396391 0.58611697
0000f0 d2 6b 98 3f 79 03 67 40 66 b3 ab 3e 4b 83 69 40
       1.1907904 3.609587 0.33535308 3.6486385
000100 50 ab 58 40 fb b2 35 40 61 99 e8 3f 4e 9d 76 40
       3.385456 2.839049 1.8171808 3.853351
000110 fa 93 63 3f 14 7e 81 40 94 83 c4 40 d9 1c 3b 40
       0.8889767 4.0466404 6.141062 2.9236357
000120 17 46 c2 40 03 72 ab 40 b3 db a6 40 12 fc 9c 40
       6.071056 5.3576674 5.2143188 4.9057703
000130 58 2d 1e 40 8d f6 a7 3f 53 28 22 40 20 e1 b7 40
       2.4715176 1.3122116 2.5337112 5.746231
000140 df 10 33 3f 10 52 68 40 86 b1 4f 40 0b 8d b7 40
       0.6994762 3.6300087 3.2452102 5.735967
000150 d9 6c 54 40 e1 f1 a0 3f 09 d8 a8 40 23 7e b5 40
       3.3191435 1.2573816 5.2763715 5.6716475
000160 84 de 39 40 d6 f1 af 3f 49 55 64 40 1e e1 0a 40
       2.9042063 1.3745677 3.5677054 2.16999
000170 f0 36 81 40 70 a9 cd 3f 2b ec 2b 40 de 89 01 3d
       4.037956 1.6067333 2.6862895 0.03162562
000180 5f de 93 40 9b 14 a6 40 7a 56 e5 3e df 88 8b 40
       4.620895 5.1900153 0.4479254 4.360458
000190 65 0f 67 40 c9 dd 48 3e a1 3c 8c 40 91 d0 5a 40
       3.6103146 0.19615854 4.382401 3.41898
0001a0 1f 76 81 3f de a3 55 3f 07 96 bd 40 8f 48 80 40
       1.0114173 0.83453166 5.924564 4.0088573
0001b0 e8 6c b3 40 3a 89 c6 3f 38 39 8a 3f c8 fd 6a 40
       5.607044 1.5510628 1.0798712 3.6717396
0001c0 29 62 6f 40 be 84 33 3f 3c c1 46 3f e2 a2 fe 3f
       3.7403662 0.70124424 0.776386 1.9893458
0001d0 66 37 21 3e 2c 95 d4 3f 6e 64 0c 40 3c ac 67 40
       0.15743789 1.6608024 2.1936297 3.6198874
0001e0 e8 55 5e 3f 9d ea a2 40 59 07 b4 3f 7c ca d5 3f
       0.8684983 5.0911393 1.4064742 1.6702418
0001f0 1f 39 e0 3f bd 5f 95 40 10 e2 25 40 e7 a3 af 40
       1.7517432 4.667937 2.5919228 5.4887576
000200 ef 00 80 40 8e 54 be 40 a8 4d 94 40 d3 06 a9 40
       4.000114 5.9478216 4.6344795 5.282083
000210 67 99 ac 40 b9 da 5e 40 9a 06 01 40 a2 a6 e8 3f
       5.393726 3.4820998 2.016028 1.8175852
000220 a8 20 9d 40 79 3c af 3e d5 6b ac 3f 29 f4 9e 40
       4.9102364 0.34225824 1.3470408 4.9673047
000230 37 a1 a7 40 e1 7b aa 40 c1 bc 84 40 21 53 11 40
       5.2384295 5.327622 4.1480412 2.2706988
000240 9d 45 97 40 62 21 0a 40 b9 b6 aa 3f 23 e4 0e 40
       4.7272477 2.1582875 1.3337013 2.2326744
000250 0c 07 48 40 c3 2f 9a 40 d8 fb bb 40 e2 35 5a 40
       3.12543 4.8183303 5.8744926 3.4095387
000260 9e d6 58 40 3c da ef 3d 77 01 cf 3e 04 cd b1 3e
       3.3880992 0.11711547 0.40430805 0.34726727
000270 17 69 3e 40 69 82 d8 3f 6f a7 92 40 30 a2 b9 40
       2.9751642 1.6914798 4.5829387 5.8010483
000280 ef 3b 86 3f c5 bb a9 40 a5 69 2b 3f ef 0b f4 3f
       1.048704 5.304171 0.66958076 1.9066142
000290 55 02 2e 40 a7 cb 52 40 39 f2 0c 40 0e 89 0e 40
       2.7188923 3.29368 2.202284 2.2271152
0002a0 55 db 2b 3f 95 9a 62 40 ee 68 7c 40 96 48 86 40
       0.6713155 3.540685 3.9439044 4.1963606
0002b0 30 a8 f3 3f 0a 36 9a 3f 63 35 ba 40 47 d8 b3 40
       1.9035702 1.2047741 5.819017 5.620151
0002c0 97 1c b5 40 83 2c 64 40 cd 19 42 40 3a 08 82 40
       5.65974 3.5652168 3.0328248 4.063504
0002d0 e2 8d aa 40 d2 37 b3 3f 97 58 96 40 a3 2e 8c 40
       5.3298197 1.400141 4.698314 4.380693
0002e0 b2 5e 61 40 0c 74 9c 40 bf f7 47 40 ff e1 4c 40
       3.5214047 4.889166 3.1244962 3.2012937
0002f0 8e 93 c4 40 a6 2e 5a 40 0a e0 59 40 0a d9 9b 40
       6.143012 3.4090972 3.4042993 4.870244
000300 5d cc 9a 40 e8 4f 80 40 c5 63 83 3f b3 c3 c7 40
       4.8374467 4.009754 1.0264822 6.242639
000310 1a 49 04 40 87 aa 17 3f 14 90 a2 3f 98 79 c7 40
       2.0669618 0.5924458 1.2700219 6.233593
000320 58 ce 9e 40 ab 59 31 40 43 39 4e 40 3b 3e 93 3f
       4.9626884 2.771098 3.222245 1.1503366
000330 38 d2 9f 40 76 cc a8 3f fb 48 3f 40 ae 78 21 40
       4.9944115 1.3187397 2.9888294 2.5229907
000340 55 60 91 40 cb dc 88 40 5d e1 73 40 ca 06 52 3d
       4.5430093 4.2769523 3.81063 0.051276006
000350 b0 d8 b2 40 0a 1d df 3f 09 a3 0d 3f 07 bf 2e 40
       5.588951 1.7430737 0.55326897 2.7304094
000360 00 68 0e 40 a3 b1 33 40 76 1f 43 40 a9 9d 8f 40
       2.2250977 2.807717 3.0487952 4.4879956
000370 17 ec c8 40 6e a3 32 40 8b 83 90 3f 23 e9 ae 40
       6.2788196 2.791225 1.1290144 5.465959
000380 7c 4a a8 40 5c c8 b9 40 f6 78 06 40 28 0e 1e 40
       5.2590923 5.805708 2.1011329 2.469614
000390 83 c7 97 40 a6 bf aa 40 d1 8b a4 40 1b 1b 50 40
       4.7431045 5.3358946 5.1420674 3.2516544
0003a0 b2 0f b6 40 17 ce 39 40 ad f7 b8 40 c0 4c a3 40
       5.689416 2.9032037 5.780234 5.103119
0003b0 ae 96 95 3f bc 3a 47 40 6f 1e 2c 40 bb c0 5a 3f
       1.1686609 3.1129599 2.6893575 0.85450333
0003c0 08 3a ab 3f 2d 8f b0 40 cb 28 b5 40 61 75 4d 3f
       1.3377085 5.5174775 5.6612296 0.8025723
0003d0 94 a8 92 40 09 00 48 3f 91 4c 99 40 22 10 92 3f
       4.5830784 0.78125054 4.7905965 1.1411173
0003e0 5c 1a 6e 3f 1c 16 a7 40 26 3e 95 40 67 0b 72 3f
       0.9300897 5.221449 4.6638365 0.9454865
0003f0 2d b6 de 3f aa f3 7c 3f 93 a6 56 40 70 c0 77 3d
       1.7399346 0.988093 3.353917 0.060486257

embedding.net_.prediction_.weight f4 [1, 1000]
000000 09 8b 46 40 5b d4 1c be 12 47 0b 40 80 76 4f 40
       3.102236 -0.15315382 2.1762128 3.2416077
000010 06 34 7a bf 96 fd 48 40 de 92 ec 3f 99 3d f6 3e
       -0.9773563 3.1404777 1.848232 0.4809387
000020 16 fe 81 c0 c3 f3 85 bf fd 4d 27 c0 ae d9 e5 bf
       -4.0622663 -1.0465015 -2.614135 -1.7957056
000030 c3 b9 28 40 43 5f a9 c0 65 72 e6 be bc e9 18 bf
       2.636338 -5.2928786 -0.4500915 -0.5973165
000040 49 77 55 be d7 b8 67 40 44 db 2a 3e c7 53 c9 3f
       -0.20846285 3.6206567 0.16685206 1.5728692
000050 35 0c b4 3f 5e fe 65 bf 10 00 81 40 51 a5 a0 be
       1.4066225 -0.8984126 4.0312576 -0.31376126
000060 cb e7 2b 40 b1 3c e5 bf fc 9a cd 3f 2f d3 3c 3f
       2.6860225 -1.7909147 1.6062922 0.7375974
000070 6c c1 36 c0 ef c7 8a 3d be 6d 37 40 dc 70 82 be
       -2.8555555 0.067764156 2.8660731 -0.2547673
000080 a7 ed 99 bf b8 7c eb 3c 6b c3 24 3f ba a3 6d 40
       -1.2025651 0.028745994 0.64360684 3.713118
000090 2b bc c0 c0 fa a9 38 40 8b 40 98 3f e6 1a 9a 3f
       -6.0229697 2.8853745 1.1894697 1.2039459
0000a0 cb a4 23 bd 75 0b 24 40 ec 62 63 c0 87 fe d9 b9
       -0.03995208 2.5631993 -3.5529127 -0.00041579103
0000b0 f2 5a e6 3e ad 8b 09 c0 16 1c 2f c0 eb f9 ca 3f
       0.4499126 -2.1491501 -2.7360892 1.5857519
0000c0 8f 59 f1 3e 89 91 5e 40 62 11 16 40 66 d3 3d 3f
       0.4713864 3.4776328 2.344811 0.74150693
0000d0 aa e4 a0 40 17 7c 5f 40 ba 68 0b c0 94 85 55 c0
       5.027913 3.4919488 -2.178267 -3.336278
0000e0 e6 63 73 bf e3 42 73 3e 1b 71 b5 3d e2 62 c9 bd
       -0.9507431 0.23755984 0.08859464 -0.098333135
0000f0 39 ae 95 bf b2 e2 e6 3f a9 0e 02 c0 8a 40 ff c0
       -1.1693794 1.8037932 -2.0321448 -7.9766283
000100 2c cc ad bf f3 b1 da 3f 7f bf 55 bf fd ac 31 3f
       -1.3577933 1.7085556 -0.83495325 0.69404584
000110 d1 1b cd 3e b9 81 99 3d cc c0 f9 bf 5c 39 88 40
       0.40060285 0.07495446 -1.9511962 4.257002
000120 44 1a 5f c0 10 b5 45 c0 a9 6d ad be b5 8e cf be
       -3.4859781 -3.0891762 -0.33872727 -0.40538564
000130 0b b8 92 bf 47 69 7c c0 bc 08 09 3f 37 73 22 bf
       -1.1462415 -3.9439256 0.5352895 -0.63457054
000140 d2 a5 10 c0 6c 6b 81 41 59 df a7 3e f2 8a 08 3f
       -2.2601209 16.177452 0.32787588 0.53337014
000150 bb 49 a8 3f 6b d0 b8 bf b8 24 9b 3f c3 8b 0c c1
       1.3147501 -1.4438604 1.2120581 -8.7841215
000160 ce 5b 5b bf 30 8f de 3f ba 55 b8 3e 44 37 88 40
       -0.8568696 1.7387447 0.36002904 4.2567463
000170 ae 1d 0c 40 b1 d6 4a c1 a5 e0 84 3f 4b b9 d9 3e
       2.1893115 -12.677415 1.0381056 0.4252418
000180 b6 f2 aa 40 a4 d2 ae 3f 33 ad 49 bf a6 80 9f 40
       5.342128 1.3658032 -0.78779906 4.984454
000190 2b f5 f8 40 21 94 0b c0 8a a8 0c 3f a1 51 31 40
       7.7799277 -2.180916 0.5494467 2.7706072
0001a0 67 0b 2b 3f b0 c3 84 40 ab 2a cd c0 2a ac bc 3f
       0.66814274 4.1488876 -6.4114585 1.474004
0001b0 eb 76 84 40 58 0b 36 40 30 f4 c5 3f 16 bc df 3e
       4.1395164 2.8444424 1.5465145 0.43698186
0001c0 a8 fa 23 bf fb b4 21 c0 2f 37 a6 bf bd 89 9a 40
       -0.64054346 -2.5266712 -1.2985591 4.8293138
0001d0 51 ce 39 c0 83 3a d5 3e 72 88 68 3d df 5a 04 41
       -2.9032176 0.41646203 0.05677075 8.272185
0001e0 cf 98 86 be 1a ac 35 bf 16 73 62 40 c3 55 0b bd
       -0.2628846 -0.7096573 3.5382743 -0.034017336
0001f0 40 74 84 c0 e9 f9 44 c0 98 b2 08 bf f4 18 1a bf
       -4.1391907 -3.0777533 -0.5339751 -0.60194325
000200 a4 9e c0 3d 10 6a e8 be d8 96 96 3f 39 97 eb 3f
       0.09405258 -0.4539342 1.1764784 1.8405524
000210 eb 0c 3b c0 4b 41 fa bf 13 f8 2b 3f 4e b0 82 c0
       -2.9226635 -1.9551176 0.67175406 -4.0840216
000220 c1 ad 22 c0 c7 b9 b5 be 89 6a e1 bf 79 07 b8 be
       -2.541855 -0.354933 -1.7610637 -0.359432
000230 b2 35 84 bf f5 eb ea 3b 1a 63 29 40 86 d3 8a bf
       -1.0328887 0.0071692416 2.6466737 -1.0845802
000240 4d 76 a4 3f 42 44 43 40 38 a1 66 c0 d9 e1 5d 40
       1.2848603 3.0510411 -3.60359 3.4669096
000250 5d 17 5d 40 6a da 1c c0 46 70 5e c0 f6 28 1a 40
       3.454551 -2.450831 -3.4756026 2.40875
000260 21 97 25 3f eb d4 8b c0 9b 49 58 c0 a4 0f 3d bf
       0.6468373 -4.369741 -3.3794925 -0.7385199
000270 2f ff ec 3f a1 f8 3c bf f6 e8 dc bf a8 b8 d9 3e
       1.8515376 -0.7381688 -1.7258594 0.42523694
000280 40 89 0a bd fb 91 a0 be b9 e0 68 bf 72 86 81 bf
       -0.033822298 -0.31361374 -0.909679 -1.0119154
000290 17 d9 90 be cb 4a 0f 40 59 39 c0 40 bb 4a 04 40
       -0.28290626 2.23894 6.0070004 2.0670612
0002a0 b0 78 63 be 17 1e 56 40 4f 99 18 3e 92 ec 94 c0
       -0.22214007 3.3455865 0.14902233 -4.653878
0002b0 94 70 86 be 03 7f b5 3d 4f 3c a6 3f fe 06 fa 3f
       -0.26257765 0.08862116 1.2987155 1.9533384
0002c0 f4 8b 0a c1 1a f4 a2 be 48 c1 25 40 59 77 f8 bf
       -8.659168 -0.3182686 2.589922 -1.9411422
0002d0 f4 c6 e5 bf a9 ef 22 40 5e 32 11 bf 3f 9e 71 bf
       -1.7951341 2.5458777 -0.5671748 -0.9438209
0002e0 83 78 b1 bf e7 98 e0 bd 6d aa 3d 40 12 73 16 40
       -1.3864902 -0.10966664 2.963527 2.3507733
0002f0 26 c4 72 c0 61 e5 97 be 15 2a 19 bf 78 69 1e 40
       -3.793222 -0.2966719 -0.5982984 2.4751873
000300 99 fb 0d 3f 33 08 3c c0 c4 5d 13 40 53 51 05 bd
       0.5546203 -2.9380004 2.302598 -0.03254826
000310 95 61 56 c0 72 57 ae bf 50 ff 31 bf 04 3e 5f c0
       -3.349706 -1.3620436 -0.695302 -3.4881601
000320 13 dd a0 c0 2d 59 01 41 8a c8 ea 3f 8c ff 40 40
       -5.0269866 8.084271 1.834245 3.0155973
000330 8d 23 70 c0 bd f6 85 c0 80 74 f8 40 03 38 b2 bf
       -3.7521698 -4.1863694 7.764221 -1.3923343
000340 18 d4 8c 3f c7 08 4d bf ea d3 47 bf ec 1f e3 bf
       1.1002226 -0.8009152 -0.7805773 -1.7744117
000350 47 1a d3 bd b0 df 8e 40 be ff a5 bf d6 44 2d c0
       -0.103077464 4.4648056 -1.2968671 -2.7073264
000360 13 f4 70 40 c9 aa 9c 3f 57 7c fb bd c1 5f b0 3f
       3.764897 1.223962 -0.12279575 1.3779222
000370 3b 6e d8 be ce f3 fa be 04 58 4c bf 35 09 16 c1
       -0.422716 -0.49014133 -0.798218 -9.377248
000380 34 fd 41 c1 92 21 d3 3f 78 fd 1e c0 54 d8 88 c0
       -12.124317 1.649462 -2.4842205 -4.2764072
000390 6a 48 c0 3f 49 64 9d bf 1f a4 77 bf 81 06 3b c0
       1.5022099 -1.229623 -0.96734804 -2.922272
0003a0 6c 39 0c 40 e4 4e ec 3e 6d 26 5d c0 60 d1 35 bf
       2.1910048 0.4615394 -3.4554703 -0.71022606
0003b0 1a d7 cf be 50 ca 73 40 9e 2c 87 40 20 c4 64 40
       -0.40593797 3.8092232 4.2241964 3.5744705
0003c0 36 a2 89 c0 b4 cd 06 c1 2a 87 09 3f 13 7c 06 c1
       -4.301051 -8.4252205 0.5372187 -8.405292
0003d0 e8 f2 c2 bf 85 d0 9a 3f f6 06 23 c0 01 21 76 c0
       -1.5230379 1.2094885 -2.5472999 -3.8457644
0003e0 96 4b cb 3e 03 0a 5e 40 5f 58 6f bf 28 b0 75 3e
       0.39706105 3.469361 -0.9349422 0.2399298
0003f0 f2 a5 52 bf dc 40 95 3e 07 27 a6 3f 62 06 9a c0
       -0.8228446 0.29151046 1.298066 -4.813279
