models/Angle.pt (torch, 3471 bytes, 7 tensors)

stiffness_.weight f4 [2, 2]
0	0x3f800000	1.0
1	0x00000000	0.0
2	0x00000000	0.0
3	0x3f800000	1.0

dissipation_.weight f4 [2, 2]
0	0x3f800000	1.0
1	0x00000000	0.0
2	0x00000000	0.0
3	0x3f800000	1.0

embedding.net_.0.weight f4 [10, 2]
0	0x3f0ca234	0.54935
1	0x3f1351a1	0.5754643
2	0x3de8e163	0.11371114
3	0x3f044c26	0.51678693
4	0xbefcbb28	-0.4936154
5	0xbdc69422	-0.09696223
6	0x3dd4ca80	0.10390186
7	0x3e234a48	0.15946305
8	0x3f09d8c7	0.538464
9	0xbf16e934	-0.5894959
10	0x3ef7efda	0.4842518
11	0x3e809241	0.25111583
12	0xbf064937	-0.52455467
13	0x3eab709c	0.33484352
14	0x3f127e6d	0.5722416
15	0xbee24f72	-0.44201237
16	0x3f0f438d	0.5596245
17	0xbe813387	-0.25234625
18	0x3f2ac74e	0.66710365
19	0x3e6f3bd3	0.23362665

embedding.net_.0.bias f4 [10]
0	0x3e146803	0.14492802
1	0x3dd42186	0.103579566
2	0xbf080e16	-0.53146493
3	0x3e5affeb	0.21386687
4	0xbf019155	-0.50612384
5	0xbf15d4a9	-0.5852762
6	0x3eb89a2d	0.36055127
7	0x3e333a70	0.17502761
8	0x3ef5fb8e	0.48043483
9	0x3e75f912	0.24020794

embedding.net_.2.weight f4 [10, 10]
0	0xbe3ab594	-0.18233329
1	0x3e5141b8	0.20435226
2	0xbdc63ae8	-0.09679204
3	0x3db6ec71	0.08931816
4	0x3e906199	0.2819946
5	0xbe8c17c7	-0.2736189
6	0x3e0c4037	0.13696371
7	0x3e422cbc	0.18962377
8	0xbcbebc26	-0.023283076
9	0xbdb7d3d7	-0.08975952
10	0xbea2dca6	-0.31808966
11	0xbdd5fd7b	-0.10448738
12	0xbd2f75e6	-0.042837046
13	0xbe96a6fe	-0.2942428
14	0xbdb744eb	-0.08948692
15	0x3e1cbce3	0.1530643
16	0x3e038b72	0.12846163
17	0x3e4ca301	0.19984056
18	0x3cd7556a	0.026285846
19	0x3d48b751	0.04900295
20	0xbe948601	-0.29008487
21	0x3db8a21a	0.090152934
22	0xbe144aa8	-0.14481604
23	0xbd203932	-0.039117046
24	0x3e917f4d	0.28417435
25	0x3d1717ea	0.03688804
26	0xbe9736ab	-0.29533896
27	0x3e7fa673	0.24965839
28	0xbe36c428	-0.17848265
29	0xbe529510	-0.20564675
30	0x3e23d3e3	0.15998797
31	0x3e585ec1	0.21129896
32	0xbe7bdb87	-0.24595462
33	0xbe94ddba	-0.29075414
34	0x3e8c894d	0.27448502
35	0x3e8dc3c6	0.27688426
36	0xbe77bdf5	-0.24193557
37	0x3e98a53c	0.29813564
38	0xbda0ea3f	-0.07857179
39	0x3e714e63	0.23565058
40	0xbe6ea5ad	-0.23305388
41	0xbe3dab4d	-0.18522377
42	0xbda23b6a	-0.079214886
43	0xbdeb51d1	-0.114902146
44	0x3e92f13e	0.28699678
45	0x3e982916	0.29718846
46	0xbe800db6	-0.2501046
47	0xbd60028f	-0.05468994
48	0x3e05a77f	0.13052176
49	0xbcf78dd4	-0.030218996
50	0xbe8e9002	-0.27844244
51	0x3dfe75d8	0.12424821
52	0xbc6d9417	-0.014500639
53	0x3e86403a	0.26220876
54	0x3cabaa56	0.020955246
55	0xbd9b46ad	-0.0758184
56	0xbd5e087a	-0.054207303
57	0x3d119462	0.0355419
58	0x3e452a66	0.19254455
59	0x3d9ec64a	0.077526644
60	0x3e29b3a4	0.16572434
61	0x3d80455b	0.062632285
62	0xbdf59367	-0.119910054
63	0x3d8428a6	0.064530656
64	0xbe77c1e7	-0.24195062
65	0x3e8f6a2b	0.28010687
66	0xbe8bc761	-0.27300552
67	0xbe13f494	-0.14448768
68	0x3e200cfb	0.15629952
69	0xbe0529bb	-0.130042
70	0xbe9e73ce	-0.30947727
71	0xbd5f037e	-0.05444669
72	0x3db2c1f7	0.08728402
73	0xbe341816	-0.17587313
74	0xbddb27e2	-0.107009664
75	0x3c524b71	0.012835369
76	0xbd92cefc	-0.071683854
77	0x3d5797b5	0.052634913
78	0x3e7b3f92	0.24535969
79	0x3e116405	0.1419831
80	0x3e88e339	0.26735857
81	0x3d18918f	0.03724819
82	0xbd08fbb9	-0.033443186
83	0xbe9bb395	-0.30410448
84	0xbe88f02a	-0.2674573
85	0x3db2bbbf	0.08727216
86	0xbe863c8a	-0.26218063
87	0xbc874564	-0.01651258
88	0xbe925c01	-0.28585818
89	0x3d01fe42	0.03173662
90	0xbe50b6ea	-0.20382276
91	0xbe402c7a	-0.18766966
92	0xbe6c4c3b	-0.23075955
93	0x3e77d86a	0.24203649
94	0x3d9ca965	0.07649497
95	0x3df27d1e	0.118402705
96	0xbe6c8c0d	-0.231003
97	0x3dc23c54	0.09484163
98	0x3e25f2b2	0.16205862
99	0xbdbb387e	-0.091416344

embedding.net_.2.bias f4 [10]
0	0x3d1e57d3	0.038657974
1	0xbe84ff1d	-0.25975886
2	0x3e741013	0.23834257
3	0x3df4915a	0.11941786
4	0xbd96568f	-0.073407285
5	0xbd34b1df	-0.044114944
6	0xbddd46e3	-0.10804536
7	0xbcca1cc2	-0.024671916
8	0x3e95d5cc	0.29264677
9	0xbcbf9d48	-0.023390427

embedding.net_.4.weight f4 [1, 10]
0	0x3dcf2418	0.10114306
1	0x3d1779d6	0.036981426
2	0xbd9df6b2	-0.07713069
3	0xbe51b8d0	-0.20480657
4	0xbd716d8b	-0.05894236
5	0xbdae536c	-0.08512005
6	0x3e90d00d	0.2828373
7	0x3d1c3f7e	0.03814649
8	0xbde80416	-0.11328904
9	0xbe4d03de	-0.20021006
