models/BendedLine.pt (torch, 18139 bytes, 5 tensors)

stiffness.spd.weight f4 [2, 2]
0	0xbbdb8892	-0.00669963
1	0xbb1da6ad	-0.0024055645
2	0x3c0edd99	0.008719825
3	0x3fa44500	1.2833557

dissipation.spd.weight f4 [2, 2]
0	0xbaa81be6	-0.0012825697
1	0xbc93e66c	-0.01805421
2	0x3c0c91f2	0.008579718
3	0x3f68a1fd	0.90872175

embedding.net_.linear_clamped_.weight f4 [1000, 2]
0	0x3effdfeb	0.49975523
1	0xbfb69b62	-1.4266169
2	0x3f168312	0.5879375
3	0xc0a12a8e	-5.0364447
4	0xbf7b307d	-0.9812086
5	0x3ff2d901	1.8972474
6	0x40a14cdd	5.0406327
7	0xc01fb690	-2.4955177
8	0x3db1ccb3	0.086816214
9	0x3ee4c3a8	0.44680524
10	0xbf4d5cfc	-0.8022001
11	0xbee2a7d9	-0.44268683
12	0x3f4c444e	0.79791725
13	0xc0376288	-2.8653889
14	0x3ffeea96	1.991534
15	0x3f4dc8ee	0.8038472
16	0x404b08d5	3.172414
17	0x3f468981	0.77553564
18	0xbfd01538	-1.6256475
19	0x3f0d34fa	0.5515896
20	0x400da172	2.2129788
21	0x407df6f7	3.9681985
22	0xbfe346a3	-1.7755932
23	0x4000594c	2.0054502
24	0xc005a189	-2.0879843
25	0x3fc46a18	1.5344877
26	0xbf608de2	-0.87716496
27	0xc042f477	-3.046171
28	0xc01c628e	-2.4435153
29	0x3c02693c	0.00795966
30	0x3f0110b0	0.5041609
31	0x3ee404eb	0.44535002
32	0xc01d7796	-2.460424
33	0x4020c089	2.5117514
34	0xbfce3abf	-1.6111678
35	0x4074842e	3.8205676
36	0x3f422ff4	0.7585442
37	0xc0a67316	-5.2015486
38	0xbdb2ba36	-0.08726923
39	0xbf55484d	-0.8331345
40	0x3fb6b56d	1.4274117
41	0xc00a4628	-2.160532
42	0x3fb4a6f8	1.4113455
43	0x402947ea	2.6450143
44	0x3f78615d	0.97023565
45	0x3fbaa5cb	1.4581846
46	0x3f1b1dc0	0.6059227
47	0xc07f8310	-3.9923744
48	0xc00d0196	-2.2032218
49	0x403dd0cc	2.965869
50	0xbf91ec34	-1.1400208
51	0x3ffc433e	1.9708021
52	0x405daf8d	3.4638398
53	0xc00536ad	-2.0814621
54	0xbe0b7bbd	-0.13621421
55	0x3ff5cfc8	1.9204035
56	0x3f8ea9e1	1.1145593
57	0xbf2fd892	-0.68689835
58	0x40980cd3	4.7515655
59	0xc009354a	-2.1438775
60	0xbe8f42da	-0.2798069
61	0xbd0966be	-0.03354525
62	0x3fb2ecb3	1.3978485
63	0x3e8c3221	0.27381995
64	0xbfbaafca	-1.4584897
65	0xbee4fba5	-0.4472324
66	0xc07e7923	-3.9761436
67	0x4084791c	4.139784
68	0xbdc69fab	-0.09698423
69	0xbfc51862	-1.5398066
70	0xbfce0c1b	-1.6097444
71	0xbfa38584	-1.2775121
72	0xbeef4105	-0.46729293
73	0x3f7d81ab	0.9902598
74	0x40164bc1	2.3483737
75	0x3ce0eec4	0.027457602
76	0x402cb66a	2.6986337
77	0xc04fd3d4	-3.247304
78	0x4045f08b	3.0928066
79	0xc037dd59	-2.872885
80	0x3eec6c50	0.46176386
81	0xbf7a8ef6	-0.9787439
82	0xbff40df9	-1.9066764
83	0xc04b62b1	-3.1778986
84	0x3f30ca7d	0.6905897
85	0xbfc6af9f	-1.5522345
86	0xc02dd9f6	-2.7164283
87	0x3f0f39ea	0.55947745
88	0xbe551a32	-0.20810774
89	0xbf938aec	-1.152677
90	0xc093f87a	-4.6240816
91	0x3fe021b4	1.7510285
92	0x3fb118d3	1.3835701
93	0x3e680492	0.22657993
94	0x3f21f1af	0.63259405
95	0x401d92ab	2.462077
96	0x3f9ceb8a	1.2259381
97	0xbf9fa077	-1.2470845
98	0xbf7740de	-0.96583354
99	0x3f99ac8b	1.2005781
100	0x3f0b5322	0.54423726
101	0xc03b26a4	-2.9242334
102	0xc0bae686	-5.84064
103	0x3f6a57dd	0.9154032
104	0x3f74233f	0.9536628
105	0xc015e09f	-2.3418348
106	0xbfdf4822	-1.7443888
107	0xc02d49a2	-2.7076192
108	0x3fd7b222	1.6851237
109	0xbeff6e9f	-0.49889085
110	0xbeadae8d	-0.33922234
111	0x3f7a7b46	0.9784435
112	0xc0a7e3b6	-5.2465467
113	0xbf0053f5	-0.5012811
114	0x3f489517	0.78352493
115	0x404acb5f	3.1686628
116	0x3fefb028	1.8725634
117	0x3f556bd2	0.83367646
118	0xc04be8db	-3.1860874
119	0x3fd345cf	1.6505679
120	0xbf491a2b	-0.78555554
121	0x40005662	2.0052724
122	0x3e35c698	0.17751539
123	0x3fc54ce7	1.5414094
124	0xc03ece46	-2.98134
125	0xc015e102	-2.3418584
126	0xc039a5ed	-2.9007523
127	0x3fb8e87b	1.4445947
128	0x405e74f0	3.4758873
129	0xc0b51706	-5.6590605
130	0xbfda9b26	-1.7078598
131	0xc012bfcb	-2.292956
132	0xc02d5d15	-2.7088063
133	0x40cb21dc	6.347883
134	0xbf0a6715	-0.5406354
135	0xbf339468	-0.70148325
136	0x3e671519	0.22566642
137	0x3f93ce2f	1.1547297
138	0x40de452c	6.945944
139	0xc0112bc6	-2.2682967
140	0xbfcd8f14	-1.6059289
141	0xbfec2f3f	-1.8451918
142	0x3e91ab10	0.28450823
143	0xbfe65fd7	-1.7997998
144	0xbf8546b9	-1.0412208
145	0xbf482eac	-0.78196216
146	0xc01c99ab	-2.4468791
147	0x405a938e	3.415256
148	0xc0030a0b	-2.047488
149	0xbd4d2e8d	-0.050093222
150	0xc027332e	-2.6124988
151	0xc093c3f7	-4.6176715
152	0xbf9235b4	-1.1422639
153	0xbfd27742	-1.6442645
154	0x400a8267	2.1642091
155	0x3fd6d0e8	1.6782503
156	0x3f3b5a99	0.73185116
157	0xc0b48242	-5.6409006
158	0x4031e011	2.779301
159	0x406cc8de	3.69976
160	0xbfeeb783	-1.8649753
161	0x3f72d829	0.94861084
162	0x3f8dff5f	1.1093558
163	0xc0107f8e	-2.2577853
164	0xbff65057	-1.9243268
165	0x401df849	2.4682791
166	0xbeb4fd32	-0.35349423
167	0x3fef3a02	1.8689578
168	0xbf6085ec	-0.8770435
169	0xc00581af	-2.0860403
170	0x406422a8	3.5646152
171	0x4044e812	3.0766644
172	0x3fb9e100	1.452179
173	0xbf3295df	-0.69759935
174	0xbf2944d0	-0.66120625
175	0xbfa62c00	-1.2982178
176	0x3f1716a8	0.59018946
177	0xc0adba59	-5.4289975
178	0x400bd629	2.1849463
179	0x3fc112e0	1.5083885
180	0xbfada664	-1.3566403
181	0x3f6ebc99	0.9325653
182	0x40251f22	2.5800252
183	0x404b6958	3.1783047
184	0xbe90c5ec	-0.28276002
185	0x3f722f18	0.9460311
186	0xbfcd16ed	-1.6022621
187	0x3ebba23c	0.36647213
188	0x3e80b2a3	0.2513629
189	0xbf4450b4	-0.76685643
190	0xbe415e41	-0.18883611
191	0x3f88528c	1.0650191
192	0xbf0d2300	-0.5513153
193	0x3f91e2dc	1.1397357
194	0x40546dea	3.3192086
195	0xc045c65b	-3.0902317
196	0xbf7e2055	-0.99268085
197	0xbe8e6814	-0.2781378
198	0x3db8a4b9	0.09015793
199	0xc066883f	-3.6020658
200	0xc042c9c2	-3.0435643
201	0x400b04be	2.1721644
202	0xc066b6db	-3.6049106
203	0xc026b196	-2.604589
204	0x3e9aec49	0.30258396
205	0xbfc711e3	-1.5552334
206	0xbfa2699b	-1.2688478
207	0x403bea00	2.9361572
208	0xc0b04d6e	-5.509452
209	0xc08f4f24	-4.4784107
210	0xbf3447dc	-0.7042215
211	0xc05a2a81	-3.4088442
212	0xbef14ce4	-0.47128975
213	0x3edcb2d9	0.431052
214	0xc002cad1	-2.043629
215	0x3f0c2023	0.54736537
216	0xbfe283b8	-1.7696447
217	0x3fae037d	1.3594815
218	0x40149c05	2.3220227
219	0x3ea3d6bf	0.31999776
220	0x3fe64e21	1.7992593
221	0x3f5eedc3	0.87081546
222	0x3f2ae27f	0.66751856
223	0xbfac5229	-1.3462573
224	0x3ee454a9	0.4459584
225	0x3cbb5d5b	0.022871664
226	0xc03b1885	-2.9233716
227	0xbfb14b39	-1.3851081
228	0xbeee848b	-0.46585497
229	0xc00a56b5	-2.1615422
230	0x403fac70	2.9948997
231	0xbf4b7683	-0.7947771
232	0x40038303	2.0548713
233	0x3e81d990	0.253613
234	0x3f53359b	0.8250367
235	0xbfe9438b	-1.8223737
236	0x4078a78a	3.8852258
237	0x3fe591a0	1.7935066
238	0x3fb79e02	1.4345095
239	0xbd3c00be	-0.045899145
240	0x402eca5d	2.7311013
241	0xbea138cb	-0.31488642
242	0xbf563d2f	-0.8368711
243	0xc086c959	-4.2120786
244	0xbf6d8f91	-0.9279719
245	0xbf204a05	-0.62612945
246	0xbf8dd59a	-1.1080811
247	0x3eb567be	0.35430712
248	0xbf0f0350	-0.5586443
249	0x3fb14273	1.3848404
250	0x409d79a9	4.921101
251	0xbfb6bd6a	-1.4276555
252	0xc02c99b1	-2.6968806
253	0x3fc12b2f	1.5091304
254	0xbd91d617	-0.071209125
255	0x406909c2	3.6412206

embedding.net_.linear_clamped_.bias f4 [1000]
0	0x40b150e6	5.5411253
1	0x40714262	3.7696767
2	0x40990020	4.7812653
3	0x3e80b3c0	0.25137138
4	0x402c28d9	2.6899931
5	0x409c40cf	4.882911
6	0x3dc98ac5	0.09840921
7	0x406a638e	3.6623263
8	0x40a0d089	5.025456
9	0x4078961a	3.8841615
10	0x40323381	2.7843935
11	0x406a0268	3.6563969
12	0x40879431	4.23684
13	0x404cbda2	3.1990743
14	0x3ed2c58b	0.41166338
15	0x409d456d	4.914725
16	0x40543296	3.3155875
17	0x4020b1ca	2.5108514
18	0x4059b0ca	3.4014153
19	0x40bb22b2	5.8479853
20	0x404b2fe3	3.1747978
21	0x40ab1994	5.3468723
22	0x40c46e93	6.138498
23	0x3f83ee77	1.0307149
24	0x40b745f8	5.727291
25	0x403616d6	2.8451438
26	0x3eec27fa	0.4612425
27	0x3f74ebb0	0.9567213
28	0x3fe05565	1.752606
29	0x3eef5e0b	0.46751437
30	0x4049be8a	3.1522546
31	0x4037fd54	2.874837
32	0x3f9e0899	1.2346374
33	0x3f08efbc	0.53490806
34	0x3fcf3016	1.618655
35	0x40ae1313	5.4398284
36	0x402beae9	2.6862128
37	0x40a29f1f	5.081924
38	0x3fba6a54	1.4563699
39	0x405bce10	3.434452
40	0x400fa245	2.2442791
41	0x40bcda71	5.901665
42	0x3f842fc1	1.0327073
43	0x3ee3868e	0.44438595
44	0x4064f0ac	3.5771894
45	0x3da60abb	0.081075154
46	0x3fc342ae	1.5254724
47	0x401f5a2c	2.4898787
48	0x404a03fb	3.156493
49	0x3f9f6455	1.2452494
50	0x3faf459a	1.3693116
51	0x403172b3	2.7726257
52	0x40c02223	6.004167
53	0x40496519	3.1467955
54	0x40b2ff31	5.5936513
55	0x40c01bd9	6.0033994
56	0x40ad0630	5.4070053
57	0x403d8da9	2.9617712
58	0x40c4ee5e	6.1540976
59	0x403bc3ba	2.9338212
60	0x40c309b3	6.094934
61	0x4065286a	3.5805917
62	0x3f8d411f	1.1035498
63	0x3f2934c6	0.6609615
64	0x3fb7c1e1	1.4356042
65	0x4019b44a	2.401629
66	0x3f195703	0.59898394
67	0x3f7505d3	0.9571201
68	0x40683990	3.6285133
69	0x40bb5982	5.8546762
70	0x40a9e1d6	5.308818
71	0x400b6dca	2.178576
72	0x3fc2dd66	1.5223815
73	0x403c3f83	2.9413764
74	0x40b66a79	5.700497
75	0x40aaaef6	5.3338575
76	0x409a17c9	4.8154035
77	0x3f866cc9	1.0501949
78	0x4089705d	4.294966
79	0x3f323be7	0.69622654
80	0x3fa9ed70	1.3275585
81	0x40c57c19	6.1713986
82	0x3feea27e	1.8643339
83	0x40061229	2.0948584
84	0x40b2035d	5.5629106
85	0x40044b60	2.0671005
86	0x4010fe38	2.2655163
87	0x40c83852	6.256875
88	0x40b77182	5.732606
89	0x40adc10f	5.4298167
90	0x400d6479	2.2092574
91	0x40b26b83	5.575624
92	0x3ebcad98	0.36851192
93	0x407dc37d	3.9650567
94	0x4071f0b4	3.7803164
95	0x40592264	3.392724
96	0x408c9eb5	4.3943734
97	0x400b1cac	2.173625
98	0x4092d641	4.588654
99	0x4056100b	3.3447292
100	0x40a75826	5.2295103
101	0x40bde567	5.934253
102	0x40bac096	5.836009
103	0x40becac3	5.962251
104	0x3f3f1445	0.74640304
105	0x4031e8c6	2.7798324
106	0x3f91fa50	1.1404514
107	0x40891f91	4.2851033
108	0x3ec84a09	0.39118984
109	0x3fbe72fe	1.4878843
110	0x40c33129	6.099751
111	0x4045aa46	3.0885177
112	0x40bc89c5	5.8918176
113	0x4098746b	4.764211
114	0x3fb0431d	1.3770481
115	0x40a7a93f	5.23941
116	0x3e339bdc	0.17539924
117	0x3feb0ce7	1.8363312
118	0x40892796	4.2860823
119	0x40066dd1	2.1004527
120	0x3fc34885	1.5256506
121	0x40828f8d	4.0800233
122	0x3fe4758f	1.7848376
123	0x4042916e	3.0401263
124	0x3fc07688	1.5036173
125	0x3f05e2d3	0.5229923
126	0x40b916bf	5.7840266
127	0x40300e58	2.7508755
128	0x408e6912	4.450326
129	0x409588a6	4.6729307
130	0x3fa002a4	1.2500806
131	0x3faee0d0	1.3662357
132	0x4056cd7f	3.3562925
133	0x40af4c13	5.4780364
134	0x3ff2a7f4	1.8957505
135	0x3f861cd3	1.0477546
136	0x406ae7bb	3.6703937
137	0x403067d0	2.7563362
138	0x408edcd1	4.464455
139	0x3e853179	0.26014307
140	0x40b8a4d6	5.7701216
141	0x3f753d52	0.9579669
142	0x3f1d2c3e	0.61395633
143	0x3fbf34ec	1.4938025
144	0x3f3a4e43	0.7277567
145	0x401a343b	2.409438
146	0x3fffb4ce	1.9977052
147	0x4061253a	3.5178971
148	0x3fd54e5b	1.6664537
149	0x3fb836be	1.4391706
150	0x3fb7e32c	1.4366202
151	0x401465b6	2.318708
152	0x3fb40f02	1.406708
153	0x40537f2f	3.3046377
154	0x3ff3bf55	1.9042765
155	0x402350da	2.5518098
156	0x3f628de7	0.88497776
157	0x4071902c	3.7744246
158	0x403cd757	2.9506433
159	0x40a61c49	5.190953
160	0x40b3cfc4	5.619112
161	0x3fc082f3	1.5039963
162	0x403f1622	2.9857259
163	0x406b7e90	3.6795998
164	0x3f307e63	0.6894285
165	0x408b7cd0	4.358986
166	0x40258a09	2.58655
167	0x4084f32b	4.1546836
168	0x3f8ced73	1.1009964
169	0x3ec3d685	0.38249603
170	0x3f3c793e	0.736225
171	0x406eba9e	3.7301402
172	0x401bedd8	2.4363918
173	0x3f030cec	0.5119159
174	0x40882edb	4.2557197
175	0x400164c0	2.0217743
176	0x408bcecc	4.3689938
177	0x40a1fd65	5.062182
178	0x40053876	2.081571
179	0x3fd966f3	1.6984543
180	0x40641ecf	3.5643804
181	0x409801e9	4.750233
182	0x3dfa8802	0.12232973
183	0x3fc409c1	1.5315477
184	0x4041481c	3.0200262
185	0x4001e4eb	2.029597
186	0x3f05ad52	0.5221759
187	0x3f95faa2	1.1717112
188	0x3f1cb58d	0.61214525
189	0x404cdbe2	3.2009206
190	0x3f107345	0.5642589
191	0x404aa83d	3.1665184
192	0x401500d8	2.3281765
193	0x3fa2e434	1.2725892
194	0x402dd204	2.7159433
195	0x40af11d8	5.470928
196	0x40bdff4b	5.9374137
197	0x4099861a	4.79762
198	0x4026b41c	2.604743
199	0x3f74379c	0.95397353
200	0x40bd3ded	5.9138093
201	0x40817c8f	4.046455
202	0x3f0a8456	0.5410818
203	0x4062cd89	3.5437949
204	0x40899e59	4.3005795
205	0x408dfdf3	4.4372497
206	0x40c2cb07	6.0872836
207	0x40201ac7	2.5016344
208	0x40ac1e40	5.3786926
209	0x3ed3b0ac	0.41345727
210	0x406a658a	3.6624475
211	0x40a5f30c	5.185919
212	0x40a65fa1	5.1991735
213	0x3fa69fc9	1.3017513
214	0x3fc18dc4	1.5121388
215	0x40176c3e	2.3659816
216	0x408c98f7	4.3936725
217	0x4067aebd	3.6200402
218	0x4084c99e	4.1496115
219	0x404ae7b5	3.1703923
220	0x4070a6fa	3.7601914
221	0x408c1183	4.3771377
222	0x3fe031fe	1.7515256
223	0x40ab2ea3	5.349443
224	0x4094d50a	4.6510057
225	0x40863c38	4.194851
226	0x3fb8efb7	1.4448155
227	0x40320ee2	2.7821584
228	0x3f654507	0.8955845
229	0x3fef1808	1.8679209
230	0x40b8673f	5.7626033
231	0x3eacfd9c	0.3378724
232	0x402afa80	2.6715393
233	0x40ba4e3d	5.8220506
234	0x3f77011f	0.96486086
235	0x40273a0c	2.612918
236	0x3fa33cea	1.2752964
237	0x4081c60d	4.055426
238	0x3da3eb3c	0.08003852
239	0x40521529	3.2825415
240	0x40294668	2.6449223
241	0x3f7438b7	0.9539904
242	0x3fb228fe	1.391876
243	0x3fa0eda5	1.2572523
244	0x40b94740	5.7899475
245	0x3ff66a7f	1.925125
246	0x3fe89863	1.8171505
247	0x3e4d3a09	0.2004167
248	0x3cdc2ce3	0.026876872
249	0x403b661f	2.928108
250	0x408f7eaa	4.484212
251	0x402c734a	2.6945367
252	0x4085dfbc	4.1835613
253	0x40a77a81	5.233704
254	0x40becccf	5.962501
255	0x405dc31c	3.4650335

embedding.net_.prediction_.weight f4 [1, 1000]
0	0xbdfe510c	-0.12417802
1	0xbeee49f1	-0.46540788
2	0xbe71d6d3	-0.23617105
3	0xbf91b594	-1.1383538
4	0x40031a47	2.0484788
5	0x3f4356c6	0.7630428
6	0xbe907f40	-0.28222084
7	0xbebbe717	-0.36699745
8	0xbf0bf006	-0.5466312
9	0xbd8fd58b	-0.07023152
10	0xbe0db606	-0.13838968
11	0x3f021a73	0.5082161
12	0x3e5fba9b	0.21848528
13	0x3f43d038	0.7648959
14	0x3d94d134	0.07266465
15	0xbf86669d	-1.0500065
16	0xbd1305f1	-0.035894338
17	0xbf9dee0d	-1.2338272
18	0xbf23c7de	-0.6397685
19	0x3e280df5	0.16411574
20	0x3f006fe2	0.5017072
21	0xbe0dff5c	-0.13866943
22	0xbf593822	-0.84851277
23	0x3f5e53a8	0.868464
24	0x3f80dcaa	1.0067341
25	0x3f65e2ce	0.897992
26	0xbe433722	-0.19064
27	0xbea358a6	-0.3190357
28	0xbf4c6e3a	-0.7985569
29	0xbf5708ec	-0.8399799
30	0x3d621560	0.055196166
31	0xbc840f52	-0.016120587
32	0xbe767cb9	-0.24071015
33	0xbf9ed0f8	-1.2407522
34	0xbf4f9a8c	-0.81095195
35	0x3ea02ca9	0.31284073
36	0x4023b540	2.5579376
37	0x3e7b4123	0.24536566
38	0x3fcd57e7	1.6042451
39	0xbf2760e7	-0.65382236
40	0xbf12e2ed	-0.5737751
41	0xbf306748	-0.68907595
42	0xbfaea763	-1.3644832
43	0xbd0fc591	-0.035100523
44	0x3fe7fa89	1.8123332
45	0xbe75cc86	-0.24003801
46	0x3d8e82d9	0.06958551
47	0x3f1a9a51	0.6039172
48	0x3f88e1a1	1.0693856
49	0x3ef50c52	0.47860962
50	0x3f299e08	0.6625676
51	0xbe57350e	-0.21016333
52	0xbf48c756	-0.7842916
53	0x3f066410	0.52496433
54	0x3c32db8f	0.010916605
55	0xc0264b28	-2.5983372
56	0x3f83b7ed	1.0290505
57	0x3f117af7	0.56828254
58	0x3cfc3375	0.030786255
59	0x3ec075e4	0.37589943
60	0xbf8e06a0	-1.1095772
61	0x3f4513e7	0.76983494
62	0xbf547ee8	-0.83006144
63	0xbe6e0b3d	-0.23246475
64	0xbff18a28	-1.8870287
65	0x3f0cd6b3	0.55015105
66	0x3fd27372	1.6441481
67	0xbfa18cc5	-1.2621084
68	0x3e797c59	0.24363841
69	0xbdd6b888	-0.10484415
70	0xbddec0a1	-0.10876585
71	0x3e511632	0.20418623
72	0xbf6df181	-0.9294663
73	0xbf87aea8	-1.0600176
74	0xbbcc255d	-0.00623004
75	0xbee05c94	-0.43820632
76	0x3f2a3479	0.66486317
77	0x3eaa0942	0.33210188
78	0x3f940665	1.1564451
79	0xbee75c3c	-0.45187557
80	0x3ecdef19	0.4022148
81	0xbf324e2a	-0.6965052
82	0xbf71efd3	-0.9450657
83	0x3f780195	0.96877414
84	0xbf402724	-0.75059724
85	0x3ea292c7	0.31752607
86	0xbe409400	-0.18806458
87	0xbf8a9941	-1.0828019
88	0x3fa4fe04	1.289002
89	0xbec01322	-0.37514597
90	0x3fc140bc	1.509788
91	0x3da71f8b	0.08160313
92	0xbe9856d5	-0.29753748
93	0xbde936a9	-0.11387379
94	0x40185023	2.3798912
95	0x3f54f9fd	0.8319395
96	0xbf43d014	-0.7648938
97	0x3f9a7857	1.2067975
98	0x3e5f9abe	0.21836373
99	0xbd1116f2	-0.035422273
100	0x3eda6ac8	0.42659593
101	0x3e33f2f4	0.17573148
102	0xbf330dc4	-0.6994288
103	0x3eb36ff9	0.35046366
104	0xbf1f621f	-0.62259096
105	0x3f7321b8	0.94973326
106	0x3f89bcf2	1.0760787
107	0xbe9296fa	-0.2863081
108	0xbf03ae9d	-0.51438314
109	0x3d0e28fa	0.034707047
110	0xbd6da38a	-0.05801729
111	0x3fb2ab09	1.3958446
112	0x3d13aa80	0.036051273
113	0x3f6dc879	0.9288402
114	0xbeb9ab05	-0.3626329
115	0x3e9b4b1f	0.3033075
116	0x3e0d3656	0.13790259
117	0x3b3ce3cf	0.0028822308
118	0xbf598cef	-0.8498067
119	0xbe407418	-0.18794286
120	0xbf2cb826	-0.6746849
121	0xbf929733	-1.1452392
122	0xbf5caa0d	-0.86196977
123	0x3f4605c0	0.77352524
124	0x3f5331b6	0.8249773
125	0xbf451ee0	-0.77000237
126	0xbefc6efb	-0.4930342
127	0xbe925e63	-0.28587636
128	0xbfe9cc82	-1.8265536
129	0xbfc8b70b	-1.568086
130	0xbf7b28d4	-0.98109174
131	0x3f11e7e6	0.56994474
132	0x3f4159a8	0.7552743
133	0xbc93e0eb	-0.018051585
134	0x3ffef8cb	1.9919676
135	0xbf73da53	-0.9525501
136	0x3ea4e772	0.3220783
137	0xbe5a270e	-0.2130396
138	0x3eec5147	0.4615576
139	0xbc93841e	-0.018007334
140	0xbf8c51ef	-1.0962504
141	0x3d27356d	0.040822435
142	0x3c3aadd7	0.011393986
143	0x3cc36d0c	0.023855709
144	0x3d51e318	0.051241964
145	0xbe90bf80	-0.28271103
146	0xbf3c523d	-0.73562986
147	0xbe88c074	-0.2670933
148	0x3ed6b7e6	0.41937178
149	0xbe4377aa	-0.19088617
150	0x3ec7fc3e	0.39059633
151	0x3fbccd4e	1.4750154
152	0xbddd1e4f	-0.107967965
153	0x3f4aa537	0.7915835
154	0x3cffa608	0.0312071
155	0x3f2fad55	0.6862386
156	0x3ef26370	0.4734149
157	0xbf9f0372	-1.2422926
158	0xbcf781a3	-0.030213183
159	0xbfa97bae	-1.3240869
160	0x3fa580a7	1.2929887
161	0xbf0dfd1a	-0.5546433
162	0x3fb007e4	1.3752408
163	0x3e4432ac	0.19159955
164	0x3e9e4ca6	0.30917853
165	0xbef0ab18	-0.47005534
166	0x3dbab064	0.09115675
167	0x3fd6d61d	1.6784092
168	0x3f0ad435	0.5423005
169	0x3e1731d5	0.14765103
170	0xbe262b16	-0.16227373
171	0xbf1b3037	-0.60620445
172	0xbf0fe299	-0.56205136
173	0xc00704a5	-2.1096585
174	0x3f71b546	0.94417226
175	0x3f74b7e4	0.95593095
176	0x3f726527	0.94685596
177	0x3e624637	0.22097097
178	0xbdbcc700	-0.09217644
179	0x3fc6f5ac	1.5543723
180	0xbdf03412	-0.117286816
181	0xbe453073	-0.19256763
182	0xbf75b9ac	-0.9598644
183	0x3f60629e	0.8765048
184	0xbe321142	-0.17389396
185	0x3f956057	1.1670026
186	0x3ed0f25a	0.408099
187	0x3e400af8	0.18754184
188	0xbefef6e1	-0.4979773
189	0x3fc41c11	1.5321065
190	0xbe7a03b7	-0.2441548
191	0x3c069b4e	0.008215738
192	0x3fa0a02b	1.2548879
193	0xbf8b9cea	-1.0907261
194	0x3f31e013	0.69482535
195	0xbfd27515	-1.6441981
196	0x3e4c1682	0.19930461
197	0x3f4fb1c4	0.81130624
198	0xbfb26cb7	-1.3939427
199	0xbfa82307	-1.313569
200	0x3f4056ca	0.7513243
201	0x3de53671	0.111920245
202	0xbfab2373	-1.3370193
203	0x3de711e2	0.11282708
204	0xbf11f000	-0.57006836
205	0x3d4268f6	0.04746338
206	0xbeaa0452	-0.3320642
207	0x3e85ceb7	0.26134273
208	0xbf4fb5e4	-0.8113692
209	0xbc9ea811	-0.01936725
210	0xbea2f6cb	-0.31828913
211	0x3e65ea3e	0.22452638
212	0x3f39e55c	0.726156
213	0x3f0d1faf	0.5512647
214	0xbf659b78	-0.8969035
215	0x3facd6f7	1.3503102
216	0x3f6c3816	0.9227308
217	0x3f2d694b	0.6773879
218	0x3ed6e3fc	0.41970813
219	0xbeaf1f9d	-0.34203807
220	0xbe815f12	-0.25267845
221	0xbf4d241d	-0.8013323
222	0x3dcd8b70	0.10036361
223	0xbfcbc4ec	-1.5919471
224	0xbf6c0207	-0.92190593
225	0xbf660fde	-0.8986796
226	0xbf3c7266	-0.7361206
227	0x3f9a2265	1.2041746
228	0xbfa82a00	-1.3137817
229	0xbf767d70	-0.9628515
230	0xbe58c066	-0.21167144
231	0xc00d9c42	-2.2126622
232	0xbe868c67	-0.26278993
233	0xbe227a8a	-0.15867057
234	0xbff8bcd9	-1.9432632
235	0xbed171cb	-0.4090713
236	0xbe9ec268	-0.31007695
237	0xbf54cb92	-0.83123124
238	0xbf92ccf6	-1.1468799
239	0x3e84b9d8	0.25923038
240	0xbf430d77	-0.7619242
241	0x3f621643	0.8831522
242	0x3f1d40e5	0.61427146
243	0xbf5a6c1d	-0.8532122
244	0xbeb0cefe	-0.34532923
245	0x3f81163e	1.0084913
246	0xbf8723b3	-1.055777
247	0xbefa781e	-0.48919767
248	0xbf8d4bb9	-1.1038734
249	0x3f3786fe	0.71690357
250	0x3f2806b0	0.65635204
251	0xbf179ea3	-0.59226435
252	0xbf248465	-0.6426452
253	0x3fb01b41	1.3758317
254	0x3f463b9a	0.77434695
255	0x3fceaaa1	1.6145822
