models/BendedLine.pt (torch, 10203 bytes, 5 tensors)

stiffness_.spd.weight f4 [2, 2]
00000000: f9d7 0e3f 464f 17ba d3fe 18ba fa64 563f
0.557983 -0.00057720055 -0.00058363116 0.8374783

dissipation_.spd.weight f4 [2, 2]
00000000: 10d1 b8b4 514a d139 47f3 17ba 8fc9 7eb9
-3.4424784e-07 0.00039918956 -0.0005796444 -0.00024298414

embedding.net_.linear_clamped_.weight f4 [500, 2]
00000000: 95a6 c6bf 9834 23c0 cb4a 48c0 4c31 b140
00000010: 7a27 3d3f 5490 1240 61bb e7be c413 03c0
00000020: 79ea 87c0 63b1 9040 deb2 3140 4cdd 813f
00000030: 2efc 8ebc 4855 023f cdd9 b43e 0ad9 fbbe
00000040: 4ed6 e73f 5c98 efbf b0be 43be 536e 93c0
00000050: 6241 27c1 7d02 493f 46db a3c0 ed7c e440
00000060: 08f6 99c0 5efa c640 a931 aa3f b096 ab3f
00000070: 58d7 63c0 0bf2 58bf cc33 2e40 5c2c c23f
00000080: fe8a 9940 3906 bdbf 63f8 ad3f 5e13 793e
00000090: 380e aabf 9ae1 b5bf 1002 84bf bf9b c53f
000000a0: adfb 38c0 9675 0c40 99d9 d9bf 6a06 263d
000000b0: 65f2 3bbd 926a f03f 7d4a 28bf 3611 223e
000000c0: ec7f a9c0 a0a2 823e f94a 43c0 9d29 a23f
000000d0: 536f d63c 1d23 70c0 9532 2a3f 2790 6340
000000e0: 31ca bdbe 05ef bdbf 4c83 94c0 e656 85c0
000000f0: 574c 1040 7641 8340 d239 0f40 d58f 4440
00000100: e6e7 d33f 3d8f 643f 2725 e5bf ce62 ad3f
00000110: 830e 3c40 b25c 8e40 2303 13c0 c28f 83bf
00000120: 9a6a aa3f f6ee 8b3f 917e 69c0 ff55 4240
00000130: c276 d5be 0b39 4940 f87c 3d40 ab81 ccbe
00000140: d1a1 22c0 7aec 7840 bae1 7fbe a5d0 6140
00000150: 7507 87c0 0450 823f 87c1 d4bf 21a0 15c0
00000160: 1142 8bbf fe77 3cc0 6f68 c7bf bb2b 2fc0
00000170: 4cb9 24bf 5e72 8140 3f17 3140 527b 52be
00000180: 313c 44c0 ce0a 973f bd26 dfbd 87f0 9a3f
00000190: 06e5 1340 5075 32c0 d054 61c0 9390 8d40
000001a0: 1137 7340 4ca3 823f ed1d 14c0 f5d4 41bf
000001b0: 7b8b 3b40 65a0 cbc0 dcd7 14c0 be97 8d40
000001c0: 0576 c0bf 02d8 a440 51e9 df3d 1fe2 78bf
000001d0: 6797 79c0 c9df 9940 fceb af3c e780 55bf
000001e0: 91e2 5bc0 dee3 253e ed1a 95bf ca4d 30bf
000001f0: bed5 9cbf 6bfb b9be eb16 bcbf 50d2 9640
00000200: 5cb1 123f 4cdd b8c0 ba5d 4440 c106 1240
00000210: 4a80 c33e 7f4f 9340 586a 1940 8ad5 0cc0
00000220: 84c1 02c0 b990 6f40 851c f23f 7f5c bebf
00000230: 4a84 26c0 ea6b 6a3f e268 4340 f9fa 56bd
00000240: ec5e 68bf 765b 9240 7001 4640 9602 48c0
00000250: 513a 0c3f 511b 2740 0b65 92c0 1a44 0fc0
00000260: 1297 2bc0 e9e3 aac0 9f2d 9740 e781 09c0
00000270: 7224 7240 cfb8 9c3f e3c5 b53e 1a5c 9f3f
00000280: 46c2 2440 a7bd d53f 2e94 ce3f 3aa5 8340
00000290: a251 94c0 3d7b 11c0 607e 71c0 a528 34c0
000002a0: eb2a 63bf 16f8 3940 bb96 7d40 2238 59bb
000002b0: 0d01 13c0 2a2f b03f a1cb 1940 da50 553d
000002c0: 0811 1bbf ed2e a03f 8027 b23f 13a9 11c0
000002d0: 1e7d 1cc0 3251 0a41 9ed0 68c0 2b7d 45c0
000002e0: 9ae2 cabe fada 60c0 20d8 7540 a88c 36c0
000002f0: c3a3 24bf 8d7b 833f 4931 c83f 0795 a3bf
00000300: 7125 cfbf 1165 c2bf 5ae3 a8bf 68dd 803e
00000310: 881f b1bf 20c8 3ec0 a0ab ab3f 1a1d b63f
00000320: 6780 a5bf 4baf c540 1b10 0e40 eb2e 793d
00000330: 5642 3340 a558 d33f 36e9 6fc0 bb06 3640
00000340: b55f 7240 dbfa fa3f 8349 9bbe d0f4 853e
00000350: 7513 cebf 3c61 0c40 aceb c13f 1ac8 db3e
00000360: fd18 023f 1842 19c0 0d80 2940 58aa 4140
00000370: eb9b eb3f 3771 15c0 362d 97c0 ff37 73bf
00000380: 9792 d3be c42d 7f3f e7a1 a5be 6067 a0c0
00000390: 7a83 86bf 2282 d93f d500 4abe 2839 b4bf
000003a0: c78d ffbc 1089 15c1 e074 a5bf 82ed 80bf
000003b0: 9ad6 2cc0 4962 e93f 2c22 2ac0 8e63 3840
000003c0: 97a0 ce3f 64ae 5f40 ef72 4240 2aea ab40
000003d0: df00 0740 90fc 99be 6199 39c0 f76e 953f
000003e0: 0502 babe 506c 7440 328f 01bf 72e8 8540
000003f0: e1ff 0e3f fbad d1bf 951b a040 82f8 fabf
-1.5519587 -2.550085 -3.129565 5.5372677 0.7388836 2.290059 -0.45260146 -2.0480814
-4.247372 4.5216537 2.7765422 1.014566 -0.017454233 0.5091138 0.3532242 -0.49189025
1.8112276 -1.8718371 -0.1911571 -4.6072173 -10.453463 0.7851942 -5.120517 7.1402497
-4.811283 6.2180624 1.3296405 1.3405361 -3.5600185 -0.8474433 2.7219114 1.5169787
4.798217 -1.4767524 1.3591427 0.24323794 -1.3285589 -1.4209473 -1.031313 1.5438155
-2.890361 2.1946769 -1.701953 0.04053346 -0.045885462 1.8782523 -0.6573866 0.15826878
-5.2968655 0.25514698 -3.051451 1.2668949 0.02617613 -3.7521431 0.6648343 3.5556734
-0.37068322 -1.4838568 -4.6410275 -4.1668577 2.2546594 4.101741 2.237904 3.0712788
1.6555145 0.89281064 -1.7901963 1.3545778 2.9383857 4.4488153 -2.2970665 -1.0278246
1.3313782 1.09323 -3.64835 3.0364988 -0.41692168 3.1441066 2.9607525 -0.3994268
-2.5411265 3.8894334 -0.24988452 3.5283597 -4.2196603 1.0180669 -1.662156 -2.3378985
-1.0879537 -2.9448237 -1.5578746 -2.737044 -0.6434524 4.045211 2.7670438 -0.20554855
-3.0661738 1.1800172 -0.108960606 1.2104653 2.3108535 -2.7884102 -3.5208015 4.423898
3.800236 1.0206084 -2.3143265 -0.7571557 2.9303882 -6.3633294 -2.325675 4.424773
-1.5036017 5.151368 0.109331734 -0.97220033 -3.8998659 4.8085675 0.02147483 -0.83399814
-3.4357035 0.16200206 -1.1648842 -0.68868697 -1.2252729 -0.3632463 -1.4694494 4.713173
0.5730188 -5.777014 3.0682206 2.2816622 0.38183814 4.603454 2.3971157 -2.2005334
-2.0430613 3.7432082 1.8914953 -1.4871978 -2.6018243 0.91570914 3.0532765 -0.05248544
-0.9076984 4.5736647 3.0938377 -3.1251578 0.54776484 2.6110423 -4.5748343 -2.2385316
-2.6810956 -5.340321 4.724319 -2.1485536 3.7834744 1.2243899 0.35502538 1.2449982
2.5743575 1.6698502 1.6138971 4.1139193 -4.634965 -2.2731469 -3.7733383 -2.8149807
-0.8873736 2.905767 3.9623249 -0.003314503 -2.2969391 1.3764393 2.4030535 0.05207906
-0.6057286 1.2514321 1.3918304 -2.2759445 -2.4451365 8.644823 -3.637733 -3.0857646
-0.39626008 -3.5133653 3.8413162 -2.852335 -0.6431238 1.027208 1.5640041 -1.2779855
-1.6183301 -1.5187093 -1.3194382 0.2516892 -1.3837748 -2.9809647 1.3411751 1.4227631
-1.292981 6.177648 2.219733 0.06083576 2.8009238 1.6511427 -3.748609 2.8441608
3.7870915 1.9607805 -0.30329522 0.2616334 -1.6099688 2.1934347 1.5150046 0.42926103
0.5081938 -2.394659 2.6484406 3.026022 1.8406957 -2.335035 -4.724269 -0.9500732
-0.41322777 0.9967921 -0.32350084 -5.012619 -1.0508873 1.6992838 -0.1972688 -1.4079943
-0.031195534 -9.345963 -1.2926292 -1.0072482 -2.7005982 1.8233119 -2.6583357 2.8810763
1.6142758 3.495019 3.038265 5.3723345 2.1094282 -0.30075502 -2.8999865 1.1674489
-0.36329666 3.8191109 -0.50609124 4.1846247 0.5585919 -1.638122 5.003367 -1.9607089

embedding.net_.linear_clamped_.bias f4 [500]
00000000: aa57 bf3e 4c27 8640 7510 9c3f 85d9 c840
00000010: e919 7640 5b6e 9a3f 2f63 ab40 6294 ff3c
00000020: 74c0 9a40 4301 6140 7bf8 1e40 af3d 8640
00000030: cd29 9640 0e36 d93f 1d9c 9740 29b7 9e40
00000040: 5b8b e53f 568c 0340 590e 1040 6c5c a340
00000050: 7b0b f83f d37f 6640 3ecb 8940 ea2b 7440
00000060: 0b54 2640 4a7a 6040 31b4 4640 df19 293f
00000070: a393 7440 96d2 2c40 5c31 e23f 12b4 423f
00000080: 4434 b83f 9339 aa3e 0a36 4f40 b7a9 ba40
00000090: a4c3 8c3e 777d 8140 43cb ab40 4827 bb40
000000a0: 9c62 9a3f 347a 3040 b7df fe3f e50c e43f
000000b0: ce1d a440 7182 1940 347f 4440 45b6 4940
000000c0: fcba 7a3f 6d15 be40 97b2 9f40 4dd0 a040
000000d0: f009 593f 9cd6 9840 d032 1440 7c89 9440
000000e0: 9c34 bc40 919a ba40 4fcd 7c40 dab6 4740
000000f0: 0206 8040 25ec c840 c98b e13f 676e 6d40
00000100: d16b 9b40 4d03 5d3e f40f ad40 a920 b040
00000110: 205e 6e3f 6f5a 993f 030f a240 cb18 8840
00000120: 2be5 2d40 df5e 033f 1ab0 593f a9a0 1f3f
00000130: 7683 c440 55cd c240 842d 9540 d346 6b40
00000140: 7425 493d 3a9d a040 7c8a b83c 3681 b340
00000150: b415 6c40 7898 ce3f 3a51 f23f a2a9 6840
00000160: 10ea 1a40 9e58 e73f ec9d 8340 5a74 9940
00000170: d083 9b40 0a4a b53f 799a 8440 8287 1c3e
00000180: da04 5f40 1362 0540 e444 5e40 e382 dc3e
00000190: 8729 8240 c905 ae40 b12f b340 1689 b73f
000001a0: 03cc 5040 3ff5 093f 83e5 b140 877b bc3f
000001b0: 4ce0 ac40 a97b 923f c7cf 983f 1ec7 b040
000001c0: 180d c240 07ae 103f 3c0b 4740 5bc4 9640
000001d0: eb22 0140 9f06 2440 3324 543f e59c 403f
000001e0: 5762 5740 c29f 1d40 989c c840 e358 083f
000001f0: c749 1a40 5176 a440 5d60 bd40 c982 8340
00000200: 2905 263f bed1 b740 0941 a240 79bf 5c40
00000210: 632e 7e3f 5f10 073f b57c 6240 0916 0640
00000220: 1b4a 233f e741 2d40 9b72 7340 2a5a b640
00000230: 9c9a 433f bbfa 6140 96f5 c63f 42b8 9d40
00000240: f076 1540 3e7c 9c40 ae07 b43f fcc8 9540
00000250: 53f3 fa3f 7085 b840 8938 ae40 486b 9540
00000260: 1317 b23f f2cf 8f40 bcd3 f13f f196 0240
00000270: f777 a140 fd63 f93f 6c8c 8440 e5c0 6940
00000280: 890b a440 71e2 8a40 6b90 7d40 7a20 4f40
00000290: a6b5 8840 0b17 7540 2042 f33e 9779 7040
000002a0: f3b3 643f 98d4 4040 2b7e ae40 7966 6a40
000002b0: 45f9 ac40 e3dc aa3e 32de 6240 093a 883d
000002c0: ba3a 8d3f 72f7 0e40 709f 393e 42d9 bb3f
000002d0: b9e8 2c3f 46ed 823f d8ad 7e40 b19f 6d3f
000002e0: 9d34 5340 54cf 0140 8f30 ab40 70d8 0d40
000002f0: 3f25 0240 0bf5 3e40 184c 9a40 6d5e 6840
00000300: 435c 9a40 25bc 9e3f 5065 c440 a1df 8140
00000310: ffb4 5f40 feb6 b340 e8b1 ee3f 1950 9b3e
00000320: bfe7 893f 5dfa 9a3f 5501 0a40 4ddd c440
00000330: b43c 6c40 f4f3 3140 1aea 3640 cce2 723f
00000340: babb 9d40 b6a2 5940 35c8 c240 2a29 803f
00000350: 766e 0040 f189 0340 f75d 5340 2536 a440
00000360: 1147 5340 8850 a53f 6ad8 0c40 9b7c af3f
00000370: af1a 4b40 982c 5040 08df ef3f 5767 933e
00000380: 8c38 9a40 6bda a440 33a8 f73f 9eab 9f40
00000390: be3f a040 d02a 973f afe2 3040 1766 103f
000003a0: 3de2 053f f5d9 163f f34a 1940 a81d a940
000003b0: a86d f93d d674 9c40 d307 9140 c8fc bf40
000003c0: a6bc 2640 026c 0940 a16d 2a40 ae90 8240
000003d0: ce91 0d3d 559f 3240 022a 9940 93bd 6340
000003e0: 33bc 9240 9d43 2740 5cb1 533e bcb0 a940
000003f0: 6040 b73e dd9b 8940 0ec8 2c3c 654e eb3f
0.3737157 4.192297 1.2192522 6.2765527 3.8453314 1.2064928 5.3558574 0.031198684
4.835993 3.515702 2.483916 4.1950297 4.6926026 1.6969621 4.737807 4.9598584
1.7933153 2.0554404 2.2508757 5.105032 1.9378504 3.6015518 4.30606 3.8151803
2.5988796 3.507464 3.104748 0.660551 3.821511 2.7003531 1.7671313 0.76056015
1.439095 0.3324705 3.2376733 5.833217 0.27493012 4.0465655 5.368562 5.848545
1.2061343 2.7574587 1.9912022 1.7816435 5.1286383 2.3985865 3.0702639 3.1517498
0.97941566 5.9401155 4.9905505 5.0254273 0.8478079 4.7761974 2.3156013 4.6417828
5.881422 5.831368 3.950031 3.1205354 4.0007334 6.278826 1.7620784 3.7098634
4.856911 0.2158329 5.4081974 5.503987 0.93112373 1.1980723 5.0643325 4.2530265
2.7171123 0.51316637 0.85034335 0.6235452 6.1410475 6.087565 4.661806 3.6761978
0.049107984 5.0191927 0.022526972 5.609523 3.6888247 1.614028 1.8931038 3.6353536
2.420536 1.8073919 4.1130276 4.795453 4.8598404 1.416322 4.1438565 0.15286067
3.484671 2.084111 3.4729548 0.4306861 4.0675693 5.438206 5.5995717 1.433871
3.262452 0.5388984 5.5592666 1.4725198 5.40238 1.1443988 1.1938409 5.5243063
6.0640984 0.56515545 3.1100607 4.711469 2.0177562 2.5629041 0.82867736 0.752394
3.3653772 2.4628758 6.2691154 0.5326063 2.410753 5.139443 5.918013 4.109715
0.64851624 5.7443533 5.070439 3.4491866 0.9928953 0.52759355 3.5388615 2.095095
0.6378495 2.7071474 3.80387 5.6985064 0.7640779 3.5309284 1.5543697 4.9287424
2.3353844 4.8901663 1.4064844 4.680784 1.9605507 5.7662888 5.4444013 4.669346
1.3913292 4.494134 1.8892741 2.0404627 5.045894 1.9483639 4.1421413 3.6523983
5.126408 4.340142 3.9619396 3.2363572 4.272174 3.8295314 0.47511387 3.7574213
0.8933708 3.0129757 5.4529014 3.6625044 5.4054284 0.33371648 3.5448117 0.06651694
1.1033547 2.2338529 0.18127227 1.4675677 0.67542607 1.022866 3.9793606 0.92821795
3.3000863 2.0282793 5.3496776 2.2163353 2.0335233 2.9837062 4.821789 3.6307633
4.8237624 1.2401167 6.1373672 4.0585485 3.4954221 5.616088 1.8648043 0.30334547
1.0773848 1.2107655 2.1563313 6.1520143 3.691205 2.7805147 2.8580384 0.94877315
4.929166 3.400556 6.0869393 1.0012562 2.006742 2.0552943 3.3026102 5.1316094
3.3012125 1.2915201 2.2007089 1.3709902 3.1735036 3.2527218 1.8739939 0.2878978
4.8194027 5.1516623 1.9348205 4.9896994 5.007781 1.180994 2.7638357 0.56405777
0.5229834 0.58926326 2.3951995 5.28487 0.121791184 4.889262 4.532205 5.999607
2.6052642 2.1472173 2.6629412 4.080161 0.03456288 2.7909749 4.786378 3.5584457
4.5854735 2.6135018 0.20673126 5.302824 0.35791302 4.3002763 0.010545744 1.8383299

embedding.net_.prediction_.weight f4 [1, 500]
00000000: 0ac6 37be 1dce 31be 5b5c dd3d 69e4 77be
00000010: 02b6 93be cb81 94be ce25 8ebe a5d3 b4be
00000020: e112 d83d 07b2 0a3e 3802 16bf 1215 4b3e
00000030: 4fc9 453d f9b8 81bd 7bfa 53be 33a9 4a3e
00000040: 1fcc 65be f263 46be be66 2d3e 8f3a 8bbe
00000050: 38cd 6e3d 51d4 1fbe 3b30 26be f487 58be
00000060: c40f f4bd 18d9 53bd 9c92 573e 671a 13be
00000070: 458b 853e f9e1 f1be 82a9 653e ec88 10bd
00000080: 699e 30be 00e0 9bbe 4589 8cbe 3984 84be
00000090: 6686 2abe 6a64 fabd 9a47 2cbe dd8a a53d
000000a0: f5ec 81be 45ef 3d3e cb58 c33d f1c8 1b3d
000000b0: 9a78 dc3c 4575 bf3d bf0b 083e 9cc3 9b3d
000000c0: fd24 083e dd72 96be 08b7 abbd ddb3 343d
000000d0: 9a8b 9ebe d94f 3dbe 0fbb 7ebe 1aad 743e
000000e0: 7c02 273e 7928 55be d7a2 63be 24b7 8b3e
000000f0: d3bd c2bd ef5a d6bd 629d 4c3e eaf9 aabd
00000100: f5b3 4f3e 5455 e53d cc03 94be 7cfc 95bd
00000110: 06e6 a0be 0c81 46be cc5e 26be 59ca 583e
00000120: ea2f e43b a6c3 023d abd3 2fbe 835a 4a3e
00000130: 8001 ba3e 284f 9c3e 61f0 803e 7625 1e3e
00000140: df13 b5bb 7204 e0be a689 213e 7be4 0e3d
00000150: b290 9d3e e532 1ebe d076 483e 85bb a83e
00000160: a2dc 953e 9559 83bd 979c 01bf 0001 d9be
00000170: e19b 9e3e 3814 97bd 5726 1ebe dd93 bfbe
00000180: 87ea a03d b9b3 a93e e203 1f3e fc40 0dbe
00000190: 391b 83be 7ac9 543e d11d 7a3e 8562 fc3d
000001a0: 750d b9bd ce40 893e d60e 30be a73e 4ebe
000001b0: 14a9 9dbe affb a4bd 48d8 93bd 449f 24be
000001c0: 14fb aabe c24a 22be f49d 973e aa1b 7c3e
000001d0: c97e 373e a989 303e bc4a 673d 64f9 08be
000001e0: 01c1 6e3d e20f bf3c 7120 6abe 0688 5c3b
000001f0: 86a9 023e aacb c7bd 10c5 c3be 4b17 933d
00000200: 0e25 30be c11f a3be 2af1 393d 5502 d5be
00000210: 20ab 94be 43fb 1abe 656e 903e 1746 1ebe
00000220: f383 973c b78f 943e 0cc6 943d df74 913e
00000230: 6d96 123e 0710 803e 8d34 113e 3bab cbbd
00000240: 9191 e5bd ed8f 933e 0621 b3be 1505 9fbd
00000250: b376 63be 82b2 7dbe 75aa 8fbe 0686 a2be
00000260: be23 8fbe 0f7d 96bd c721 0ebe 7914 19be
00000270: ecfe 2f3e 53a1 413e bd8c 24be 6279 9a3e
00000280: ce9e e9bd 6c83 07be db2c 8fbd f1e7 c73d
00000290: 638d d13e 7e3a 963e 980f a5be ab51 9cbd
000002a0: 85f2 04be 71ef 4f3d a04f 73be 2241 763e
000002b0: 6438 ae3d 0d2c 1abe 96d3 123e e3c0 d7be
000002c0: 970b 3dbe f477 913e 22ad b3be 2334 683e
000002d0: 3052 81be 54b9 07be 76bf 9fbe d7db 9abc
000002e0: 8162 893e 1b6b 433e 4b0d b23d ec33 cd3e
000002f0: 98ab cb3c 7351 2f3e 27d7 8ebe 10e9 583e
00000300: 6485 b73d 15c2 073c 2d7b c0be 2a5e f43d
00000310: 073b 913e 533e e23d dd7b 293e e5d2 2ebe
00000320: 9873 03be f6d6 a53e ff6a abbd 7f96 c93e
00000330: 8a50 6c3e 4025 af3e 4a59 a3bc 513b 9ebe
00000340: 0f4b 9ebe 6e49 983c afbe 45be 656d 7b3e
00000350: 1295 e2be b49a 9e3e 7fff 5d3d bfe8 43bc
00000360: e17f f1bc 04c6 f83d d500 863e 3db0 84be
00000370: 9be0 68bd 15a9 c13e 1dcc 3dbe 3efd 0b3e
00000380: 396b cbbb 6f46 d5bb 148c b93e 1761 453d
00000390: 0827 8fbe ed3b 133e 327e 5b3e c2d9 583d
000003a0: 021e 293d ffbb be3d 23cb 9c3e 3ba9 07be
000003b0: 4f08 353a c018 5abe 0148 7abe 749a bebe
000003c0: 7fc8 f43d b110 7d3e 1c01 b6be ee6c c5bd
000003d0: ee12 483d 6b4d 2c3e f966 3fbd 4cbc 15be
000003e0: 1529 f93d 29c3 b83e b7cb 5abe acbb d43d
000003f0: 3c5a 44be 44ca 1ebe af95 533e 03da c43c
-0.1794664 -0.17363782 0.10808631 -0.24208225 -0.28849798 -0.29005274 -0.27763218 -0.35317722
0.10550476 0.13544475 -0.58597136 0.19832256 0.048287686 -0.06334109 -0.2070102 0.19791107
-0.22441147 -0.19374064 0.16933724 -0.27193114 0.05830118 -0.15608336 -0.16229336 -0.21145612
-0.119170696 -0.05172071 0.21052021 -0.1436554 0.26082817 -0.47242716 0.22427943 -0.03528683
-0.17247929 -0.30444336 -0.27448478 -0.25882128 -0.16652831 -0.12226184 -0.16824189 0.08083127
-0.25376096 0.18548305 0.0953842 0.03803343 0.026912976 0.09348539 0.13285731 0.07605669
0.1329536 -0.2938451 -0.0838452 0.044116843 -0.30965883 -0.1848749 -0.24876045 0.23894158
0.16309541 -0.2081622 -0.22230087 0.27288163 -0.09508862 -0.10466563 0.19981912 -0.083484486
0.20283492 0.11197916 -0.28909147 -0.07323548 -0.31425494 -0.19385165 -0.162471 0.2117094
0.0069637196 0.031924866 -0.17170589 0.1976109 0.3632927 0.3052914 0.25183395 0.15443978
-0.0055260505 -0.43753392 0.15775165 0.034885865 0.30774456 -0.15449102 0.19576573 0.32955566
0.29269892 -0.06413571 -0.5062956 -0.42383575 0.309783 -0.07376903 -0.15444313 -0.37417498
0.078572325 0.3314493 0.15528825 -0.13794321 -0.25606707 0.20779982 0.24425437 0.123234786
-0.0903577 0.26807255 -0.1719316 -0.20141087 -0.3079306 -0.08055817 -0.07218987 -0.1607638
-0.33394682 -0.1584883 0.29612696 0.24619928 0.17919458 0.17240013 0.056467757 -0.13376385
0.05828953 0.023323003 -0.22863938 0.0033650412 0.1275998 -0.09755643 -0.38236284 0.07182177
-0.17201635 -0.31860164 0.045396008 -0.41603342 -0.29036808 -0.15134911 0.28209224 -0.15456425
0.018495535 0.29015896 0.07264337 0.28409478 0.14315195 0.25012228 0.14180203 -0.09944769
-0.11209405 0.28820744 -0.34986132 -0.07764641 -0.22213249 -0.24775127 -0.28059736 -0.31742877
-0.27956957 -0.07348072 -0.13880073 -0.14949216 0.17187089 0.18909197 -0.16069312 0.30170733
-0.11407243 -0.13233727 -0.069909774 0.09761036 0.40928182 0.293415 -0.3223846 -0.076327644
-0.12983139 0.05076546 -0.23760843 0.24048284 0.085068494 -0.15055867 0.14338526 -0.42139348
-0.18461452 0.2841183 -0.35093027 0.22676139 -0.25258017 -0.13254291 -0.3120076 -0.018903656
0.26832965 0.19083826 0.08693942 0.40078676 0.024862096 0.17120914 -0.27898523 0.21182656
0.08960989 0.008286019 -0.37593976 0.11932023 0.28365347 0.11047044 0.16551156 -0.17072637
-0.12837064 0.32390565 -0.08370017 0.39372632 0.23077598 0.34208107 -0.019940037 -0.3090463
-0.3091664 0.018589702 -0.19311021 0.2455345 -0.44254357 0.30977404 0.05419874 -0.011957346
-0.029479923 0.121471435 0.2617251 -0.2591571 -0.056854825 0.37824312 -0.18534894 0.13670823
-0.0062078503 -0.0065086405 0.36239684 0.048188295 -0.27959466 0.14378329 0.21434858 0.052942045
0.041288383 0.09313201 0.3062373 -0.1324815 0.000690584 -0.21298504 -0.2444153 -0.37227213
0.11952304 0.24713399 -0.3554772 -0.09639917 0.048846178 0.16826408 -0.04672906 -0.14622611
0.12166039 0.36086395 -0.21366774 0.10387358 -0.19175047 -0.15506846 0.20662569 0.024029737
