models/CShape.pt (torch, 10139 bytes, 5 tensors)

stiffness_.weight f4 [2, 2]
0	0x3f800000	1.0
1	0x00000000	0.0
2	0x00000000	0.0
3	0x3f800000	1.0

dissipation_.weight f4 [2, 2]
0	0x40800000	4.0
1	0x00000000	0.0
2	0x00000000	0.0
3	0x40800000	4.0

embedding.net_.linear_clamped_.weight f4 [500, 2]
0	0x408204fe	4.0631094
1	0x3eb34bb4	0.35018694
2	0xbf9f1d13	-1.2430748
3	0x4071fda8	3.781107
4	0xbfc47e5d	-1.5351063
5	0x3f703f11	0.9384623
6	0x40452412	3.0803266
7	0xbef49e10	-0.47776842
8	0x403dc902	2.9653935
9	0xbf360c1e	-0.7111224
10	0x3fb5d4cf	1.4205569
11	0x3f228fd1	0.63500696
12	0x404596d9	3.087332
13	0xc0d10714	-6.532114
14	0x3f8f07e6	1.1174285
15	0xbfd5c016	-1.6699245
16	0x402e9279	2.72769
17	0xc03596ec	-2.8373365
18	0x3c871b89	0.016492622
19	0x3e37ca55	0.17948277
20	0xc08063c4	-4.0121784
21	0xc04d5373	-3.2082183
22	0x3eb61abd	0.35567275
23	0xbfec5a46	-1.8465049
24	0xc066fe1a	-3.6092591
25	0x3eb296b3	0.348806
26	0x4003c30b	2.0587795
27	0xbe771947	-0.24130736
28	0xc06b2387	-3.6740434
29	0xbfe91e94	-1.8212457
30	0x401a94de	2.4153361
31	0x3fedae9c	1.8568912
32	0xc0af676f	-5.481376
33	0x3ec26438	0.37967086
34	0xbfe466d4	-1.7843881
35	0xbf30c3cf	-0.6904878
36	0xbf07e9e9	-0.53091294
37	0xbf9b5973	-1.2136673
38	0x3f827193	1.019091
39	0x3fd5680f	1.6672381
40	0xc04bc1b1	-3.183697
41	0x3d8e2bec	0.06941971
42	0x405fb00f	3.4951208
43	0x404cdd27	3.200998
44	0xc011101a	-2.2666078
45	0x3e81a65c	0.25322235
46	0x3fddc26a	1.7324955
47	0x40649183	3.5713813
48	0x40539cbc	3.3064413
49	0x40780258	3.875143
50	0x40477928	3.1167698
51	0x401532f9	2.3312361
52	0xbeda6cdb	-0.42661175
53	0xbff1e050	-1.889658
54	0xbbb4bd97	-0.005515765
55	0xc02c2ed3	-2.690358
56	0x3fe6e9f4	1.8040147
57	0x40a299e9	5.081288
58	0xbff0dfc2	-1.8818285
59	0x3e86b5c9	0.26310566
60	0xc0048942	-2.0708776
61	0xc08723ef	-4.2231364
62	0x401ea1e4	2.478631
63	0xbfa301f9	-1.2734977
64	0xbe678703	-0.22610097
65	0x4038d23f	2.8878324
66	0x3d602ec8	0.054732114
67	0xc060de1b	-3.5135562
68	0xc095edb0	-4.6852646
69	0x40a130c1	5.0372014
70	0x3fb08742	1.3791277
71	0x3fddb30d	1.7320267
72	0x3fb80f7a	1.4379723
73	0xbf7c0cf1	-0.98457247
74	0x401ce451	2.4514353
75	0x4085e343	4.183992
76	0xc0415f8e	-3.0214572
77	0xc04680b4	-3.1016054
78	0x40bb8c68	5.8608894
79	0x40673e0f	3.6131628
80	0x3ee97a6e	0.4560122
81	0xbfb7e839	-1.4367744
82	0xbfd1aab3	-1.6380218
83	0xc0c1e5d7	-6.0593066
84	0xc0c25836	-6.073268
85	0x4067f824	3.6245203
86	0xc022ddea	-2.5447946
87	0x4023b90d	2.5581696
88	0x3ff77537	1.9332646
89	0xbfef5f6f	-1.8700999
90	0xbe48396c	-0.19553155
91	0x400ef37c	2.233611
92	0xbf657c91	-0.896432
93	0xc0187f5b	-2.3827732
94	0xc030be4f	-2.7616155
95	0xbf1ba36c	-0.60796237
96	0xc0476505	-3.1155407
97	0x401f3134	2.4873781
98	0x3fde4ae2	1.7366602
99	0x401dfc24	2.4685144
100	0xbf1b2250	-0.6059923
101	0x3ed9fe50	0.42576838
102	0x403bf324	2.9367151
103	0x40857bc6	4.171359
104	0xc0412879	-3.0180953
105	0xc0896f47	-4.2948337
106	0xc08d879e	-4.422805
107	0xc0332b37	-2.7995126
108	0x3f0e6bec	0.55633426
109	0x3e286184	0.1644345
110	0xbfde213c	-1.7353892
111	0x4043b424	3.05787
112	0x3ed05507	0.4068987
113	0xc0f3cc8c	-7.618719
114	0x40ad25f7	5.4108844
115	0xc09a3c76	-4.8198805
116	0x40ba5303	5.8226333
117	0x4020d2ca	2.5128655
118	0x3ec4a758	0.38408923
119	0xbd935b37	-0.07195132
120	0xbf2fbdeb	-0.68649167
121	0xbd85653c	-0.065134495
122	0x4003ee84	2.0614328
123	0xc052050c	-3.281558
124	0x4011b132	2.2764401
125	0x40452f0c	3.0809965
126	0xc083914b	-4.111486
127	0x406e6d97	3.7254388
128	0x3eaf5294	0.3424269
129	0x405cac1b	3.4480045
130	0xbf907153	-1.1284584
131	0xc0169dd0	-2.353382
132	0xbc30d22e	-0.010792298
133	0x402148f9	2.520079
134	0xc0549b89	-3.321993
135	0x3fc2e554	1.5226235
136	0x3e8db791	0.27679113
137	0xbf910adf	-1.1331443
138	0xbf88a3db	-1.0675005
139	0x3edad0ce	0.4273743
140	0x403e6277	2.9747598
141	0xc02ac6bc	-2.6683798
142	0xbfb687cc	-1.4260192
143	0x3ff90f12	1.9457724
144	0x3fd8d9e5	1.6941496
145	0xbedf7359	-0.4364269
146	0xbfb525a2	-1.415211
147	0xc07e2d58	-3.9715176
148	0xc03128f4	-2.7681246
149	0x405a5f41	3.4120638
150	0xbf341cd5	-0.70356494
151	0xbc930686	-0.017947447
152	0xc0059eae	-2.08781
153	0xc098ecf3	-4.7789245
154	0x40d2dc88	6.5894203
155	0xbf68f9f0	-0.91006374
156	0x3f457d25	0.7714408
157	0xbfd3575e	-1.6511037
158	0xc0345473	-2.8176544
159	0xbf149db2	-0.58053124
160	0xbe81b0f2	-0.2533031
161	0xbfa7a604	-1.3097539
162	0x3f3a99af	0.7289075
163	0xbfb5135e	-1.4146535
164	0xbe540d89	-0.20708288
165	0x4080f52d	4.0299287
166	0xc064efd0	-3.577137
167	0xbe991ca1	-0.29904655
168	0xbfd4ca94	-1.6624322
169	0x405af264	3.4210443
170	0xc0420aa8	-3.0319004
171	0xc02f4350	-2.7384834
172	0x40415d2c	3.0213118
173	0xbf952135	-1.1650759
174	0x3fbb46c6	1.4630973
175	0x402f560d	2.7396271
176	0x3ebd60bd	0.36987868
177	0x4081045b	4.0317817
178	0xbff31570	-1.8990917
179	0x3fe97508	1.823884
180	0xbf9b4312	-1.2129843
181	0x3f0d7d04	0.55268884
182	0xc039598e	-2.896091
183	0xc0004698	-2.0043087
184	0xc0b7fc98	-5.749584
185	0x40490a71	3.1412623
186	0x400f7830	2.2417107
187	0xbe3f5baa	-0.18687311
188	0x3ee5e953	0.44904575
189	0xc0e76e6a	-7.2322283
190	0xbf0bd7b8	-0.54626036
191	0xbeca59cc	-0.39521635
192	0xbfc93b9d	-1.5721318
193	0xc07eef0b	-3.98334
194	0xc037d77d	-2.8725274
195	0x3fbee138	1.4912481
196	0xc006fb2a	-2.1090798
197	0x3ffef7dc	1.9919391
198	0xc0205695	-2.5052845
199	0x3dfd0c42	0.123558536
200	0xc0270103	-2.6094368
201	0xc00e4d9a	-2.2234864
202	0xc062c70a	-3.5433984
203	0x401f1406	2.4855971
204	0xc045f2e8	-3.0929508
205	0xc033c9a2	-2.8091817
206	0xbfc38f7d	-1.5278164
207	0x3ff279e4	1.8943448
208	0x3f40b9c8	0.7528348
209	0x40608d16	3.5086112
210	0x40a21061	5.0644994
211	0xc07c31e0	-3.9405441
212	0x3f80606f	1.0029429
213	0x409f2fb3	4.9745727
214	0xc0a75a63	-5.2297835
215	0x407a5891	3.9116557
216	0xc09ef139	-4.966946
217	0xc0ae6cc6	-5.450778
218	0xc0bd8d4b	-5.9234977
219	0xbfc8368e	-1.5641649
220	0x401b749f	2.428993
221	0x3fb1a457	1.3878278
222	0x3f7cabe8	0.9869981
223	0x3db1536f	0.08658492
224	0xbfa3d47f	-1.2799224
225	0xc0203bba	-2.5036454
226	0x402abb64	2.6676874
227	0x3ca357e8	0.019939378
228	0x40796e20	3.8973465
229	0x3f8fc66d	1.123243
230	0x405e8a56	3.4771934
231	0x3dae5010	0.085113645
232	0x3fde3703	1.7360538
233	0x403e608c	2.9746428
234	0xbeee52a6	-0.4654743
235	0xbf7aa2ae	-0.9790448
236	0x4024c9dc	2.5748205
237	0xc066a88a	-3.6040368
238	0xc07ebbe6	-3.9802184
239	0x4020404c	2.5039244
240	0xbe0fc394	-0.14039451
241	0x3ff4ccea	1.9125035
242	0xbf84fc14	-1.0389428
243	0xbfb4f643	-1.4137653
244	0x3f68d6e6	0.9095291
245	0xbfcdcb9b	-1.607776
246	0xbf9283ac	-1.1446433
247	0xbff0141c	-1.8756137
248	0xc024d911	-2.5757487
249	0xbf48197a	-0.78163874
250	0x402a8e5d	2.6649392
251	0xbf93e1f8	-1.1553335
252	0xc01a6c1c	-2.4128485
253	0xc0cabca2	-6.3355265
254	0xbed078d3	-0.40717182
255	0xbf4b529c	-0.79422927

embedding.net_.linear_clamped_.bias f4 [500]
0	0x403c5743	2.942826
1	0x3fd3cb4a	1.6546414
2	0x40a26221	5.0744786
3	0x40c0f268	6.0295906
4	0x3e8002e3	0.25002202
5	0x3e15a3fe	0.1461334
6	0x40c90510	6.281868
7	0x402aff49	2.6718314
8	0x4066a5fd	3.6038811
9	0x40bcef4e	5.904212
10	0x40a94c74	5.2905827
11	0x40b58755	5.67277
12	0x40b93d8a	5.788762
13	0x40a77624	5.2331715
14	0x3ffdf8fb	1.9841608
15	0x3f962176	1.1728961
16	0x401cf370	2.4523582
17	0x3f8af4e8	1.085599
18	0x40534466	3.3010497
19	0x40b8a663	5.770311
20	0x3f90ce0f	1.1312884
21	0x40281961	2.626549
22	0x409f53e6	4.9789915
23	0x3f02147e	0.5081252
24	0x40730cf9	3.7976668
25	0x40106ef2	2.2567716
26	0x3faa35af	1.3297633
27	0x403934b4	2.8938417
28	0x3f47ab23	0.7799551
29	0x40481bd4	3.1266985
30	0x3ff8799f	1.9412116
31	0x40314f6e	2.770473
32	0x3ea94f54	0.33068335
33	0x404ab1da	3.1671052
34	0x403228f2	2.783749
35	0x4041fb86	3.0309768
36	0x409c8bde	4.8920736
37	0x408d122e	4.408469
38	0x4091893b	4.548002
39	0x3ed077c2	0.40716368
40	0x404b4ff2	3.1767545
41	0x402094c2	2.5090795
42	0x3fc5cc9f	1.545307
43	0x407c689e	3.9438853
44	0x402af8d6	2.6714377
45	0x40c36ca4	6.107012
46	0x409d96b2	4.9246454
47	0x3f7a7066	0.97827756
48	0x3ed4af63	0.4154006
49	0x3f906138	1.1279669
50	0x3f98213f	1.1885146
51	0x40b27f05	5.5780053
52	0x409b9b35	4.862696
53	0x3fa6306e	1.298353
54	0x3f280334	0.6562989
55	0x3fa63268	1.2984133
56	0x40acf6b6	5.405116
57	0x40933bdf	4.6010585
58	0x3fb0fc8b	1.382707
59	0x400ea6dd	2.2289345
60	0x40b9a10c	5.800909
61	0x408928fa	4.286252
62	0x3fe493cc	1.7857604
63	0x408f607f	4.4805293
64	0x40c107fb	6.032224
65	0x3f5607af	0.83605474
66	0x3fe274a2	1.7691844
67	0x3faf210e	1.3681962
68	0x4032702a	2.788096
69	0x405559ba	3.3336015
70	0x40833b64	4.101
71	0x4009aac3	2.1510475
72	0x3faa3429	1.3297168
73	0x40c13b2b	6.0384727
74	0x3faf86ab	1.3712972
75	0x3fe15f02	1.7607119
76	0x40a1e0c0	5.0586853
77	0x3fbd89b4	1.4807649
78	0x40bae406	5.840335
79	0x407bd559	3.9348967
80	0x40494c7c	3.1452932
81	0x3fa8e8a3	1.3195995
82	0x40850e47	4.157993
83	0x3f66ea6b	0.90201443
84	0x408c06b5	4.3758187
85	0x3e6f0ae3	0.23343997
86	0x40b7c633	5.7429442
87	0x40925adf	4.5735927
88	0x40ba21a4	5.8166065
89	0x4027e0b2	2.6230893
90	0x408d9444	4.424349
91	0x40868cb3	4.204675
92	0x40b3b0f7	5.615352
93	0x4076f5aa	3.8587441
94	0x40256dc3	2.5848243
95	0x405e89cd	3.4771607
96	0x40b89b4b	5.7689567
97	0x404d775b	3.2104099
98	0x40a55014	5.166025
99	0x404ad187	3.1690385
100	0x409a5004	4.8222675
101	0x40430e70	3.0477562
102	0x408dea0b	4.4348197
103	0x4047525b	3.1144016
104	0x406650a5	3.5986722
105	0x406ac3cf	3.6682012
106	0x406f0374	3.7345858
107	0x407dd9f5	3.966428
108	0x3fd630ac	1.6733603
109	0x3f561994	0.8363278
110	0x40304149	2.7539847
111	0x40c01fe1	6.0038915
112	0x40a6e733	5.2157226
113	0x40ba03ad	5.8129487
114	0x3e1e0c47	0.15434371
115	0x40a4fd0e	5.1558905
116	0x408cb3fe	4.3969717
117	0x3f12394e	0.5711869
118	0x3fa07122	1.2534525
119	0x406c4cc0	3.6921844
120	0x3f963f84	1.1738133
121	0x40982f16	4.755748
122	0x4041dc58	3.0290737
123	0x405e16f2	3.4701505
124	0x40a59b70	5.1752243
125	0x3fbf92da	1.496669
126	0x40a203af	5.0629497
127	0x4051ca8f	3.2779882
128	0x40821265	4.0647454
129	0x3fac1163	1.3442806
130	0x4066644b	3.5998714
131	0x4018a797	2.3852289
132	0x3fd3ba6d	1.6541268
133	0x40344f58	2.8173428
134	0x3d893a78	0.06700605
135	0x406d81be	3.7110438
136	0x408236e2	4.0691996
137	0x407aa144	3.9160929
138	0x3ff795f4	1.9342637
139	0x4001ac7b	2.0261524
140	0x4057ef4b	3.3739803
141	0x406d3b60	3.706749
142	0x404df64f	3.2181585
143	0x40697d8f	3.6482885
144	0x3ec683ae	0.3877234
145	0x4027023e	2.6095119
146	0x401e9684	2.4779367
147	0x40658b4d	3.5866272
148	0x3f79afe7	0.9753403
149	0x3fba4715	1.4552943
150	0x3f8f7164	1.1206479
151	0x3f0e79d1	0.5565463
152	0x40196324	2.396676
153	0x409c96ae	4.8933935
154	0x405d2efb	3.4559925
155	0x409977d6	4.7958784
156	0x40700e65	3.7508786
157	0x3fda4e72	1.705519
158	0x40bc4938	5.883938
159	0x40978ee3	4.736192
160	0x40894eee	4.290885
161	0x3e9b8059	0.3037136
162	0x3f58bcff	0.84663385
163	0x40c2a154	6.0821934
164	0x4067a330	3.6193352
165	0x402ecdd1	2.731312
166	0x3c116405	0.008873944
167	0x40bcf064	5.9043446
168	0x40c8f1b5	6.2795053
169	0x3f5c0889	0.85950524
170	0x3fcff444	1.6246419
171	0x3f9c8cfb	1.2230524
172	0x3ee72a87	0.45149633
173	0x40b4603c	5.6367474
174	0x402d3bb9	2.7067702
175	0x40126eb3	2.2880065
176	0x4079e9d1	3.904896
177	0x4027f014	2.6240282
178	0x3f77ca93	0.9679348
179	0x3f8861b3	1.0654815
180	0x404fb5d0	3.245472
181	0x407f2855	3.9868367
182	0x40677b1f	3.6168897
183	0x406c7e75	3.6952183
184	0x40b711d6	5.7209272
185	0x40bf712e	5.982566
186	0x3fdaf0ba	1.7104714
187	0x40771114	3.8604174
188	0x4012479a	2.2856202
189	0x40834b8d	4.1029725
190	0x40b83dba	5.757535
191	0x40627397	3.538305
192	0x4034c724	2.8246546
193	0x4059e4d0	3.4045906
194	0x40c44098	6.132885
195	0x40bff0ed	5.99816
196	0x3fff3035	1.9936587
197	0x40616cf7	3.5222757
198	0x406ef634	3.733777
199	0x40b2ff9d	5.593703
200	0x3fa47cbe	1.2850568
201	0x404c50d3	3.192433
202	0x40a3a22c	5.1135464
203	0x40a8534b	5.2601676
204	0x3eb0c1fb	0.34522995
205	0x401caa65	2.4479
206	0x408175b9	4.0456204
207	0x407da0b4	3.9629335
208	0x4047903d	3.1181786
209	0x3d2e3ac3	0.04253651
210	0x40056638	2.084364
211	0x40835312	4.1038904
212	0x40bb18ba	5.8467684
213	0x40b33229	5.599873
214	0x3fd025bc	1.6261516
215	0x40a8a9f2	5.2707453
216	0x3fecf191	1.851122
217	0x408396ee	4.112174
218	0x3f8646db	1.0490373
219	0x3e39464b	0.18093221
220	0x40721dda	3.783072
221	0x40c33697	6.100414
222	0x40b575d4	5.6706333
223	0x40a21c58	5.06596
224	0x407b6264	3.9278803
225	0x40997d27	4.7965274
226	0x3e742f83	0.2384625
227	0x4072d63e	3.7943263
228	0x3f39de38	0.72604704
229	0x3f6f4fc2	0.93481076
230	0x4024b01d	2.573249
231	0x40bcace9	5.896107
232	0x3ea7fb0e	0.32808727
233	0x3f674b7d	0.9034956
234	0x409c85af	4.891319
235	0x4077fc6f	3.8747823
236	0x3fcec1a4	1.6152844
237	0x40b2b937	5.585109
238	0x40c55f1f	6.1678615
239	0x400dfc8a	2.2185388
240	0x40c2d812	6.088876
241	0x40b5be71	5.6794972
242	0x403260af	2.787151
243	0x3fd634bf	1.6734847
244	0x4048851c	3.1331244
245	0x4054288e	3.3149753
246	0x40b6269c	5.692213
247	0x4006fd27	2.1092012
248	0x4088be6b	4.2732444
249	0x408bb652	4.366006
250	0x40a0bab0	5.022789
251	0x40a0843f	5.0161433
252	0x40bb419c	5.851759
253	0x40af298d	5.473822
254	0x3f723b2a	0.9462153
255	0x40832085	4.0977197

embedding.net_.prediction_.weight f4 [1, 500]
0	0x3deab714	0.11460701
1	0xbfceae52	-1.6146948
2	0xbf01e4ac	-0.5073955
3	0xbebf43ff	-0.37356564
4	0xbef5d898	-0.4801681
5	0xbecaa580	-0.3957939
6	0x3ebee9f7	0.37287876
7	0xbeb5984a	-0.3546775
8	0xbef184d0	-0.4717164
9	0xbfabb9bf	-1.341606
10	0xbd7f1dea	-0.062284388
11	0x3f33f763	0.7029936
12	0xbf11732c	-0.56816363
13	0xbe5c0995	-0.2148803
14	0x3e4dbd68	0.20091784
15	0xbed2aba2	-0.4114657
16	0xbf393697	-0.7234892
17	0xbee01f59	-0.43773916
18	0x3d495bd1	0.04915983
19	0xbdc8e544	-0.09809354
20	0xbe9e2326	-0.3088619
21	0x3e404aae	0.18778488
22	0xbe0054ce	-0.1253235
23	0xbe76ade0	-0.24089766
24	0x3e704426	0.23463497
25	0xbcdc4fdb	-0.026893547
26	0xbf6f7823	-0.9354269
27	0xbe7951f7	-0.24347673
28	0xbf7e3916	-0.99305856
29	0x3f26f918	0.65223837
30	0x3fc2b0fb	1.521026
31	0x3e9078c9	0.28217152
32	0x3e7b2a1c	0.24527782
33	0xbe8da666	-0.27666014
34	0x3edefcd0	0.43552256
35	0xbd7eb35c	-0.06218277
36	0x3e8a0cc5	0.26962867
37	0x3f8c2c9a	1.0951111
38	0xbf07d435	-0.5305818
39	0xbec8d78f	-0.39226958
40	0xbe5293c2	-0.20564178
41	0x3ee4563c	0.44597042
42	0x400a5e4f	2.1620061
43	0x3e385945	0.18002804
44	0x3c2d014b	0.01055939
45	0x3df0cd7f	0.11757945
46	0xbd1e5318	-0.038653463
47	0xbeabd77f	-0.33562848
48	0xbe373b20	-0.17893648
49	0xbf159812	-0.58435166
50	0x3f1065b7	0.56405205
51	0x3f00c19b	0.5029542
52	0xbc898ada	-0.016789842
53	0xbf83bc9f	-1.0291938
54	0x3e1ff6ba	0.15621462
55	0x3ea67b26	0.3251583
56	0x4014e429	2.3264258
57	0xbf27d2c6	-0.6555599
58	0x3ef76d38	0.48325515
59	0xbe46ccc4	-0.1941405
60	0xbf5a6118	-0.85304403
61	0xbeaafb58	-0.33394885
62	0xbfc37253	-1.5269264
63	0x3f98eb18	1.1946745
64	0x3eb7cb78	0.35897422
65	0x3ec43630	0.38322592
66	0x3f2030e6	0.62574613
67	0xbef17794	-0.47161543
68	0xbf3b487e	-0.7315749
69	0x3ea4b42b	0.32168707
70	0xbf4841fe	-0.78225696
71	0x3f76fa75	0.9647592
72	0xbe829bed	-0.25509587
73	0x3d82f815	0.06394974
74	0xbf17e173	-0.59328383
75	0x3de697a4	0.11259392
76	0xbfa049eb	-1.2522558
77	0x3ebdc355	0.3706309
78	0x3f06ffb0	0.527339
79	0x3ec5f50f	0.38663527
80	0xbe5b871a	-0.21438256
81	0xbf89be50	-1.0761204
82	0x3e2c2ec1	0.1681471
83	0xbe8bcfa8	-0.27306867
84	0xbec4a3f6	-0.38406342
85	0xbc89bacf	-0.01681271
86	0xbe9fe6fa	-0.3123091
87	0x4024874f	2.5707586
88	0x3f1766d4	0.5914128
89	0x3db2124f	0.08694898
90	0xbe83a25e	-0.25709814
91	0xbd92e489	-0.07172496
92	0xbfd6ad24	-1.6771588
93	0x3f894a81	1.0725862
94	0xc00c9171	-2.196377
95	0x3f578c6d	0.8419865
96	0xbea5b43e	-0.32364076
97	0x3e5a5fc0	0.21325588
98	0x3de2a8c7	0.11067348
99	0x3f075830	0.5286894
100	0xbf6490b0	-0.89283276
101	0xbe10035b	-0.1406378
102	0xbeb082de	-0.34474844
103	0xbd97cb8b	-0.074118696
104	0x3c85d354	0.01633612
105	0x3ed74e25	0.42051807
106	0x3f4b2d0a	0.793656
107	0x3f14ca3f	0.58121103
108	0xc081535b	-4.041425
109	0x3f23dfd1	0.6401339
110	0x3e84f887	0.2597086
111	0xbf070967	-0.5274872
112	0xbeab25c1	-0.3342724
113	0xbee1e7b1	-0.4412208
114	0xbe5de942	-0.21671012
115	0xbeb7293d	-0.3577365
116	0x40116e88	2.2723713
117	0xbfb33020	-1.3999062
118	0x3f22c144	0.6357615
119	0x3e71ca97	0.23612438
120	0x3f61a871	0.88147646
121	0x3f446c8f	0.7672815
122	0xbe98dc72	-0.29855686
123	0xbe006559	-0.12538661
124	0xbe2406a7	-0.16018163
125	0x3e8868e5	0.26642528
126	0x3e731378	0.23737895
127	0x3dbd4404	0.092414886
128	0xbf2866ee	-0.6578206
129	0xbea1a7bc	-0.31573284
130	0x40185f22	2.3808064
131	0xbec68edf	-0.38780877
132	0x3f702749	0.93809944
133	0xbf2c2744	-0.67247415
134	0xbecd98a7	-0.40155527
135	0x3e0d162b	0.13777988
136	0x3e2b21b6	0.16712078
137	0x3ec692a7	0.38783762
138	0xbea62727	-0.32451746
139	0xbf0982f5	-0.5371545
140	0xbe92218e	-0.28541225
141	0xbef12415	-0.4709784
142	0xbe7c1001	-0.2461548
143	0x3def8162	0.116946
144	0x3c775a30	0.015097186
145	0x3f7bbcaa	0.98334754
146	0x3ea09eb1	0.31371072
147	0xbec43a96	-0.38325948
148	0x3e810990	0.25202608
149	0xbff4f305	-1.9136664
150	0x3e05135d	0.12995668
151	0x3dc32529	0.09528572
152	0x3fef71e4	1.8706632
153	0xbd01b9e7	-0.03167143
154	0x3d90909d	0.07058833
155	0x3f8668c7	1.0500726
156	0x4053f3d6	3.3117576
157	0x3f953484	1.1656651
158	0x3f064001	0.5244141
159	0x3da38786	0.079848334
160	0xbf7f444c	-0.9971359
161	0xbe23d7b7	-0.16000257
162	0x3eb0f685	0.3456308
163	0xbd074705	-0.033026714
164	0xbe8697db	-0.26287732
165	0x3e651300	0.22370529
166	0xbe007076	-0.125429
167	0xbe3ee895	-0.1864341
168	0x3efab862	0.48968798
169	0x3d817861	0.063217886
170	0x3f88bc72	1.0682509
171	0x3fabd193	1.3423332
172	0x3d29f1e8	0.041490465
173	0xbf99c6b3	-1.2013763
174	0xbeb41b06	-0.35176867
175	0x3fdf39a5	1.7439467
176	0x3e59c86a	0.21267858
177	0x3ef12b10	0.47103167
178	0xbe35cc3c	-0.1775369
179	0x3dada949	0.08479554
180	0xbc305f02	-0.010764839
181	0xbf623047	-0.88354915
182	0x3e9e5aed	0.30928746
183	0xbf572bee	-0.84051406
184	0x3eb790fd	0.35852805
185	0x3c3273d9	0.010891878
186	0x3f8d6734	1.104712
187	0xbedf2a0a	-0.4358676
188	0xbf6cfff3	-0.9257805
189	0x3baa1b7b	0.005191264
190	0x3c293a2d	0.010328812
191	0xbf52f75a	-0.8240868
192	0x3eba5f4e	0.36400837
193	0x3f8008fc	1.0002742
194	0xbf3d6626	-0.7398399
195	0xbd61e661	-0.055151347
196	0xc05e11d2	-3.4698377
197	0x3f6f7151	0.9353228
198	0x3efa3adb	0.48873028
199	0x3f9bc04d	1.216806
200	0x3f5c9193	0.8615963
201	0x3e466ad1	0.19376685
202	0xbe9208e5	-0.2852241
203	0x3d9fd619	0.07804508
204	0xbda30cc8	-0.07961422
205	0x3f886146	1.0654685
206	0x3f8c54da	1.0963395
207	0xbed65c51	-0.41867307
208	0xbd63aef2	-0.055586763
209	0x3aec842b	0.001804476
210	0xbec9b308	-0.39394403
211	0xbe0cdb78	-0.13755596
212	0x3e44ff85	0.19238098
213	0xbdafab73	-0.08577623
214	0xbf776a42	-0.9664651
215	0xbebaa2e3	-0.36452398
216	0xbf25c777	-0.64757484
217	0xbf3d1ed7	-0.7387518
218	0xbe237d60	-0.15965796
219	0xbb2616bc	-0.002534314
220	0x3eabe29e	0.33571333
221	0xbebef2d4	-0.37294638
222	0xbe927cbc	-0.2861079
223	0x3f0e9c01	0.55706793
224	0x3e15309f	0.14569329
225	0xbf0bfcd8	-0.54682684
226	0xbfabbda6	-1.3417251
227	0xbe78ee23	-0.24309592
228	0xbed624f3	-0.41825065
229	0xbee8efc5	-0.4549543
230	0x3e3a39ca	0.18186107
231	0xbe2471d7	-0.16059051
232	0xbe0484d4	-0.12941295
233	0x3e0c6d24	0.13713509
234	0xbfa13b38	-1.2596197
235	0x3ef8f7a8	0.48626447
236	0x3e94416e	0.2895617
237	0xbfb57331	-1.4175779
238	0x3eab8e30	0.33506918
239	0x3e3d8c09	0.1851045
240	0xbe2ab1ae	-0.16669342
241	0xbe8d9ee8	-0.27660298
242	0x3ec969f4	0.39338648
243	0xbebd6ae4	-0.36995614
244	0x3ef8278c	0.48467672
245	0x3e1cadf3	0.15300731
246	0xbe277c89	-0.163561
247	0x3ef93bd9	0.48678473
248	0x3ea157a9	0.31512192
249	0xbdbf9e93	-0.093564175
250	0x3f431050	0.76196766
251	0xbf90fcab	-1.1327108
252	0xc0018536	-2.0237556
253	0x3f4cb28c	0.7995994
254	0x3ea964b9	0.33084658
255	0x3eca6261	0.39528182
