models/heee.pt (torch, 17759 bytes, 4 tensors)

stiffness.diagonal_ f4 [2]
3.2187567 7.4154234
00000000: 1c00 4e40 264b ed40

embedding.net_.linear_clamped_.weight f4 [1000, 2]
2.6048546 6.6938095 -3.8570795 -1.3148583 6.1932535 -7.908703 0.830853 -7.106574
-6.8906426 -1.8752956 2.3521545 5.609937 6.225745 -8.009298 -1.4256613 7.3627944
-1.1890433 -9.265519 10.715052 -3.6938767 -3.7000418 1.4233325 4.092635 3.3624697
-1.6422102 4.267484 5.412932 -5.067629 -8.540521 -5.8402596 9.463659 -6.472845
0.8334017 -1.6410362 6.928224 -5.8891873 0.38285708 -3.8219166 0.66990584 11.046561
-0.59912795 -8.867481 2.394416 -8.009311 -5.930977 -6.345481 6.9179573 -4.8064933
-5.568821 5.782953 12.978705 10.5576935 -1.7016194 1.4660538 -1.6273625 1.6887212
3.6487517 2.050496 -1.9683121 7.0030503 8.012974 -0.6059068 -2.0777493 6.765236
1.0912621 6.271055 -0.7267111 -0.35406846 -0.8397626 -6.205101 4.787833 0.27116185
3.0348268 -2.2214363 4.4442134 2.4069045 -1.5755154 -3.0933416 -0.38141844 6.4713583
-0.81517786 -3.9072 7.373003 -0.96551394 -0.76708704 -1.0406166 -2.95303 5.962617
-1.1882045 -5.137823 -4.1635838 1.406723 0.6094522 -1.1895157 -12.47406 10.238795
-7.4606457 -2.9699855 -6.276025 -0.38654202 -3.358688 -6.1502886 -7.4452996 0.58629745
3.5882688 4.189 -0.94160676 -0.925809 2.7499483 3.1468415 -3.3109405 2.3098469
7.2029867 -4.9985876 -6.38485 -3.4446597 -2.9564202 -5.4113007 0.40531284 3.4778821
-10.029089 -0.8211413 -2.072894 -1.1062925 6.6327715 0.3443151 3.1889052 -6.2177663
-9.133174 2.4673064 2.403281 4.085151 4.886375 -1.3471109 -0.68304956 -8.509144
-2.5794556 -0.3406874 -8.822536 1.702252 1.6744833 5.8628893 6.4870777 3.0092547
-8.995283 1.6503868 3.9027853 2.9063325 6.4044228 -7.965149 5.9657407 -2.9125643
2.3389218 5.6555657 5.1599836 -8.998554 -0.14747477 3.9016185 -0.12729524 0.071868345
-4.0484004 -3.8910966 -7.893789 -8.819216 -0.80497086 0.34482267 5.0104313 10.599499
-2.5594015 -3.7128174 5.995431 3.2366614 1.1582602 4.074708 -3.0355773 -4.401296
-6.0439043 3.4491503 -9.128267 -9.787347 -0.7381165 -2.557136 0.4441654 -4.589519
-2.2961566 -4.0756006 0.9834261 6.106455 1.357169 2.4924846 3.3057978 2.974985
-0.98735166 6.204679 -2.3432598 -6.7723947 7.6784973 -2.958263 1.474074 1.4171814
-6.585831 -2.5820565 -6.2506747 4.341647 -3.9658782 4.5079107 -3.6405346 -3.57525
6.1491594 0.9134162 10.845508 -6.588569 -6.8450136 3.2801776 2.2763195 -5.0288115
-5.217547 1.9663619 -11.926188 1.8194776 1.5115242 2.4013062 -1.4863539 5.0492187
6.164982 3.3745873 2.6893713 -2.713827 2.6265047 5.7718554 -3.3464477 -2.111882
-3.408382 4.195252 -1.1952403 -0.9768112 -7.992788 1.29699 -3.3225331 2.2642126
14.466822 4.6342416 -0.12571666 1.2140081 5.024614 -9.535664 3.0802765 -0.52940595
-5.5083613 2.7165034 3.6726735 0.5500883 1.8630229 0.2715646 8.66418 4.314784
00000000: f0b5 2640 b033 d640 64da 76c0 474d a8bf
00000010: 222f c640 1814 fdc0 c8b2 543f 0e69 e3c0
00000020: 2580 dcc0 b009 f0bf b389 1640 9b84 b340
00000030: 4e39 c740 1626 00c1 127c b6bf 039c eb40
00000040: 9232 98bf 913f 14c1 da70 2b41 7a68 6cc0
00000050: 7ccd 6cc0 c22f b63f def6 8240 b432 5740
00000060: f233 d2bf 3b8f 8840 bd36 ad40 042a a2c0
00000070: f9a5 08c1 68e3 bac0 266b 1741 8c21 cfc0
00000080: d059 553f 790d d2bf 03b4 dd40 3974 bcc0
00000090: d805 c43e 489a 74c0 f37e 2b3f b7be 3041
000000a0: 7360 19bf 34e1 0dc1 1d3e 1940 2326 00c1
000000b0: 90ca bdc0 2e0e cbc0 e85f dd40 cbce 99c0
000000c0: c833 b2c0 f30d b940 c7a8 4f41 50ec 2841
000000d0: aace d9bf a7a7 bb3f 6a4d d0bf 0428 d83f
000000e0: 2685 6940 543b 0340 a7f1 fbbf fd18 e040
000000f0: 2435 0041 b51c 1bbf d8f9 04c0 d07c d840
00000100: 7aae 8b3f 7cac c840 bd09 3abf 7648 b5be
00000110: affa 56bf 3090 c6c0 ee35 9940 bad5 8a3e
00000120: 9a3a 4240 032c 0ec0 ff36 8e40 b90a 1a40
00000130: 7daa c9bf 4ff9 45c0 4749 c3be 5e15 cf40
00000140: 7faf 50bf 910f 7ac0 a4ef eb40 ec2b 77bf
00000150: d15f 44bf ed32 85bf 72fe 3cc0 c2cd be40
00000160: 1617 98bf 0c69 a4c0 143c 85c0 800f b43f
00000170: 0f05 1c3f 0d42 98bf c095 47c1 1bd2 2341
00000180: 9cbd eec0 3e14 3ec0 32d5 c8c0 d6e8 c5be
00000190: bff4 56c0 2acf c4c0 e53f eec0 9717 163f
000001a0: 32a6 6540 4a0c 8640 240d 71bf d201 6dbf
000001b0: 27ff 2f40 da65 4940 73e6 53c0 88d4 1340
000001c0: de7e e640 6ef4 9fc0 b150 ccc0 4e75 5cc0
000001d0: fd35 3dc0 6029 adc0 2a85 cf3e 9f95 5e40
000001e0: 2677 20c1 5136 52bf 4caa 04c0 fe9a 8dbf
000001f0: aa3f d440 124a b03e 0617 4c40 f1f7 c6c0
00000200: 7b21 12c1 59e8 1d40 5bcf 1940 8fb9 8240
00000210: 2f5d 9c40 216e acbf 56dc 2ebf 7425 08c1
00000220: cd15 25c0 946e aebe 1c29 0dc1 65e3 d93f
00000230: 7855 d63f ca9c bb40 2496 cf40 a197 4040
00000240: aeec 0fc1 e03f d33f 3cc7 7940 5a01 3a40
00000250: 08f1 cc40 80e2 fec0 59e7 be40 7467 3ac0
00000260: e5b0 1540 65fa b440 961e a540 14fa 0fc1
00000270: a003 17be 1eb4 7940 af59 02be b62f 933d
00000280: 7f8c 81c0 ba07 79c0 eb99 fcc0 821b 0dc1
00000290: 9212 4ebf 998c b03e 7455 a040 8c97 2941
000002a0: 3ccd 23c0 cd9e 6dc0 92da bf40 7625 4f40
000002b0: df41 943f 0264 8240 e646 42c0 6bd7 8cc0
000002c0: aa67 c1c0 e1be 5c40 620d 12c1 f998 1cc1
000002d0: 34f5 3cbf 1ea8 23c0 a669 e33e 57dd 92c0
000002e0: 3bf4 12c0 526b 82c0 d0c1 7b3f 1468 c340
000002f0: b7b7 ad3f de84 1f40 3192 5340 2766 3e40
00000300: 14c3 7cbf bb8c c640 f8f7 15c0 75b7 d8c0
00000310: 40b6 f540 2e54 3dc0 75ae bc3f 3366 b53f
00000320: 21bf d2c0 6a40 25c0 8705 c8c0 c6ee 8a40
00000330: f3d0 7dc0 ce40 9040 85fe 68c0 e5d0 64c0
00000340: eac5 c440 a5d5 693f 3387 2d41 8fd5 d2c0
00000350: 5a0a dbc0 6eee 5140 38af 1140 06ec a0c0
00000360: 25f6 a6c0 bfb1 fb3f abd1 3ec1 a4e4 e83f
00000370: a079 c13f 00af 1940 d840 bebf 3393 a140
00000380: 8847 c540 3df9 5740 a91e 2c40 57af 2dc0
00000390: a718 2840 0ab3 b840 332c 56c0 1329 07c0
000003a0: ee22 5ac0 813f 8640 a2fd 98bf 4c10 7abf
000003b0: ebc4 ffc0 c503 a63f 62a4 54c0 dce8 1040
000003c0: 1a78 6741 b54b 9440 debb 00be 9e64 9b3f
000003d0: a3c9 a040 1492 18c1 4023 4540 2687 07bf
000003e0: 7f44 b0c0 31db 2d40 150d 6b40 96d2 0c3f
000003f0: 8977 ee3f 840a 8b3e 7ba0 0a41 b612 8a40

embedding.net_.linear_clamped_.bias f4 [1000]
2.4934952 1.4352428 0.7139332 0.74516076 3.4964116 0.16105938 0.73634565 0.8990555
0.3233887 1.4847362 0.7076419 5.2082763 3.2452765 0.805104 1.9214469 3.934881
0.96631765 4.005494 0.3494514 0.61541694 2.7785902 0.9772301 6.2265277 5.87829
0.9172992 5.508453 4.594597 4.953538 2.973442 0.65740705 3.2694068 1.5226055
0.017268894 0.34130925 5.491927 2.3308892 0.5179702 3.071733 3.254658 0.24549836
1.5632085 6.2183123 1.4548221 2.8917377 2.6942475 4.572623 3.6355436 3.837365
1.8171816 6.245331 0.5254109 1.2275925 1.0089403 4.455326 0.83227146 1.8683093
4.941712 5.6947365 1.7299484 5.781047 0.2299211 5.177638 3.963282 3.320096
4.884622 3.8644269 1.5814956 4.141549 5.8031683 1.1776797 5.8524003 5.545829
3.2507634 3.49742 0.12120583 3.069553 4.6760855 1.3589876 3.3228786 3.7569678
4.274586 0.62397367 0.24265023 3.281013 4.901569 1.1425686 1.1006159 1.6655643
0.33684623 1.2979541 4.1048546 0.875757 2.596457 2.3407888 3.798326 1.7449279
5.1810846 2.3473248 2.3100317 0.7898316 4.202302 4.7912245 2.5093732 0.93949246
2.8021314 4.960433 4.51775 1.5141702 3.420664 3.7869103 4.4956675 4.045423
1.5507778 6.075882 3.124266 2.119838 5.827137 3.7700634 3.137711 5.857982
2.8028421 2.177979 5.4890513 0.13417502 0.4420052 1.7494789 2.4719083 5.571222
2.4948306 0.25634032 5.9551764 3.5536273 1.8090727 0.040698055 4.326289 5.6928186
1.1762041 3.4283626 0.44558248 5.826365 3.9343874 0.44415486 6.0314274 5.0604067
2.373214 2.4515185 1.7094235 2.1987622 1.4955845 0.1593168 1.9711915 0.78509593
5.0718503 6.167399 3.3769662 1.7900159 6.0955524 0.89244425 4.767439 2.5282454
3.007951 0.48716176 5.991218 0.7251329 3.9613526 1.8934941 3.2903144 2.844058
5.2800527 6.09869 5.016345 2.9882295 2.4891262 3.039958 2.709102 5.6565275
3.52545 3.5983176 5.351952 1.4136472 5.5037904 0.6754628 0.9701264 3.4061239
0.43092242 4.7399006 5.981922 0.8291488 1.4948392 4.9613876 0.13199688 3.6002243
2.6376455 3.626921 1.3059559 6.0075 3.662357 1.5974276 0.85609984 0.8854878
6.0284314 5.1894736 1.2605933 0.572913 4.7915015 4.7411485 2.903496 0.300264
0.568996 6.0626235 2.0666327 5.077309 6.2650514 3.2285604 0.6727319 0.8277152
5.812205 5.70284 4.192092 5.330861 3.4852622 0.9941012 0.05532817 0.26868746
2.8574624 5.7020955 5.103565 5.6412544 1.0075213 0.050495908 4.206502 5.665461
0.36570612 0.849528 1.0330664 3.1600282 0.2712075 3.472669 3.4692981 3.459679
1.8125957 1.4798781 4.666101 2.84052 1.5663588 0.28969842 4.167056 3.3537076
2.9782152 4.0287356 5.620599 5.9394946 1.0326241 2.734296 0.78573596 3.8292289
00000000: 6d95 1f40 09b6 b73f 54c4 363f dbc2 3e3f
00000010: 35c5 5f40 c0ec 243e 2681 3c3f 8028 663f
00000020: 3493 a53e d60b be3f 0528 353f 33aa a640
00000030: 9cb2 4f40 4c1b 4e3f f9f1 f53f 17d5 7b40
00000040: 9860 773f 022d 8040 4beb b23e f78b 1d3f
00000050: 6cd4 3140 c02b 7a3f b73f c740 f41a bc40
00000060: 1fd4 6a3f 3f45 b040 f006 9340 6283 9e40
00000070: e04c 3e40 d44b 283f f63d 5140 bde4 c23f
00000080: 7f77 8d3c 16c0 ae3e debd af40 4a2d 1540
00000090: b299 043f 4697 4440 514c 5040 ec63 7b3e
000000a0: 3717 c83f 6afc c640 9c37 ba3f 3b12 3940
000000b0: 8d6e 2c40 ed52 9240 bfac 6840 6397 7540
000000c0: 6899 e83f c0d9 c740 5481 063f c021 9d3f
000000d0: f524 813f 0892 8e40 be0f 553f c224 ef3f
000000e0: 8122 9e40 483b b640 f36e dd3f 56fe b840
000000f0: 7070 6b3e 36af a540 6aa6 7d40 747c 5440
00000100: d34e 9c40 c552 7740 736e ca3f 9287 8440
00000110: 8eb3 b940 35be 963f dd46 bb40 6e77 b140
00000120: 820c 5040 bbd5 5f40 c33a f83d 8e73 4440
00000130: 7ea2 9540 4ef3 ad3f 0baa 5440 2972 7040
00000140: 69c9 8840 bdbc 1f3f 4d79 783e 1efc 5140
00000150: a7d9 9c40 b03f 923f fbe0 8c3f 3631 d53f
00000160: 1c77 ac3e 5c23 a63f f85a 8340 9c31 603f
00000170: 5a2c 2640 7ccf 1540 c617 7340 cc59 df3f
00000180: 72cb a540 923a 1640 8fd7 1340 6732 4a3f
00000190: 4279 8640 b651 9940 9299 2040 9482 703f
000001a0: 1f56 3340 debb 9e40 6891 9040 54d0 c13f
000001b0: 29ec 5a40 bd5c 7240 82dc 8f40 1b74 8140
000001c0: e37f c63f a06d c240 f9f3 4740 6dab 0740
000001d0: e877 ba40 b848 7140 42d0 4840 9774 bb40
000001e0: c461 3340 0264 0b40 4fa6 af40 2d65 093e
000001f0: 814e e23e edee df3f bf33 1e40 7347 b240
00000200: 4eab 1f40 0a3f 833e ce90 be40 a16e 6340
00000210: b28f e73f 01b3 263d f670 8a40 922b b640
00000220: db8d 963f 4b6a 5b40 6323 e43e 9571 ba40
00000230: 01cd 7b40 4468 e33e 7401 c140 daee a140
00000240: bde2 1740 aee5 1c40 64ce da3f 85b8 0c40
00000250: 506f bf3f f123 233e 0150 fc3f 0cfc 483f
00000260: 994c a240 555b c540 3720 5840 3e1f e53f
00000270: c40e c340 3a77 643f dc8e 9840 c6ce 2140
00000280: 4582 4040 446d f93e 0fb8 bf40 4fa2 393f
00000290: cd86 7d40 045e f23f 8394 5240 0c05 3640
000002a0: 31f6 a840 7828 c340 e685 a040 273f 3f40
000002b0: d84d 1f40 ac8e 4240 ed61 2d40 4602 b540
000002c0: f9a0 6140 d64a 6640 3143 ab40 64f2 b43f
000002d0: 0d1f b040 21eb 2c3f 345a 783f effd 5940
000002e0: dda1 dc3e 44ad 9740 e86b bf40 1943 543f
000002f0: e456 bf3f b0c3 9e40 312a 073e 136a 6640
00000300: 2fcf 2840 791f 6840 9029 a73f 713d c040
00000310: 0f64 6a40 8278 cc3f 5c29 5b3f 54af 623f
00000320: e9e8 c040 2b10 a640 1f5b a13f 6daa 123f
00000330: fb53 9940 7db7 9740 e1d2 3940 34bc 993e
00000340: b9a9 113f 0301 c240 b643 0440 5179 a240
00000350: 4d7b c840 bca0 4e40 2838 2c3f 25e5 533f
00000360: 95fd b940 aa7d b640 9e25 8640 6a96 aa40
00000370: 890e 5f40 6b7d 7e3f cb9f 623d 6791 893e
00000380: aae0 3640 9177 b640 6850 a340 2885 b440
00000390: 75f6 803f ccd4 4e3d aa9b 8640 754b b540
000003a0: d53d bb3e ab7a 593f 853b 843f e73d 4a40
000003b0: b6db 8a3e 3540 5e40 fb08 5e40 616b 5d40
000003c0: 2303 e83f a56c bd3f b350 9540 14cb 3540
000003d0: 727e c83f 5a53 943e 8658 8540 25a3 5640
000003e0: 149b 3e40 67eb 8040 f2db b340 5710 be40
000003f0: 072d 843f b5fe 2e40 fe25 493f 1612 7540

embedding.net_.prediction_.weight f4 [1, 1000]
-0.79730654 1.9830923 -1.7573574 -2.1382687 2.2396257 0.05019996 -1.4395428 3.495329
2.3104916 -4.348922 1.1792486 0.31750154 3.347458 -3.8716881 1.2808089 2.0884635
-1.7606577 3.3729882 -2.5140524 -6.3332953 1.9718198 -1.3876178 3.9030085 -3.195584
-2.0108135 -2.8859887 -1.414711 -1.3620051 0.76766545 2.155711 2.072642 4.5933976
1.0294917 0.25788775 2.9230068 -1.0773677 1.7774166 1.6702446 1.3382907 3.17834
-1.7319804 -1.6737223 -1.0778154 5.44312 -1.8091706 1.0530862 1.5945798 1.5048069
4.427512 -0.6081774 0.19191904 -2.0413876 -2.796912 0.75554985 -2.9970477 -0.17813736
3.3070388 -4.1966987 -0.7797852 -1.836485 -2.614616 -0.7099555 0.93116146 5.0440536
-3.3791814 1.8224564 1.9952904 -4.6782584 2.953957 2.2834787 -0.11861133 -1.8526528
3.0666857 2.3432527 0.048631985 2.1423314 -0.9066031 -0.34101838 0.96676725 -1.579865
-0.056850545 2.823396 2.388141 3.5470333 -0.2968533 -3.852389 1.673049 0.26573527
-2.5743985 0.9429665 1.6128627 -2.4981585 1.4063168 0.5890561 0.9959393 -1.0618052
-3.219967 -3.420897 0.6353476 -0.12642372 -1.5665034 -3.3769584 4.7016377 -0.39931405
0.6548005 1.6252658 -3.0770588 -3.5188406 0.5969359 -3.4037502 -0.74254066 -2.1395142
-3.723794 0.3924656 -0.045272373 3.3717196 -5.1602697 0.51215786 2.2620263 2.1672616
-3.2412415 1.6888088 4.5061345 3.798228 -1.8364183 -1.3167946 -1.643129 3.8301444
-2.3288476 3.4572558 -0.20076507 5.724708 1.6155691 2.679767 -2.3685791 -0.8514465
0.20232664 1.75086 2.7673717 0.06520641 3.1645522 -3.898844 -3.9958344 1.3874912
2.8592956 -3.065131 -3.6088421 -0.61762655 3.5463014 -2.1272087 -1.8936697 1.0297107
2.3100433 -2.5727155 -4.2286134 3.0787082 -2.2011101 -0.17662227 1.5190544 -3.726165
-1.0409003 1.8798895 -1.821408 -1.9409907 -1.6132711 4.6302476 -3.4795756 3.3955023
-1.0019588 -3.0485513 -3.6153665 0.8851629 2.3990324 0.7830531 3.328207 -5.3542023
1.0252212 3.303858 -3.2417529 -3.353482 -1.5078697 -2.059456 1.684736 2.3095555
-1.0463911 1.7518069 -3.0873597 -2.7475019 -3.103264 -4.5587063 3.102914 1.254562
2.4058375 -0.7411188 -0.86332774 -1.9757501 -3.6875186 -1.3772867 2.917449 0.96035373
5.36814 2.4799066 2.185798 2.4552827 -2.213578 -3.2724285 4.085625 -1.8069062
-0.9901406 -1.2752228 -0.7558726 -2.151234 -0.6086018 2.3970547 -0.26375723 1.2972685
-0.08669899 -1.4169443 -0.055633 0.68679166 0.50326127 -3.0412145 -1.9942183 0.6019245
4.8685703 2.212058 3.933055 2.7831025 -1.0218786 -3.129926 -1.2737525 -1.5788816
-2.1308658 -1.8226416 -4.3599496 1.5986247 -3.3554106 -1.8132634 0.042563364 -2.1922047
-4.227393 1.137053 -0.007359002 4.223415 -2.2357554 2.7641718 1.276712 6.791093
3.3844748 -2.0934122 -3.8489578 5.9292955 -1.956719 -0.997807 4.0973577 1.702738
00000000: 481c 4cbf f8d5 fd3f 16f1 e0bf 65d9 08c0
00000010: 0756 0f40 799e 4d3d f042 b8bf 78b3 5f40
00000020: 18df 1340 5e2a 8bc0 9ef1 963f 908f a23e
00000030: c03c 5640 bdc9 77c0 8cf1 a33f 63a9 0540
00000040: 3b5d e1bf 0adf 5740 3ce6 20c0 5baa cac0
00000050: 9764 fc3f 769d b1bf e4ca 7940 7384 4cc0
00000060: 2bb1 00c0 0ab4 38c0 4015 b5bf 2f56 aebf
00000070: b985 443f 2bf7 0940 2ba6 0440 1dfd 9240
00000080: 62c6 833f dd09 843e 8b12 3b40 2fe7 89bf
00000090: 6382 e33f 93ca d53f 1c4d ab3f ec69 4b40
000000a0: 89b1 ddbf 883c d6bf dbf5 89bf 0a2e ae40
000000b0: e792 e7bf 87cb 863f 311b cc3f 839d c03f
000000c0: 2eae 8d40 84b1 1bbf 6d86 443e 18a6 02c0
000000d0: 9b00 33c0 b76b 413f a1cf 3fc0 a469 36be
000000e0: 86a6 5340 5b4b 86c0 01a0 47bf f111 ebbf
000000f0: de55 27c0 a5bf 35bf 9960 6e3f e368 a140
00000100: 8244 58c0 4046 e93f ad65 ff3f 4bb4 95c0
00000110: a20d 3d40 8424 1240 7fea f2bd ba23 edbf
00000120: 9444 4440 daf7 1540 5532 473d f51b 0940
00000130: 2417 68bf f699 aebe 0f7e 773f 0439 cabf
00000140: 1edc 68bd 85b2 3440 4dd7 1840 9802 6340
00000150: 28fd 97be 8b8d 76c0 7826 d63f 740e 883e
00000160: f2c2 24c0 4166 713f 4972 ce3f d4e1 1fc0
00000170: 3002 b43f 61cc 163f e1f5 7e3f 3ce9 87bf
00000180: f013 4ec0 faef 5ac0 24a6 223f 3875 01be
00000190: 2f83 c8bf 1620 58c0 d173 9640 e472 ccbe
000001a0: 01a1 273f b608 d03f 88ee 44c0 af34 61c0
000001b0: cbd0 183f 0bd7 59c0 2517 3ebf cded 08c0
000001c0: a452 6ec0 40f1 c83e 866f 39bd 41ca 5740
000001d0: ee20 a5c0 c71c 033f 0ac5 1040 6ab4 0a40
000001e0: 8070 4fc0 e32a d83f 4132 9040 2b16 7340
000001f0: c10f ebbf ba8c a8bf 0d52 d2bf 1621 7540
00000200: d70b 15c0 ae43 5d40 5c95 4dbe cf30 b740
00000210: f8ca ce3f 4d81 2b40 cd96 17c0 66f8 59bf
00000220: b72e 4f3e 2e1c e03f 9e1c 3140 f08a 853d
00000230: 0688 4a40 a986 79c0 c0bb 7fc0 5099 b13f
00000240: b3fe 3640 1b2b 44c0 45f7 66c0 c61c 1ebf
00000250: 9af6 6240 3024 08c0 c563 f2bf 8fcd 833f
00000260: c0d7 1340 5fa7 24c0 cd50 87c0 8e09 4540
00000270: fdde 0cc0 78dc 34be 6070 c23f 7d79 6ec0
00000280: 393c 85bf 38a0 f03f e623 e9bf 6272 f8bf
00000290: ab7f cebf fd2a 9440 5eb1 5ec0 e94f 5940
000002a0: 3040 80bf 771b 43c0 2a62 67c0 099a 623f
000002b0: bf89 1940 2b76 483f 5801 5540 a055 abc0
000002c0: 733a 833f 6972 5340 e178 4fc0 739f 56c0
000002d0: e001 c1bf 21ce 03c0 6ea5 d73f c2cf 1340
000002e0: 25f0 85bf 353b e03f 4d97 45c0 12d7 2fc0
000002f0: e19b 46c0 ece0 91c0 2596 4640 7d95 a03f
00000300: 3ef9 1940 f6b9 3dbf 0c03 5dbf 61e5 fcbf
00000310: 4e00 6cc0 ee4a b0bf 7cb7 3a40 bed9 753f
00000320: cec7 ab40 cab6 1e40 1de4 0b40 5a23 1d40
00000330: 43ab 0dc0 786f 51c0 71bd 8240 b448 e7bf
00000340: db79 7dbf 803a a3bf de80 41bf d1ad 09c0
00000350: 54cd 1bbf 5869 1940 300b 87be e50c a63f
00000360: 3d8f b1bd 6e5e b5bf 6edf 63bd 94d1 2f3f
00000370: bbd5 003f 42a3 42c0 8c42 ffbf b917 1a3f
00000380: 54cb 9b40 5c92 0d40 2cb7 7b40 5a1e 3240
00000390: ebcc 82bf b550 48c0 520a a3bf cb18 cabf
000003a0: 1b60 08c0 524c e9bf b584 8bc0 bc9f cc3f
000003b0: 0cbf 56c0 0419 e8bf ec56 2e3d 154d 0cc0
000003c0: ce46 87c0 f48a 913f c823 f1bb 3726 8740
000003d0: 9e16 0fc0 31e8 3040 4c6b a33f a250 d940
000003e0: 3c9b 5840 77fa 05c0 5355 76c0 cabc bd40
000003f0: c575 fabf 4870 7fbf 8e1d 8340 52f3 d93f
