models/Khamesh2.pt (torch, 4751 bytes, 12 tensors)

stiffness.eig_ f4 [2]
000000 fb 44 33 3f a6 fb 81 40
       0.7002713 4.061969

stiffness.vec_ f4 [2]
000000 5a 22 e9 ba 98 6a bf 3e
       -0.0017786727 0.37386012

dissipation.eig_ f4 [2]
000000 c7 76 4e 3f 83 f9 8f 40
       0.8064999 4.499208

dissipation.vec_ f4 [2]
000000 06 10 4c bc 75 48 a7 3e
       -0.012454992 0.32672468

embedding.net_.net_.0.weight f4 [64, 2]
000000 0a ce f9 3d be 74 8d bf dd 54 d1 3f 32 9d 52 be
       0.12197502 -1.1051252 1.6354023 -0.20567778
000010 f7 0b 6e bf e3 9f 3d bf a1 03 94 40 b6 8e fb c0
       -0.92987007 -0.7407209 4.625443 -7.861171
000020 e7 39 c1 be 5d 71 1e bf ee 31 78 3f 8f a5 31 3f
       -0.37739488 -0.6189173 0.96951187 0.6939325
000030 d9 fc 42 3f 93 c5 2c 3e a8 ea 38 40 b7 68 44 3f
       0.76167065 0.16872244 2.8893223 0.7672228
000040 6b 32 82 c0 d2 01 35 3f af fd d3 3b b9 e6 7a 3e
       -4.0686545 0.707059 0.0064694504 0.24502076
000050 3a fa 37 be fa 04 16 3e db 81 a2 40 ed 02 93 3f
       -0.17966548 0.14650336 5.0783515 1.1485268
000060 df 0e 90 bf cd 47 8e 3e 1a 0c 78 be 71 cf ac 3e
       -1.1254538 0.27789155 -0.24223366 0.33752015
000070 1c bb 22 3e 81 94 14 bf dc 98 a6 bf 36 f6 d1 3a
       0.15891689 -0.580391 -1.3015399 0.0016018811
000080 e7 18 e3 bf 2c b8 c1 3e d9 d5 1b be a5 75 c6 be
       -1.7741975 0.37835824 -0.15218295 -0.3876163
000090 1f bc c8 be 97 6e ea be 2e 9d d5 3f 6a 10 cf be
       -0.39206025 -0.45787498 1.6688592 -0.4044221
0000a0 95 7e 2f bd 29 b2 66 3d 90 85 0f bf 97 55 52 3f
       -0.042845327 0.05632225 -0.56063175 0.8216185
0000b0 b8 ef 50 c0 fa 6a 3c be 00 57 d5 bf 65 49 d1 3e
       -3.2646313 -0.18400183 -1.6667175 0.40876308
0000c0 a2 20 82 bf 63 51 bb be 1c 1b 61 40 dd f5 3d 3f
       -1.0166209 -0.3658553 3.5172796 0.7420328
0000d0 aa dc 58 bf a7 78 e0 3e 2a 46 fc 3b 32 04 ad be
       -0.84711707 0.4384205 0.007698794 -0.33792263
0000e0 e1 99 e4 bc d0 8c 4e bf 70 dd 6f 3e f3 8b ac 3e
       -0.027905406 -0.8068361 0.23424315 0.33700523
0000f0 d6 29 90 c0 21 c5 14 3f 74 de 3f be ed a3 66 bb
       -4.505107 0.58113295 -0.18737203 -0.0035192922
000100 30 59 57 3f 2a 83 8a 3e 45 0e 74 3c d4 7c de 3e
       0.84120464 0.27053195 0.01489598 0.4345461
000110 d6 48 02 3f 68 41 b7 be e0 83 48 3e 7e c6 54 be
       0.5089239 -0.35792089 0.19581556 -0.20778844
000120 93 c8 3d 3f b8 55 27 3f 0e ad c7 bf bb d5 b5 3e
       0.74134177 0.6536517 -1.5599687 0.35514626
000130 43 04 05 bf 7e 4c dd be e6 07 1b 3e 45 d4 0b be
       -0.5195963 -0.4322242 0.15139732 -0.13655193
000140 6e d0 0b bf 11 ed ba bf ba ab a1 3e 8a b2 e4 3e
       -0.54614913 -1.4603597 0.3157633 0.44667464
000150 e1 c0 fe bf c9 ed 18 3f 64 2b e6 3e b6 59 0c bf
       -1.9902612 0.5973783 0.4495498 -0.5482439
000160 e1 23 ba be 4c 4b 5e bf 3d bf c5 3e 10 1f ec be
       -0.36355498 -0.86833644 0.38622466 -0.4611745
000170 17 db 5a 3d 7d ed 1e 3d 25 3d de bd 21 38 b8 3e
       0.053431597 0.038800705 -0.10851506 0.35980323
000180 53 8a b8 be dd 21 bd bc 12 42 c7 3f 99 20 60 40
       -0.36043033 -0.023087436 1.5567038 3.5019896
000190 b6 9f 0c 3f 8f 0f 58 bf 8e d7 06 3f c3 02 d7 bc
       0.549312 -0.8439874 0.5267266 -0.026246434
0001a0 f1 7e 1a 40 9f 38 6e bf 2d 0d 77 3e d7 b4 c8 bd
       2.413998 -0.93055147 0.2412612 -0.098001175
0001b0 26 11 ad 3f 1e 6c dc 3c 94 5c 46 40 b6 3a d4 3f
       1.3520858 0.026907023 3.0994005 1.6580417
0001c0 4c a8 18 bf 31 b0 2e 40 58 8a e1 be 3e 39 0a 3e
       -0.596318 2.7295039 -0.4405086 0.13498399
0001d0 bc 50 1d 40 2c cc 79 bf ce 43 2b 3f 49 64 55 3f
       2.4580526 -0.97577167 0.66900337 0.8335615
0001e0 66 57 ce 3e bf 22 02 3f 04 b0 17 3e a6 0f 42 3f
       0.40301055 0.5083427 0.14813238 0.7580513
0001f0 9c 43 8b 3d e0 77 81 3e a5 95 c8 bb 30 ff 26 3f
       0.06800005 0.2528677 -0.0061213546 0.65233135

embedding.net_.net_.0.bias f4 [64]
000000 21 e3 5c bf cd 76 38 be b1 f8 84 bf 0f 2f 45 40
       -0.8628407 -0.18014069 -1.0388395 3.0809972
000010 41 a7 1d 3f 04 13 89 3f b8 ea 86 be 14 85 23 40
       0.61583334 1.0708928 -0.2635095 2.5549974
000020 85 f0 77 be 80 d9 83 be 3f 5d 8f 3e 85 04 e3 3f
       -0.24212845 -0.25751877 0.2800083 1.7735754
000030 12 b9 2d 3e 59 a8 29 3f dc 29 2d bf d2 9f 10 3f
       0.1696513 0.66272503 -0.67642 0.56493866
000040 b4 56 45 3d ba b0 fb be f0 ff 83 bf 1f 0c 0e bd
       0.04817839 -0.4915827 -1.0312481 -0.03467953
000050 87 71 40 be 2c aa 12 3f ec 79 b0 3f d2 63 a5 3b
       -0.18793307 0.5729091 1.3787208 0.0050473
000060 e5 92 03 3f 32 dd 26 c0 21 4b b1 3e 24 c5 d5 be
       0.5139602 -2.6072507 0.3462763 -0.4175197
000070 b4 99 92 bf 55 b5 c6 be 32 9d e9 bf 42 60 40 be
       -1.1453156 -0.3881022 -1.8251097 -0.1878672
000080 29 40 b7 be f5 49 e5 be 37 0f 83 bf 0d e5 22 bf
       -0.35791138 -0.44782987 -1.0239018 -0.63630754
000090 df 0f 9b 3f 67 27 63 bd 65 82 10 3f 5e a4 25 bf
       1.2114218 -0.0554575 0.56448966 -0.6470393
0000a0 bf 43 d1 bf b3 92 35 3f d9 07 15 be 9b 8f 4e bf
       -1.63488 0.7092697 -0.14553775 -0.80687875
0000b0 ed 26 cf bf f5 ec 2b bf 09 1b 5f 3e ca 37 e7 3e
       -1.6183754 -0.6715844 0.21787657 0.4515975
0000c0 cc 3c f7 bc d9 87 20 40 55 92 1c bf 0b dc ec be
       -0.030180357 2.5082915 -0.61160785 -0.4626163
0000d0 2a 26 3a 3f 22 a2 c8 bd ca 5b 45 bf c0 52 fb 3d
       0.72714484 -0.097965494 -0.77093184 0.12271643
0000e0 d7 a7 a0 bf 17 26 a3 be 81 41 40 3f 06 6b 6a 3e
       -1.2551221 -0.31864998 0.7509995 0.22892389
0000f0 99 de 43 3f e5 10 ec 3e 52 d6 b8 3e ba 5b 15 bf
       0.7651153 0.4610664 0.36101013 -0.5834309

embedding.net_.net_.2.weight f4 [1, 64]
000000 8a 32 50 3e 1f a4 12 3e f1 a4 6e be 06 b1 25 3f
       0.20331779 0.1432042 -0.23305108 0.6472324
000010 00 46 56 be 6f b8 82 3e 23 d5 8b 3e 40 4a e7 3f
       -0.2092514 0.25531337 0.27311048 1.8069534
000020 d3 42 42 bf 2f b8 cd 3d 17 7b e6 3d 5f 06 41 3f
       -0.75883216 0.10044896 0.11253946 0.75400347
000030 cd d2 3c bd c3 45 d7 bb 84 ba 0d be d0 5c a1 be
       -0.046099473 -0.0065695955 -0.13840681 -0.31516123
000040 5b 4e 69 be c0 5d 83 be 9c 78 f5 bd 7c 37 18 3e
       -0.22783796 -0.25657463 -0.11985895 0.14864916
000050 ee 61 eb bd 22 3a 0f be 92 b2 b5 bf 8d 46 99 be
       -0.11493288 -0.1398702 -1.419512 -0.29936638
000060 09 fd 73 be c4 93 f1 bf 89 c4 08 be 87 75 5a be
       -0.23826994 -1.887322 -0.13356222 -0.21333896
000070 2f 4a 17 3e ee d6 94 3e b4 a9 e1 be 3f 68 34 3e
       0.14774393 0.29070228 -0.44074786 0.17617892
000080 8d c7 6e 3e 2d 55 23 3e 48 15 2a bd 69 50 c8 bd
       0.2331831 0.1595046 -0.0415242 -0.09780962
000090 67 79 ed 3d 77 e4 71 be f7 2c 3c be b6 e4 11 be
       0.11595421 -0.23622309 -0.18376528 -0.14247403
0000a0 f1 e8 a6 3e af 99 7c 3e b4 cd 98 be cc 10 3f 3e
       0.32599595 0.24668 -0.2984444 0.18658751
0000b0 9d 01 76 3e a1 89 89 3d 32 d4 66 3e 77 2f 91 3d
       0.24024053 0.06715704 0.22541884 0.07089131
0000c0 db 12 0d 3e a1 b3 3c 3e 9c f9 dc 3d b3 7a 01 bb
       0.13776724 0.18427898 0.10789797 -0.0019756972
0000d0 22 3e 9b 3e cd cb b9 bd 90 b2 89 3e 62 bc 41 3f
       0.3032084 -0.09072075 0.26894045 0.75678074
0000e0 2c 1e a5 3e a3 d2 37 be bd 52 f7 3e a2 9a f4 bc
       0.32249582 -0.17951445 0.48305312 -0.02985889
0000f0 4f b6 4b 3e 0e 69 55 3e b3 68 97 3e b5 b8 48 3e
       0.19893764 0.20840856 0.29572067 0.1960171

velocity_.stiffness.eig_ f4 [2]
000000 fb 44 33 3f a6 fb 81 40
       0.7002713 4.061969

velocity_.stiffness.vec_ f4 [2]
000000 5a 22 e9 ba 98 6a bf 3e
       -0.0017786727 0.37386012

velocity_.embedding.net_.net_.0.weight f4 [64, 2]
000000 0a ce f9 3d be 74 8d bf dd 54 d1 3f 32 9d 52 be
       0.12197502 -1.1051252 1.6354023 -0.20567778
000010 f7 0b 6e bf e3 9f 3d bf a1 03 94 40 b6 8e fb c0
       -0.92987007 -0.7407209 4.625443 -7.861171
000020 e7 39 c1 be 5d 71 1e bf ee 31 78 3f 8f a5 31 3f
       -0.37739488 -0.6189173 0.96951187 0.6939325
000030 d9 fc 42 3f 93 c5 2c 3e a8 ea 38 40 b7 68 44 3f
       0.76167065 0.16872244 2.8893223 0.7672228
000040 6b 32 82 c0 d2 01 35 3f af fd d3 3b b9 e6 7a 3e
       -4.0686545 0.707059 0.0064694504 0.24502076
000050 3a fa 37 be fa 04 16 3e db 81 a2 40 ed 02 93 3f
       -0.17966548 0.14650336 5.0783515 1.1485268
000060 df 0e 90 bf cd 47 8e 3e 1a 0c 78 be 71 cf ac 3e
       -1.1254538 0.27789155 -0.24223366 0.33752015
000070 1c bb 22 3e 81 94 14 bf dc 98 a6 bf 36 f6 d1 3a
       0.15891689 -0.580391 -1.3015399 0.0016018811
000080 e7 18 e3 bf 2c b8 c1 3e d9 d5 1b be a5 75 c6 be
       -1.7741975 0.37835824 -0.15218295 -0.3876163
000090 1f bc c8 be 97 6e ea be 2e 9d d5 3f 6a 10 cf be
       -0.39206025 -0.45787498 1.6688592 -0.4044221
0000a0 95 7e 2f bd 29 b2 66 3d 90 85 0f bf 97 55 52 3f
       -0.042845327 0.05632225 -0.56063175 0.8216185
0000b0 b8 ef 50 c0 fa 6a 3c be 00 57 d5 bf 65 49 d1 3e
       -3.2646313 -0.18400183 -1.6667175 0.40876308
0000c0 a2 20 82 bf 63 51 bb be 1c 1b 61 40 dd f5 3d 3f
       -1.0166209 -0.3658553 3.5172796 0.7420328
0000d0 aa dc 58 bf a7 78 e0 3e 2a 46 fc 3b 32 04 ad be
       -0.84711707 0.4384205 0.007698794 -0.33792263
0000e0 e1 99 e4 bc d0 8c 4e bf 70 dd 6f 3e f3 8b ac 3e
       -0.027905406 -0.8068361 0.23424315 0.33700523
0000f0 d6 29 90 c0 21 c5 14 3f 74 de 3f be ed a3 66 bb
       -4.505107 0.58113295 -0.18737203 -0.0035192922
000100 30 59 57 3f 2a 83 8a 3e 45 0e 74 3c d4 7c de 3e
       0.84120464 0.27053195 0.01489598 0.4345461
000110 d6 48 02 3f 68 41 b7 be e0 83 48 3e 7e c6 54 be
       0.5089239 -0.35792089 0.19581556 -0.20778844
000120 93 c8 3d 3f b8 55 27 3f 0e ad c7 bf bb d5 b5 3e
       0.74134177 0.6536517 -1.5599687 0.35514626
000130 43 04 05 bf 7e 4c dd be e6 07 1b 3e 45 d4 0b be
       -0.5195963 -0.4322242 0.15139732 -0.13655193
000140 6e d0 0b bf 11 ed ba bf ba ab a1 3e 8a b2 e4 3e
       -0.54614913 -1.4603597 0.3157633 0.44667464
000150 e1 c0 fe bf c9 ed 18 3f 64 2b e6 3e b6 59 0c bf
       -1.9902612 0.5973783 0.4495498 -0.5482439
000160 e1 23 ba be 4c 4b 5e bf 3d bf c5 3e 10 1f ec be
       -0.36355498 -0.86833644 0.38622466 -0.4611745
000170 17 db 5a 3d 7d ed 1e 3d 25 3d de bd 21 38 b8 3e
       0.053431597 0.038800705 -0.10851506 0.35980323
000180 53 8a b8 be dd 21 bd bc 12 42 c7 3f 99 20 60 40
       -0.36043033 -0.023087436 1.5567038 3.5019896
000190 b6 9f 0c 3f 8f 0f 58 bf 8e d7 06 3f c3 02 d7 bc
       0.549312 -0.8439874 0.5267266 -0.026246434
0001a0 f1 7e 1a 40 9f 38 6e bf 2d 0d 77 3e d7 b4 c8 bd
       2.413998 -0.93055147 0.2412612 -0.098001175
0001b0 26 11 ad 3f 1e 6c dc 3c 94 5c 46 40 b6 3a d4 3f
       1.3520858 0.026907023 3.0994005 1.6580417
0001c0 4c a8 18 bf 31 b0 2e 40 58 8a e1 be 3e 39 0a 3e
       -0.596318 2.7295039 -0.4405086 0.13498399
0001d0 bc 50 1d 40 2c cc 79 bf ce 43 2b 3f 49 64 55 3f
       2.4580526 -0.97577167 0.66900337 0.8335615
0001e0 66 57 ce 3e bf 22 02 3f 04 b0 17 3e a6 0f 42 3f
       0.40301055 0.5083427 0.14813238 0.7580513
0001f0 9c 43 8b 3d e0 77 81 3e a5 95 c8 bb 30 ff 26 3f
       0.06800005 0.2528677 -0.0061213546 0.65233135

velocity_.embedding.net_.net_.0.bias f4 [64]
000000 21 e3 5c bf cd 76 38 be b1 f8 84 bf 0f 2f 45 40
       -0.8628407 -0.18014069 -1.0388395 3.0809972
000010 41 a7 1d 3f 04 13 89 3f b8 ea 86 be 14 85 23 40
       0.61583334 1.0708928 -0.2635095 2.5549974
000020 85 f0 77 be 80 d9 83 be 3f 5d 8f 3e 85 04 e3 3f
       -0.24212845 -0.25751877 0.2800083 1.7735754
000030 12 b9 2d 3e 59 a8 29 3f dc 29 2d bf d2 9f 10 3f
       0.1696513 0.66272503 -0.67642 0.56493866
000040 b4 56 45 3d ba b0 fb be f0 ff 83 bf 1f 0c 0e bd
       0.04817839 -0.4915827 -1.0312481 -0.03467953
000050 87 71 40 be 2c aa 12 3f ec 79 b0 3f d2 63 a5 3b
       -0.18793307 0.5729091 1.3787208 0.0050473
000060 e5 92 03 3f 32 dd 26 c0 21 4b b1 3e 24 c5 d5 be
       0.5139602 -2.6072507 0.3462763 -0.4175197
000070 b4 99 92 bf 55 b5 c6 be 32 9d e9 bf 42 60 40 be
       -1.1453156 -0.3881022 -1.8251097 -0.1878672
000080 29 40 b7 be f5 49 e5 be 37 0f 83 bf 0d e5 22 bf
       -0.35791138 -0.44782987 -1.0239018 -0.63630754
000090 df 0f 9b 3f 67 27 63 bd 65 82 10 3f 5e a4 25 bf
       1.2114218 -0.0554575 0.56448966 -0.6470393
0000a0 bf 43 d1 bf b3 92 35 3f d9 07 15 be 9b 8f 4e bf
       -1.63488 0.7092697 -0.14553775 -0.80687875
0000b0 ed 26 cf bf f5 ec 2b bf 09 1b 5f 3e ca 37 e7 3e
       -1.6183754 -0.6715844 0.21787657 0.4515975
0000c0 cc 3c f7 bc d9 87 20 40 55 92 1c bf 0b dc ec be
       -0.030180357 2.5082915 -0.61160785 -0.4626163
0000d0 2a 26 3a 3f 22 a2 c8 bd ca 5b 45 bf c0 52 fb 3d
       0.72714484 -0.097965494 -0.77093184 0.12271643
0000e0 d7 a7 a0 bf 17 26 a3 be 81 41 40 3f 06 6b 6a 3e
       -1.2551221 -0.31864998 0.7509995 0.22892389
0000f0 99 de 43 3f e5 10 ec 3e 52 d6 b8 3e ba 5b 15 bf
       0.7651153 0.4610664 0.36101013 -0.5834309

velocity_.embedding.net_.net_.2.weight f4 [1, 64]
000000 8a 32 50 3e 1f a4 12 3e f1 a4 6e be 06 b1 25 3f
       0.20331779 0.1432042 -0.23305108 0.6472324
000010 00 46 56 be 6f b8 82 3e 23 d5 8b 3e 40 4a e7 3f
       -0.2092514 0.25531337 0.27311048 1.8069534
000020 d3 42 42 bf 2f b8 cd 3d 17 7b e6 3d 5f 06 41 3f
       -0.75883216 0.10044896 0.11253946 0.75400347
000030 cd d2 3c bd c3 45 d7 bb 84 ba 0d be d0 5c a1 be
       -0.046099473 -0.0065695955 -0.13840681 -0.31516123
000040 5b 4e 69 be c0 5d 83 be 9c 78 f5 bd 7c 37 18 3e
       -0.22783796 -0.25657463 -0.11985895 0.14864916
000050 ee 61 eb bd 22 3a 0f be 92 b2 b5 bf 8d 46 99 be
       -0.11493288 -0.1398702 -1.419512 -0.29936638
000060 09 fd 73 be c4 93 f1 bf 89 c4 08 be 87 75 5a be
       -0.23826994 -1.887322 -0.13356222 -0.21333896
000070 2f 4a 17 3e ee d6 94 3e b4 a9 e1 be 3f 68 34 3e
       0.14774393 0.29070228 -0.44074786 0.17617892
000080 8d c7 6e 3e 2d 55 23 3e 48 15 2a bd 69 50 c8 bd
       0.2331831 0.1595046 -0.0415242 -0.09780962
000090 67 79 ed 3d 77 e4 71 be f7 2c 3c be b6 e4 11 be
       0.11595421 -0.23622309 -0.18376528 -0.14247403
0000a0 f1 e8 a6 3e af 99 7c 3e b4 cd 98 be cc 10 3f 3e
       0.32599595 0.24668 -0.2984444 0.18658751
0000b0 9d 01 76 3e a1 89 89 3d 32 d4 66 3e 77 2f 91 3d
       0.24024053 0.06715704 0.22541884 0.07089131
0000c0 db 12 0d 3e a1 b3 3c 3e 9c f9 dc 3d b3 7a 01 bb
       0.13776724 0.18427898 0.10789797 -0.0019756972
0000d0 22 3e 9b 3e cd cb b9 bd 90 b2 89 3e 62 bc 41 3f
       0.3032084 -0.09072075 0.26894045 0.75678074
0000e0 2c 1e a5 3e a3 d2 37 be bd 52 f7 3e a2 9a f4 bc
       0.32249582 -0.17951445 0.48305312 -0.02985889
0000f0 4f b6 4b 3e 0e 69 55 3e b3 68 97 3e b5 b8 48 3e
       0.19893764 0.20840856 0.29572067 0.1960171
