models/Khamesh1.pt (torch, 13471 bytes, 3 tensors)

stiffness.eig_ f4 [2]
00000000: 1013 d13f 1604 75be
1.6333942 -0.2392734

stiffness.vec_ f4 [2]
00000000: 420f 393f 29c1 18bf
0.72288907 -0.5966974

embedding.net_.weights_ f4 [2940]
00000000: 1c13 4a40 eb97 1640 62d0 4040 f1dc 2d40
00000010: eae5 3540 84e4 1e40 d85f 2040 258f 0840
00000020: 78b6 1440 59d7 1040 08d1 1440 6953 e43f
00000030: 6237 cf3f 9ad9 0740 3d71 c23f 0583 cc3f
00000040: d414 d13f f156 d03f 2b8a 873f 3fd2 8e3f
00000050: d7c7 4b3f 71eb 303f 61e3 c33e 0478 ff3e
00000060: 3f49 343f f59e 083e 947f 0b3f a5b6 cf3e
00000070: 1257 4b3e d054 60be 53a6 28be 1912 99bf
00000080: e1e6 94bf b834 c3bf 4825 c1bf 7f2c d3bf
00000090: a407 f0bf 74d6 cdbf 4207 ddbf 68b5 14c0
000000a0: 802e e0bf 6977 f6bf 7a28 1cc0 962b 0ec0
000000b0: 8568 0dc0 f8fc f4bf de2f 24c0 130d e3bf
000000c0: 2bfd 1bc0 2ba1 edbf e2d5 1cc0 268b 11c0
000000d0: 1320 0cc0 23dc e7bf d401 9fbf f2d3 aebf
000000e0: e848 90bf 6c18 62bf e6e8 9abf 2c4d 74bf
000000f0: e478 4abf c41b 2abe 1704 013f e59f 3f3f
00000100: a6fa 4b3f 9df9 1e3f 8101 0d3f 1a9e 543f
00000110: fbe8 813f 79b9 5c3f f3ba 903f f568 8f3f
00000120: 8a91 8a3f 0d14 ea3f 892e 963f 518b 813f
00000130: 6f2b 7f3f c117 8e3f b79b a23f 134d 8a3f
00000140: 5c00 933e 7a29 2e3f 76a0 1abe 6a6f b63d
00000150: 128d 2fbf 46d7 7dbf a4af 9dbf 2154 86bf
00000160: ce53 8abf 76de c2bf 815d fdbf 395a b3bf
00000170: 7355 c2bf 36b5 99bf 8715 d0bf d820 b1bf
00000180: adb8 30bf e476 e9be bad4 d1bd b063 5bbe
00000190: 3ad3 0b3d 587d 713f 20d2 913f 934b 603f
000001a0: 08ba a03f 98a2 2e3f 642f 533f 7973 ae3f
000001b0: 0671 293f 2f0e 163f 9712 513e d026 783e
000001c0: 892e ffbe 67ea 28bf d749 2abf 2e2e 4abf
000001d0: d61e 29be dd1e e1be f40d 5abf c804 17bf
000001e0: 14de 5fbf b611 e2be c6ee 7bbf 65b1 c9be
000001f0: f999 27bf 0331 15be 8b0c 2fbf c6fe f8be
00000200: 1d88 80be 1666 0bbf 28fb 8abd c624 3cbf
00000210: 83ca fdbe cde3 93be d3ce d2be 017c 83be
00000220: c520 ddbe 612e 8e3e e07d b9be b443 f8bc
00000230: f283 d9bd 3571 7fbe 02eb f3be 2382 09be
00000240: b90b b0be 7126 be3e 1564 a9bd 0624 063e
00000250: 8897 a7be 3a2d 943e c96d f6be 01c0 4cbe
00000260: 121d c4be cf36 913e d3ac dfbd 145a 76be
00000270: 1799 823e 071f 453c b5e8 923c 488e dc3d
00000280: c59d b83e bfeb 1f3e b7c3 f53e 8a61 eb3e
00000290: 665c 783c c36b 3d3c 794f 803e 2d61 433e
000002a0: a4fa eb3d f482 e43d 76b5 a33e b05e 363f
000002b0: 58d9 373f 46e4 09be 4f89 1dbe 6566 3a3f
000002c0: 6c8b 2bbe 1758 123f 370a 723e 3a0d 6a3e
000002d0: dbc5 323e f97c 9e3c 0ca3 413f 874d 673e
000002e0: 42a4 efbd 67fd cb3e 83a5 363e 454d 323f
000002f0: 1669 373f f7f4 db3e a525 d93e 5ced 2d3f
00000300: 673d 483d 9c05 253e 3887 cc3e 2374 203f
00000310: 4743 453f 5b8a 4f3e 1024 b23d 2640 e53e
00000320: 711b 2e3f 614c b63e ca81 903d 0d6b db3d
00000330: fde6 893e b591 4b3f 5292 0b3f 3eed 033f
00000340: 7803 143f b6e8 643e a600 553f babc 223f
00000350: e80d 443e ae14 5c3f 9176 5b3f f702 af3d
00000360: 27c1 ce3e 6272 1b3f f215 f43d dbf6 a23e
00000370: f806 283e 6fea 383f c558 023f 0585 523f
00000380: c059 9b3e 7e14 133e 1101 1a3f f371 283f
00000390: 9810 093f 9e56 143f dc89 163e b352 6dbc
000003a0: 3a23 653e 7930 b63e acd5 3ebd 0fcb ed3c
000003b0: 8b1c 043d f2fd a63e 2cf5 cbbd eeda 183f
000003c0: 135c ee3d a264 563e cee3 acbc 9493 823e
000003d0: 4c28 f53e 1d1c 063f 9ddd 093f 8544 243f
000003e0: aa06 a43e 1bd7 1f3e 374f a9bd fd97 893e
000003f0: 2699 343f b642 423f 061f 163f bc48 de3e
3.1574163 2.3530223 3.0127187 2.7166102 2.8421578 2.4826975 2.5058498 2.1337368
2.323637 2.2631438 2.3252583 1.7837955 1.6188776 2.1226563 1.5190808 1.5977484
1.6334481 1.6276532 1.058904 1.1157912 0.79601806 0.69109255 0.38259414 0.49896252
0.70424265 0.13341887 0.54491544 0.40569034 0.19857433 -0.21907353 -0.16469698 -1.1958648
-1.1632959 -1.5250463 -1.5089502 -1.6497954 -1.8752332 -1.6081071 -1.726784 -2.3235722
-1.7514191 -1.9255191 -2.4399705 -2.2214103 -2.2095044 -1.91397 -2.5654216 -1.7738365
-2.4373271 -1.856481 -2.4505544 -2.274118 -2.1894577 -1.8114055 -1.2422433 -1.365843
-1.1272249 -0.88318515 -1.2102325 -0.95430255 -0.79090714 -0.16612154 0.50396866 0.74853355
0.79679334 0.6209963 0.5508042 0.83053744 1.0149225 0.8622051 1.1307052 1.1203905
1.0825665 1.8287369 1.1732951 1.0120641 0.9967565 1.1100999 1.270377 1.0804771
0.28711212 0.6803204 -0.15100273 0.08907969 -0.6857463 -0.99156606 -1.2319226 -1.0494424
-1.0806825 -1.522414 -1.979416 -1.4011909 -1.5182327 -1.2008426 -1.625657 -1.3838148
-0.6903179 -0.4559852 -0.102456525 -0.21424747 0.03413699 0.94331884 1.139225 0.8761532
1.2556772 0.6821685 0.8249419 1.362899 0.66188085 0.5861539 0.20417248 0.24233556
-0.4984019 -0.6598267 -0.6651892 -0.78976715 -0.16515669 -0.4396886 -0.8517754 -0.5899167
-0.8744824 -0.44154137 -0.98411214 -0.39393154 -0.6546932 -0.14569478 -0.68378514 -0.48631877
-0.25103846 -0.54452646 -0.067861855 -0.7349361 -0.49568567 -0.28884736 -0.4117342 -0.25680545
-0.43189064 0.2776976 -0.36228848 -0.03030572 -0.1062087 -0.24945529 -0.47640234 -0.1342855
-0.34383944 0.37138703 -0.08271042 0.1309968 -0.32732797 0.28940755 -0.48130634 -0.19995119
-0.3830343 0.28362128 -0.109216355 -0.240578 0.25507423 0.012031323 0.017933229 0.107693255
0.3605787 0.15617274 0.4800088 0.45972854 0.015158748 0.011561337 0.25060633 0.19080038
0.11522415 0.1115779 0.3197438 0.7123823 0.71816015 -0.13465986 -0.1538441 0.7281249
-0.16752404 0.57165664 0.23636709 0.22856608 0.17458288 0.019346701 0.75639415 0.22588168
-0.117012516 0.39841768 0.17836575 0.69649154 0.71644723 0.4296033 0.42411533 0.67940307
0.048886683 0.16115421 0.39946914 0.6267721 0.7705578 0.20267622 0.086982846 0.44775504
0.6801062 0.35605147 0.07056005 0.10713778 0.26934043 0.79519206 0.5452014 0.5153388
0.5781779 0.22354397 0.83204114 0.63569224 0.1914593 0.85969055 0.8572779 0.085454874
0.4038174 0.6072141 0.11918248 0.3182896 0.16408908 0.7223272 0.509167 0.8223422
0.3034191 0.14363286 0.6015788 0.6579887 0.53540945 0.5794467 0.14701027 -0.014485049
0.22376719 0.35583857 -0.046590492 0.02902749 0.032253783 0.3261562 -0.09958872 0.5970906
0.116386555 0.20936826 -0.02110472 0.25503218 0.47882307 0.5238665 0.5385378 0.6416705
0.32036334 0.156094 -0.08267062 0.2687377 0.70546186 0.7588304 0.5864109 0.43414867
