models/Khamesh2.pt (torch, 39745 bytes, 20 tensors)

stiffness.eig_ f4 [2]
00000000: 54ad 0540 0cd3 5540
2.088704 3.3410063

stiffness.vec_ f4 [2]
00000000: 5cf6 923e 2493 883f
0.28703582 1.0669904

dissipation.eig_ f4 [2]
00000000: d35c 8d38 e5da 8540
6.740694e-05 4.1829705

dissipation.vec_ f4 [2]
00000000: 2d74 d43e 7c31 5cbe
0.41494885 -0.21503252

embedding.net_.net_.0.weight f4 [64, 2]
00000000: 4ed3 313e 50a4 323f 29d8 20bf aad5 e7be
00000010: 2f32 15bf 411a 87be 3831 f93e cef9 3bbe
00000020: daff 0fbf 0407 5c3e 3eeb 4e3f b5cd 94be
00000030: baf7 61bf 0944 3cbf d79d 00bf 57ed 19bf
00000040: 7b14 19bf 8ba0 89be 8b01 743f d1cc 13be
00000050: 25cb 41bf 9c8c a93e 4263 08bf abe7 ecbe
00000060: ccc4 11bf df64 0ebf e604 303f 6b78 6a3e
00000070: 3aa8 0c3f ee9c 053f 8a09 1bbf 5dfc 10bf
00000080: 36c0 903f 6dc3 f53e 30c6 35bf a993 223f
00000090: c733 803f 9028 cfbd 0757 e9be 9091 913e
000000a0: 2d69 b1be 8b70 edbd 99ae d73e 74cb 2ebe
000000b0: 6a82 86bf 66b7 1e3d 5be7 22bf bec7 1abf
000000c0: 622b 14bf 1e11 2fbe 3a8e eabe b3b5 05bf
000000d0: e16a 52bf a996 7dbd 9708 d7be 7415 4ebf
000000e0: 8cb5 383f 8771 0e3f 5719 8a3e 30ac 53bf
000000f0: 3423 6dbf bada aebe fb5f 193f 9d71 823e
00000100: b1aa 513f 4e47 1cbf 2d47 b23e 873c c1be
00000110: 0da3 203f 8940 bbbd eb5e 0b3f 4860 c83e
00000120: 8465 8d3d 805b 433f 3e17 503f cf70 23bf
00000130: 51ec 5a3f 3407 28bf 8230 07bf eaed 8ebe
00000140: baf8 353f 5fc5 ce3e 9016 ef3e ff17 80be
00000150: da08 75bf f90c dabe bc7c 51bf 9914 acbe
00000160: 5adb 00bf 15c0 e3be f155 cabe e90f 1fbf
00000170: 7f24 94bf 112d 43be c564 20be 4924 1bbe
00000180: b965 4b3f d665 dcbe 67e2 083f d6fe a7be
00000190: 5069 6b3e d9ab c8be 73b6 8ebe fadf a53e
000001a0: d56a 61bf 1831 9ebc 9e8e 2a3f da8c 01bf
000001b0: 1312 7fbf 62df 353e 35ce 92bf 8adc 183f
000001c0: e0cf d23e 762e b6bc 3863 46bf dea9 e43e
000001d0: b315 6e3f 33fd 42bf 00a5 18bf f4d4 1c3e
000001e0: d17d 173f 06c0 cebe feb5 333f 5638 37bd
000001f0: 17cd 0bbe 4d1e 73be 139a bb3d ea70 283f
0.17365763 0.6978197 -0.62829834 -0.452802 -0.582797 -0.26387218 0.48670363 -0.18357012
-0.56249774 0.21487051 0.808277 -0.29063192 -0.88268626 -0.73541313 -0.50240844 -0.60127777
-0.59796876 -0.26880297 0.95314854 -0.144336 -0.757006 0.3311509 -0.53276455 -0.462705
-0.56940913 -0.5562267 0.68757474 0.22897498 0.54944193 0.5219258 -0.6056143 -0.56635076
1.1308658 0.4800066 -0.71005535 0.6350656 1.0015801 -0.101151586 -0.4557421 0.28431368
-0.34650555 -0.115937315 0.42125395 -0.17069799 -1.0508549 0.03874912 -0.6363427 -0.6046103
-0.57878697 -0.17096373 -0.45811635 -0.52230376 -0.82194334 -0.06191126 -0.4199874 -0.80501485
0.7215202 0.5564198 0.26972458 -0.8268461 -0.9263184 -0.3415125 0.5991208 0.25477305
0.8190108 -0.610463 0.34819928 -0.3774149 0.62748796 -0.091431685 0.5444171 0.39135957
0.06904128 0.7631149 0.81285465 -0.6384401 0.8551684 -0.6563599 -0.5280839 -0.2791589
0.7108265 0.40384957 0.466969 -0.25018308 -0.9571663 -0.42588022 -0.81830955 -0.33609465
-0.50334704 -0.44482484 -0.39518693 -0.6213365 -1.1573638 -0.1906016 -0.1566344 -0.1515056
0.7945209 -0.43046445 0.5347046 -0.32811612 0.22989392 -0.3919361 -0.27873573 0.32397443
-0.8805364 -0.01931052 0.66623867 -0.5060555 -0.99636954 0.17760995 -1.1469179 0.59711516
0.4117422 -0.022238951 -0.77495146 0.44660848 0.9300186 -0.761676 -0.5962677 0.1531561
0.59176356 -0.40380877 0.70199573 -0.04473146 -0.13652454 -0.23742028 0.09160247 0.65797293

embedding.net_.net_.0.bias f4 [64]
00000000: 0a8a 08be 4a66 f6be eab9 07bf c8c5 05bf
00000010: db9c b13e 0c45 b6bd c5aa 10be aba1 36bc
00000020: 6b81 bebe 1282 19be f738 e9be b07b 403d
00000030: 591f d73e 2a3d b9be 178f ef3e 0798 a03d
00000040: 9fee d5be 1e74 623e 676e c1be 3b94 31bf
00000050: 48fb 2ebf b810 2b3f f9a9 ec3e 731e e73d
00000060: ef21 e63d 4932 03bc 213f 833e a06c ccbe
00000070: e5e6 1f3f e8fa 87bc 46c2 6b3e 438a 323e
00000080: 1c21 e33e e33f 233f 828e 96bd 8292 7bbe
00000090: 3a1b 173f 0654 223f 4411 eabe c0b6 aabe
000000a0: 8508 1abf 4326 733e 025d 123e 2b14 1f3e
000000b0: 08b5 f5be 2b38 493e 1202 da3e 3f70 30bf
000000c0: 2a66 d83e 58ce 17bf 216b 6f3e 014f fabe
000000d0: c32e 963e ab2a 0d3f ed15 db3c 86fc 083d
000000e0: 68e1 0d3f ad68 12bf e395 b8be 0c4b abbe
000000f0: 57d7 df3e 6240 733e b792 00bf ad86 a03d
-0.13333908 -0.48124915 -0.5301806 -0.52254915 0.34689984 -0.088998884 -0.14127643 -0.011146943
-0.37208113 -0.14991024 -0.45551273 0.046992958 0.42016104 -0.36179477 0.46788856 0.07841497
-0.41783616 0.22114608 -0.37779543 -0.69366807 -0.68352175 0.66822386 0.4622343 0.112851046
0.11236941 -0.008007594 0.256341 -0.39926624 0.6246169 -0.016599134 0.23023328 0.17435555
0.44361198 0.6376936 -0.073514 -0.24567607 0.5902592 0.6340946 -0.45716298 -0.33342552
-0.6016925 0.23745064 0.14293292 0.15535037 -0.47989678 0.19650333 0.42579705 -0.68921274
0.42265445 -0.5929923 0.2338071 -0.488884 0.2933255 0.5514323 0.026743853 0.03344395
0.5542207 -0.5719097 -0.36051854 -0.33455694 0.4371898 0.23755029 -0.5022387 0.07838187

embedding.net_.net_.2.weight f4 [64, 64]
00000000: 44be a23b 2353 c53d a16f 323d a535 0b3e
00000010: 7474 653d 94e6 db3d 1c33 7e3e b9dc 033e
00000020: 1ef9 643e 06fe 1d3e 5cda d73d ae5a 183e
00000030: ee87 2e3d 36b8 bf3c 0c32 1fbe ba0d 26bc
00000040: 72e9 95bd 0b22 29be 8bc6 4c3e e69e cdbd
00000050: 591e 963d 5ab5 2d3d 620c 48be b94e 2a3e
00000060: 2374 b63d ac99 4d3e b902 bbbd c05d ac3e
00000070: 5bd2 5fbe caa5 373e 7a45 e3bd ed1b 21be
00000080: 36f5 cf3c 1208 ee3c dbc7 13bd d4e0 b83b
00000090: b665 49be c1b3 87bc a7bd 3f3d a94d 583e
000000a0: fbd3 cc3d 13fe 7ebd 4105 053b 23ed 633d
000000b0: 27b9 8e3e 596e bb39 9b3c b73c d9a3 8dbd
000000c0: 0b1e 2ebe b3dc 85bd 9387 a3bd 5895 073d
000000d0: 4bc5 14be 9e7d febd ebd4 2abe a89c 58be
000000e0: 4bfd 1cbd a03d e93c ca59 3a3e dd52 0a3e
000000f0: 50ff e0bd 8058 68be 3405 1c3e d390 66be
00000100: a0d1 14be 3fc3 4a3e ee03 543e 3a35 cd3c
00000110: 41d6 22bd 61ed e73d f126 2f3e 1603 203e
00000120: ef5f 4b3e 31c4 753d a145 28bd e0bf a83d
00000130: 90db 043e 0c86 083e 818d 32be 11ee 4d3e
00000140: c3b7 a4bc 8a53 a3be b058 4f3e 3071 9ebd
00000150: 827c 193d ce00 bf3d d981 2fbd f7a6 9f3c
00000160: a64e c83d 712d 913e 03bf d43c 0695 b13e
00000170: 22a5 9abe 3544 a63e 6145 063e f334 91be
00000180: 7255 efbd d73f 80bd 052a be3d 5013 49bd
00000190: 6b3b a5be 3e23 ee3c e12f 673e 6a41 993e
000001a0: f659 553d 380e 4f3e 4451 d73d a5f9 4b3d
000001b0: 127d a23e 38c1 253e 1115 d5bd 0d1e 853c
000001c0: 760e 0bbe 1ab3 7e3e 5204 efbc bef9 913d
000001d0: f6b4 51bd 475e 4ebd d421 7cbd 0d86 34be
000001e0: 294b 14be 3153 d03b ae3c 583e 2abb fc3d
000001f0: 1596 b2bc 91ca 44be 1f76 033e b6c0 96be
00000200: 15d8 0b3e cf34 40be 7668 b1be 472d 3fbe
00000210: 552d 7e3d eb1e 963d fb8a 64be b161 1abe
00000220: 0f24 8bbe 314f 433d 60d2 58be 4d0d 93bd
00000230: dc58 01be 49c9 6f3c ae55 863e 3aa6 65be
00000240: 6720 9abd 66de a23c 3821 be3d ad7d 1abe
00000250: 67a6 21be 1fa7 363e 0b05 2b3d 1f4b 17be
00000260: 2635 30be d2c4 09be 561f 9fbc 5559 2cbe
00000270: e290 933e e048 0bbe b50c 9ebd 0419 423e
00000280: 1030 be3d b775 b23d 35b9 273e 67dd 733d
00000290: b963 7b3d 62fa 033e fc20 45be 3125 b7be
000002a0: 08ea 103d a102 143e 76e6 46bd a5ff 51be
000002b0: a1a1 9fbe 0001 863c 3ccf fbbc 6f20 56be
000002c0: 4db7 653d dd1f 1dbc 2ae6 a23d 2954 6cbd
000002d0: 3e84 cbbb 35b6 3d3e c4b0 05be 0f0d 083e
000002e0: b7ba 2b3e d573 29bd a509 87be 7875 bcbd
000002f0: 59f5 423d a417 733e db5d 04be d247 8f3e
00000300: 74c2 31be e1a9 80be b4fd 2fbe 64f2 913d
00000310: 72ba 1cbd 7eae 273e 4f48 943b 3f95 bfbd
00000320: 09c0 8fbe 8c6c 9c3e 0e97 9ebe e014 14be
00000330: 21d5 b1bd 9048 8dbc 0d0c 6c3e 2be1 85bd
00000340: 5c56 453c a93f 09be 877d 3e3e 85a0 4ebd
00000350: bf15 86bd 4aaf a1bb 4080 24be 9c6b 0bbe
00000360: b256 abbd bfb2 e3bd ad33 6ebe 3941 063d
00000370: e388 473d 5086 923e a48c 7c3c f379 593e
00000380: 3f71 d53d a64a 493e f4b5 4e3e 6145 80bd
00000390: caeb 633d 503e d23d a22a ed3c a0af bdbe
000003a0: 14d6 9f3d e273 3c3e 02f9 d6bd 2cdc 38bd
000003b0: a240 0abe 4a4b e73d 024f 27bd 282b dabd
000003c0: 5cb3 df3d 34e2 b4bc 312f 023c b5ac 6bbd
000003d0: c1af 2cbe ff40 7c3e 377e 11be 4ecc 97be
000003e0: 6c7b 8a3d 63b0 4ebe 69c5 c33d d1ff 69be
000003f0: a0f9 2a3e eba3 3c3f f8d9 1bbd ffda a4bd
0.004966529 0.09634998 0.04356349 0.13594683 0.05601926 0.10737339 0.24824184 0.12877168
0.22360656 0.15428934 0.105396956 0.14878342 0.0426101 0.023403268 -0.15546435 -0.010135109
-0.07319917 -0.16516893 0.19997613 -0.10040073 0.07330007 0.04240928 -0.19535974 0.16631593
0.0890887 0.20078152 -0.09131379 0.33665276 -0.21857588 0.17934337 -0.11097236 -0.15733309
0.02538548 0.029056583 -0.03607927 0.005642036 -0.19667706 -0.016565206 0.046811726 0.21123375
0.100013696 -0.062254023 0.002029732 0.055646073 0.27875635 0.00035749635 0.022367766 -0.06916017
-0.17003648 -0.06536236 -0.07984843 0.03310141 -0.14528386 -0.12426303 -0.16682784 -0.2115351
-0.038327496 0.028471768 0.18198314 0.13508172 -0.10986197 -0.2269001 0.1523636 -0.22516184
-0.1453309 0.19801043 0.20704624 0.025049794 -0.03975511 0.11324573 0.17104699 0.15626177
0.19860815 0.060001556 -0.04108203 0.08239722 0.12974381 0.13332385 -0.17436792 0.20110346
-0.020107156 -0.31899673 0.20248675 -0.077364326 0.037472256 0.09326325 -0.04284844 0.019488795
0.09780626 0.28354982 0.025969988 0.34684008 -0.3020411 0.32473913 0.13112403 -0.2836071
-0.11686219 -0.062621765 0.09285358 -0.049090683 -0.32271895 0.02906954 0.22576858 0.2993272
0.052087747 0.20220268 0.10513547 0.049798626 0.31736046 0.16186988 -0.10404409 0.01624968
-0.13579735 0.2487301 -0.029176865 0.07127713 -0.05119797 -0.05038288 -0.0615557 -0.17629261
-0.14481796 0.0063575734 0.21116897 0.12340386 -0.02180008 -0.19217898 0.12838028 -0.29443902
0.13656648 -0.18770145 -0.3465001 -0.18669616 0.06205495 0.07330116 -0.22318642 -0.15076329
-0.27175948 0.047682945 -0.21174002 -0.07180271 -0.12631553 0.014635392 0.26237243 -0.22426692
-0.075257115 0.019881438 0.0928368 -0.15087004 -0.15786134 0.17837189 0.041752856 -0.1477475
-0.17207775 -0.13453987 -0.019424122 -0.16830952 0.28821474 -0.13602018 -0.077172674 0.18954855
0.09286511 0.087138586 0.16379245 0.059537318 0.0613744 0.12888482 -0.19250864 -0.35770562
0.03537944 0.14454128 -0.04855963 -0.20507677 -0.31178 0.016357899 -0.030738465 -0.2091081
0.056083012 -0.009590116 0.079540566 -0.05769745 -0.006210833 0.18526538 -0.13055712 0.13286231
0.16770445 -0.04137023 -0.26374546 -0.09202093 0.047597263 0.23739487 -0.12926428 0.27984482
-0.17359334 -0.25129607 -0.17186624 0.071263105 -0.038263746 0.16375157 0.0045252214 -0.09354638
-0.280762 0.30551565 -0.3097462 -0.14461088 -0.08683229 -0.017246515 0.23051472 -0.06537088
0.012044515 -0.1340319 0.18602572 -0.050446052 -0.065471165 -0.004934226 -0.16064548 -0.13615268
-0.08366145 -0.111180775 -0.232619 0.032777045 0.04871453 0.28618097 0.015414391 0.21237926
0.104219906 0.19657382 0.20186597 -0.06263233 0.055644788 0.102657914 0.028950993 -0.37048054
0.07804504 0.18403581 -0.10496713 -0.045131847 -0.13501218 0.11293657 -0.040846832 -0.10652763
0.10922882 -0.022080518 0.007945822 -0.057537753 -0.1686392 0.24634169 -0.14208303 -0.2964806
0.06761822 -0.20184474 0.095591374 -0.22851492 0.16696787 0.7368762 -0.038049668 -0.08049583

embedding.net_.net_.2.bias f4 [64]
00000000: 7d46 59bd e009 803d f306 0b3e 44f1 2fbd
00000010: fc4c 653c 5bd1 193e e402 9ebd 84d3 b0bd
00000020: 9293 4b3d edb4 afbd 1ff4 3e3d 2640 53bd
00000030: 9fc6 86bd 94cb c0bd e460 e1bd 8337 25be
00000040: 424a 23be c1b0 a03b ac45 01be 6d33 edbd
00000050: fafc e13c cbd0 d43c 16ad 6bb8 d076 1a3e
00000060: d578 65bd 8400 a53d cdc7 87bd 9c3d 96bd
00000070: 15d1 313d ed5a 193d 004e a8bc f254 773c
00000080: 5ea1 2a3d 45be 42be 29b7 bd3c b13c 4cbd
00000090: a30d 093d f271 7a3d 5330 21be dc7e df3c
000000a0: b974 7dbc 5e23 5abe 4405 4e3e d4d4 02be
000000b0: e009 3dbe 9f12 43be 8699 bebd e618 b63d
000000c0: b5f9 613e a99e debd 2192 023e 89e0 84bc
000000d0: cd56 0f3e a979 7bbd e036 f2bc 392d ec3d
000000e0: 5585 d03c c2dc 503d c5f5 1c3d 5f36 fabd
000000f0: 1bbe a9bb 87fd 0e3d eebe 073c 77e2 7d3c
-0.05304574 0.062518835 0.1357687 -0.0429547 0.013995405 0.15021269 -0.07715395 -0.086340934
0.04970128 -0.08579431 0.04661953 -0.05157485 -0.06580853 -0.094138294 -0.110048085 -0.16134457
-0.15946296 0.004903883 -0.12624234 -0.11582074 0.027586449 0.025978466 -5.6189565e-05 0.15084386
-0.056023438 0.08056739 -0.06629906 -0.0733597 0.043412287 0.03744023 -0.020545006 0.015095936
0.041657798 -0.19017895 0.023158627 -0.049862567 0.03346027 0.061143823 -0.1574109 0.027282171
-0.015469723 -0.21302554 0.20119196 -0.127765 -0.18460798 -0.19050072 -0.09306626 0.08891468
0.22067912 -0.10870106 0.12751056 -0.016220348 0.13997956 -0.06139532 -0.029567182 0.11532063
0.025454203 0.05099178 0.03832032 -0.12217402 -0.005180133 0.03490975 0.008285267 0.015495888

embedding.net_.net_.4.weight f4 [64, 64]
00000000: 6e90 4bbd d492 623d f340 1dbd 1af1 b4bc
00000010: a55b b13d 3c12 283c 99ad 17bd a1d7 ec3c
00000020: f2c1 893d 35ac a83d 4dcb 90bd 2737 a33d
00000030: 064d 9a3d 5568 a0bd bb57 1ebe 3f1e f8bd
00000040: b489 0abe af34 043e 47b3 173e 8906 1eba
00000050: 779b 1abe e7bc 9bbd 8f40 cf3d f734 d83d
00000060: 6c72 a63c 1a7f 4ebc ed43 11bd 18cd 6fbc
00000070: 1607 7abb 73aa 01bd e0b3 0d3e 2860 9b3b
00000080: 66a5 c2bc bc06 c43d 787b 84bd ca96 303c
00000090: 1827 7c3d 7103 f7bc dc79 59bd a194 4bbd
000000a0: dd52 8238 9cf9 2e3e b2c6 8b3d f4fc 57bd
000000b0: e82a 08be 7923 b8bd 6759 233b 4cbc 33be
000000c0: de0c 8fbc 896b d3bd 75e3 123e 2cba 2dbd
000000d0: dec0 f13d d335 b03d 13d1 1e3e f28c 1a3c
000000e0: c508 293d b0b9 cebc 60f3 08be b237 8e3d
000000f0: 0116 6f3d eeca 923d 7e35 0c3d 5257 a93d
00000100: ee4b c8bd 9477 4d3d 8a94 853d 2840 153e
00000110: 608a 50bd e943 323e 13d7 10be 6468 003d
00000120: ae51 183e 93de 103c f1a1 4fbd 92ea 353e
00000130: 20e4 8c3d 2410 5abe 2064 c3bd e095 dcbb
00000140: f32c 40be 0d0c 2dbe 06b4 dbbe 7491 e73d
00000150: dac5 65be e757 7d3d 2b2e 853d cf40 023e
00000160: e9e6 e13d 6704 3c3d 1631 a9be c458 a7bd
00000170: c140 963e c5f3 c13c 4e9e 003e 81bc 223e
00000180: 7620 9ebc 4c95 f63c 0c3b 5b3e 0168 a3bd
00000190: 556a 793e eb5c 1c3e 9b33 d5bd 862f d03d
000001a0: 9ac2 553e 59e0 883d d68f e73c 5b33 a33b
000001b0: d5a9 903d c27d 133c a1ae 943d fd44 b8bd
000001c0: 5d5b 3abe 7284 2e3e 30ca df3d 91e0 bf3c
000001d0: da84 0e3e 44a8 063e b2f4 0fbe 6933 d73d
000001e0: f7c9 3b3e 2ab2 afbd b8da ab3d da02 a6be
000001f0: e5b4 023e 0c9d 3e3c 4509 4dbd 4979 233d
00000200: c81f 353e d7dc 953e b7e5 cdbd e4b1 a0bc
00000210: 67e8 2c3e b0c3 d8bd f860 23be 45a4 2cbe
00000220: 8161 1c3e 35cc e53d 1747 0a3e 6172 97bd
00000230: 21e2 353d 69ea 173d 37fa 0e3e 437f cebe
00000240: 2332 843d af8b d93e 5508 013e 6135 23bf
00000250: 8ac5 d63c 365e 66be dfdb 1d3c 915d e73c
00000260: 4b8b 803f 2fe0 103e f3b3 86bb 5bc0 5c3d
00000270: 35fc 613c 830d 633d 6ee1 1dbf 75dc 713e
00000280: 3e81 a1bd b23e c3bd cb60 c7bd 862f 3b3e
00000290: 3ee1 fabd 9309 14be 5693 393d e632 14bf
000002a0: b05b 2d3d bc69 923f 693c 483d 2bd8 1ebe
000002b0: d0b3 0d3e da69 cf3a 3b37 75be dae2 633e
000002c0: 39d9 1b3e 2510 22bf 3ffd 593f a07d 953d
000002d0: bed7 3fbe f5d6 b9bd 2a15 283f 0c8f c5bd
000002e0: 76cc 23be a9c8 bb3e cc0d 25bd 0215 de3d
000002f0: b306 9fbd bd60 143f a7c4 ffbd 2f42 37be
00000300: 544e 52bd 2ec9 98be 33ce aa3e a7c9 46be
00000310: f9ff 88be 4ec9 58bd 8630 3cbe fa40 113e
00000320: 3b41 acbe 7cac 053c 6204 8b3e ffb1 1fbe
00000330: 5713 483d 0aea 6e3e ad78 3abd 057b fc3d
00000340: bc94 d83d ef2c 383d b2f8 433e 8bdf f63b
00000350: e486 dc3d fb7e 2d3d ef4e 76be a78c 833d
00000360: 6ee9 aabd bf72 2dbd d71a d83e 0806 5abe
00000370: 5789 81bd a245 343e 0508 9e3d 525f a8be
00000380: a602 e3bd faa8 7b3d f29b aebe 8926 c0bd
00000390: f3ad 50bb efa3 cabd cdde 713e 3e70 a6bc
000003a0: 12ec b1be e548 1f3d 003f f2bd b92e a13e
000003b0: d4de e0bd a49a a8be 5e95 50bd 394e 1bbe
000003c0: 51d1 11bd 2f76 943c 66c7 81be 43a9 eabd
000003d0: 4be3 0bbd 9d95 94be 3fcb b9bd 25ba d53c
000003e0: f33f 12bd 9e35 f33b 0ab5 4abe 9893 0f3e
000003f0: 5160 97bd 9975 44bd ee2c ca3e 3257 f0bd
-0.049698286 0.055315807 -0.03839202 -0.022087622 0.08660058 0.010258254 -0.03703079 0.028911414
0.06726445 0.08235971 -0.070700265 0.07969504 0.07534222 -0.078324 -0.15463154 -0.12115144
-0.13529092 0.12910722 0.14814483 -0.00060281955 -0.15098368 -0.0760439 0.101197354 0.10556977
0.020318232 -0.012603546 -0.03546517 -0.0146363005 -0.0038151196 -0.031656694 0.13838148 0.0047416873
-0.023760509 0.09571597 -0.06468862 0.010778138 0.06156072 -0.030153008 -0.05309473 -0.04970229
6.2143175e-05 0.17087406 0.068250075 -0.05273147 -0.13297617 -0.08991141 0.0024925114 -0.17552298
-0.01746219 -0.10323245 0.1434458 -0.042413875 0.118043646 0.08604016 0.15509443 0.009433018
0.04126813 -0.025235027 -0.1337409 0.06944217 0.058370594 0.07167612 0.0342307 0.08268608
-0.097801074 0.050162867 0.06522472 0.14575255 -0.050913215 0.17408718 -0.14144544 0.031349555
0.14874908 0.008842128 -0.05069155 0.17765263 0.06879449 -0.2129522 -0.09540582 -0.0067317337
-0.18767147 -0.16899128 -0.42910784 0.1130704 -0.22438756 0.06185141 0.065029465 0.12720035
0.11030371 0.045902636 -0.33045262 -0.081712276 0.29346278 0.023675809 0.12560388 0.15892221
-0.019302588 0.030100487 0.21409243 -0.079788215 0.24356969 0.1526982 -0.104102336 0.101653144
0.20875016 0.06683416 0.028266829 0.0049804873 0.07063643 0.009002151 0.0725987 -0.089975335
-0.18198915 0.17042711 0.10927236 0.023422511 0.13917866 0.13150126 -0.14058188 0.105078526
0.18338762 -0.08578904 0.08391327 -0.3242405 0.12764318 0.011634123 -0.05005767 0.03991059
0.17687905 0.2927005 -0.1005358 -0.019616075 0.1688553 -0.105841994 -0.1595496 -0.16859539
0.1527157 0.1122059 0.13503681 -0.07394863 0.044405106 0.037088785 0.13962637 -0.40331468
0.06454875 0.42489383 0.12600835 -0.63753325 0.02621724 -0.22496876 0.009634941 0.028242858
1.0042509 0.14148019 -0.004110807 0.053894382 0.013793041 0.055432808 -0.61672103 0.23619254
-0.07885979 -0.095334426 -0.09735259 0.18279848 -0.12249993 -0.14456777 0.045306526 -0.57890165
0.04232377 1.1438518 0.048885737 -0.15512149 0.13838124 0.0015824393 -0.2394685 0.22254506
0.15219583 -0.63305885 0.8515205 0.07299352 -0.18734643 -0.09074203 0.65657294 -0.09646425
-0.15995964 0.3667653 -0.04029636 0.10843851 -0.0776495 0.5796011 -0.1248868 -0.17896341
-0.05134423 -0.29840988 0.33360443 -0.19412862 -0.26757792 -0.052926354 -0.18377885 0.14184943
-0.33643517 0.008158799 0.2715178 -0.15595244 0.04884657 0.23331466 -0.04552524 0.123281516
0.10575244 0.044964727 0.19137838 0.0075339726 0.10767916 0.042357426 -0.24053548 0.06423312
-0.083453044 -0.04234576 0.42207977 -0.21291363 -0.063250236 0.17604688 0.07716373 -0.32885224
-0.110844895 0.061440445 -0.34103352 -0.0938235 -0.0031841963 -0.09894549 0.23620148 -0.020317193
-0.3475042 0.038887877 -0.118284225 0.3148096 -0.10980001 -0.3293048 -0.050923698 -0.15166558
-0.03560001 0.01812276 -0.2534744 -0.11458065 -0.03415231 -0.29020396 -0.09071969 0.026089737
-0.035705518 0.007422163 -0.19795623 0.14021146 -0.07391418 -0.047963712 0.39487404 -0.11735381

embedding.net_.net_.4.bias f4 [64]
00000000: 9739 00bc cb4c c6bd 2593 0abd 5e0a 83be
00000010: df2c 72be e87f 38bd 90cb 02be db14 503e
00000020: cf12 a0bd d84d 5fbc 47c9 a43e ced4 37be
00000030: 8c10 013e 92b6 1fbd ea97 f83c bba0 893c
00000040: 9dde 0bbe 4641 203e bf30 b03e 14f6 9bbe
00000050: 1a1a d83d 68cf 23be 7b0b bdbd 4418 05be
00000060: 5834 95bd e1b2 673c 1292 2c3d d275 97bc
00000070: 95e8 1abc f9d8 6d3d 58d5 803d 5a49 403e
00000080: 256a 5abd e1f4 70bd 2dc2 be3b 78c8 02bd
00000090: 809f 253e 8e72 0ebc cd73 b0bc 0926 083d
000000a0: 0c46 91be 7b12 3c3d 1e60 26bd d876 debd
000000b0: 4cc8 8dbd dc1c 2b3d eeac 953d 00d2 b1bd
000000c0: 612c 093e e35c 3dbe ee06 8abd 4561 dcbd
000000d0: 0c89 503d f180 b3bc a914 fd3d 4d3e 5dbe
000000e0: 4717 b63b 2a0a c5bd ec16 b13d 6ff5 e93d
000000f0: ff40 283e e82e 503d c373 97bb a612 6cbd
-0.0078262305 -0.09682616 -0.033831734 -0.25593847 -0.2364993 -0.045043856 -0.12772965 0.20320456
-0.078160875 -0.013629399 0.32184812 -0.17952272 0.12603968 -0.038992472 0.030345876 0.016800275
-0.13659139 0.156499 0.3441219 -0.3046118 0.105518535 -0.15997088 -0.09230705 -0.12997538
-0.072853744 0.014141769 0.04213149 -0.018488798 -0.009454866 0.05806825 0.06290692 0.18777981
-0.053323884 -0.058827285 0.0058214874 -0.031929463 0.16174126 -0.008694304 -0.021539593 0.0332394
-0.28373754 0.04591606 -0.04061901 -0.108625114 -0.06922969 0.04177557 0.07308374 -0.086826324
0.13395835 -0.18492465 -0.06739603 -0.1076074 0.050911948 -0.02191207 0.12357456 -0.21605797
0.005556974 -0.09621079 0.0864695 0.11423766 0.16431044 0.050825983 -0.004621954 -0.057634972

embedding.net_.net_.6.weight f4 [1, 64]
00000000: 06c7 d83d a91a 343e bdc8 02be 4627 5c3e
00000010: e1f6 6dbe d4a5 24be 3869 fc3d e4af 92be
00000020: 6740 74be da86 4e3e cd70 9fbe e2ea 0dbe
00000030: 2d25 1a3e 1532 e93d fc26 7c3e 10bd 263c
00000040: df1e b33d 7d3b 59be f8ae 1ebf 1efa b63e
00000050: 143c e03e 77bd c73d 604c 223e 7a26 8cbe
00000060: ff1e 82be b0a2 593e 6971 8b3e 80a1 7c3e
00000070: 37d1 23bd b630 98bd b229 05be 4988 44bd
00000080: ec4e 7fbe 127a 17be 1fe7 adbd 6334 8fbe
00000090: 2921 81be e0ab c5bd c732 143e eee8 e33c
000000a0: cb27 e7bd a072 3c3e 89a2 40be c15f 80bd
000000b0: e0e8 a63d 793a 173e 542f edbd 7f93 69be
000000c0: 842f 763e a512 7cbd af2f d43d d85d 073d
000000d0: 9870 de3d 7fd9 98be 7723 d83d 5bd0 2e3e
000000e0: c93a 84be dcd6 72be 36ed 823e 168b c7bd
000000f0: e0ff eebd e473 b7be 8898 e4bd ec05 383e
0.10584836 0.17588295 -0.12771888 0.21499357 -0.23238708 -0.16078883 0.123247564 -0.2864982
-0.23852693 0.2016863 -0.31140748 -0.13859132 0.15053244 0.113865055 0.24624246 0.010176912
0.087461226 -0.21214099 -0.6198573 0.357377 0.43795836 0.097529344 0.15849447 -0.27373105
-0.25414273 0.21253467 0.27234963 0.24670982 -0.039994445 -0.07431166 -0.13004187 -0.047981534
-0.2493245 -0.1479266 -0.084913485 -0.27969655 -0.25220612 -0.09651923 0.14472495 0.02782103
-0.11286887 0.18403101 -0.18812002 -0.062682636 0.08149886 0.147684 -0.11581293 -0.22810172
0.24041563 -0.06154122 0.103606574 0.03304848 0.10861319 -0.29853436 0.105536394 0.17071669
-0.258261 -0.23714775 0.25571603 -0.097433254 -0.11669898 -0.35830605 -0.111619055 0.17971009

velocity_.stiffness.eig_ f4 [2]
00000000: 54ad 0540 0cd3 5540
2.088704 3.3410063

velocity_.stiffness.vec_ f4 [2]
00000000: 5cf6 923e 2493 883f
0.28703582 1.0669904

velocity_.embedding.net_.net_.0.weight f4 [64, 2]
00000000: 4ed3 313e 50a4 323f 29d8 20bf aad5 e7be
00000010: 2f32 15bf 411a 87be 3831 f93e cef9 3bbe
00000020: daff 0fbf 0407 5c3e 3eeb 4e3f b5cd 94be
00000030: baf7 61bf 0944 3cbf d79d 00bf 57ed 19bf
00000040: 7b14 19bf 8ba0 89be 8b01 743f d1cc 13be
00000050: 25cb 41bf 9c8c a93e 4263 08bf abe7 ecbe
00000060: ccc4 11bf df64 0ebf e604 303f 6b78 6a3e
00000070: 3aa8 0c3f ee9c 053f 8a09 1bbf 5dfc 10bf
00000080: 36c0 903f 6dc3 f53e 30c6 35bf a993 223f
00000090: c733 803f 9028 cfbd 0757 e9be 9091 913e
000000a0: 2d69 b1be 8b70 edbd 99ae d73e 74cb 2ebe
000000b0: 6a82 86bf 66b7 1e3d 5be7 22bf bec7 1abf
000000c0: 622b 14bf 1e11 2fbe 3a8e eabe b3b5 05bf
000000d0: e16a 52bf a996 7dbd 9708 d7be 7415 4ebf
000000e0: 8cb5 383f 8771 0e3f 5719 8a3e 30ac 53bf
000000f0: 3423 6dbf bada aebe fb5f 193f 9d71 823e
00000100: b1aa 513f 4e47 1cbf 2d47 b23e 873c c1be
00000110: 0da3 203f 8940 bbbd eb5e 0b3f 4860 c83e
00000120: 8465 8d3d 805b 433f 3e17 503f cf70 23bf
00000130: 51ec 5a3f 3407 28bf 8230 07bf eaed 8ebe
00000140: baf8 353f 5fc5 ce3e 9016 ef3e ff17 80be
00000150: da08 75bf f90c dabe bc7c 51bf 9914 acbe
00000160: 5adb 00bf 15c0 e3be f155 cabe e90f 1fbf
00000170: 7f24 94bf 112d 43be c564 20be 4924 1bbe
00000180: b965 4b3f d665 dcbe 67e2 083f d6fe a7be
00000190: 5069 6b3e d9ab c8be 73b6 8ebe fadf a53e
000001a0: d56a 61bf 1831 9ebc 9e8e 2a3f da8c 01bf
000001b0: 1312 7fbf 62df 353e 35ce 92bf 8adc 183f
000001c0: e0cf d23e 762e b6bc 3863 46bf dea9 e43e
000001d0: b315 6e3f 33fd 42bf 00a5 18bf f4d4 1c3e
000001e0: d17d 173f 06c0 cebe feb5 333f 5638 37bd
000001f0: 17cd 0bbe 4d1e 73be 139a bb3d ea70 283f
0.17365763 0.6978197 -0.62829834 -0.452802 -0.582797 -0.26387218 0.48670363 -0.18357012
-0.56249774 0.21487051 0.808277 -0.29063192 -0.88268626 -0.73541313 -0.50240844 -0.60127777
-0.59796876 -0.26880297 0.95314854 -0.144336 -0.757006 0.3311509 -0.53276455 -0.462705
-0.56940913 -0.5562267 0.68757474 0.22897498 0.54944193 0.5219258 -0.6056143 -0.56635076
1.1308658 0.4800066 -0.71005535 0.6350656 1.0015801 -0.101151586 -0.4557421 0.28431368
-0.34650555 -0.115937315 0.42125395 -0.17069799 -1.0508549 0.03874912 -0.6363427 -0.6046103
-0.57878697 -0.17096373 -0.45811635 -0.52230376 -0.82194334 -0.06191126 -0.4199874 -0.80501485
0.7215202 0.5564198 0.26972458 -0.8268461 -0.9263184 -0.3415125 0.5991208 0.25477305
0.8190108 -0.610463 0.34819928 -0.3774149 0.62748796 -0.091431685 0.5444171 0.39135957
0.06904128 0.7631149 0.81285465 -0.6384401 0.8551684 -0.6563599 -0.5280839 -0.2791589
0.7108265 0.40384957 0.466969 -0.25018308 -0.9571663 -0.42588022 -0.81830955 -0.33609465
-0.50334704 -0.44482484 -0.39518693 -0.6213365 -1.1573638 -0.1906016 -0.1566344 -0.1515056
0.7945209 -0.43046445 0.5347046 -0.32811612 0.22989392 -0.3919361 -0.27873573 0.32397443
-0.8805364 -0.01931052 0.66623867 -0.5060555 -0.99636954 0.17760995 -1.1469179 0.59711516
0.4117422 -0.022238951 -0.77495146 0.44660848 0.9300186 -0.761676 -0.5962677 0.1531561
0.59176356 -0.40380877 0.70199573 -0.04473146 -0.13652454 -0.23742028 0.09160247 0.65797293

velocity_.embedding.net_.net_.0.bias f4 [64]
00000000: 0a8a 08be 4a66 f6be eab9 07bf c8c5 05bf
00000010: db9c b13e 0c45 b6bd c5aa 10be aba1 36bc
00000020: 6b81 bebe 1282 19be f738 e9be b07b 403d
00000030: 591f d73e 2a3d b9be 178f ef3e 0798 a03d
00000040: 9fee d5be 1e74 623e 676e c1be 3b94 31bf
00000050: 48fb 2ebf b810 2b3f f9a9 ec3e 731e e73d
00000060: ef21 e63d 4932 03bc 213f 833e a06c ccbe
00000070: e5e6 1f3f e8fa 87bc 46c2 6b3e 438a 323e
00000080: 1c21 e33e e33f 233f 828e 96bd 8292 7bbe
00000090: 3a1b 173f 0654 223f 4411 eabe c0b6 aabe
000000a0: 8508 1abf 4326 733e 025d 123e 2b14 1f3e
000000b0: 08b5 f5be 2b38 493e 1202 da3e 3f70 30bf
000000c0: 2a66 d83e 58ce 17bf 216b 6f3e 014f fabe
000000d0: c32e 963e ab2a 0d3f ed15 db3c 86fc 083d
000000e0: 68e1 0d3f ad68 12bf e395 b8be 0c4b abbe
000000f0: 57d7 df3e 6240 733e b792 00bf ad86 a03d
-0.13333908 -0.48124915 -0.5301806 -0.52254915 0.34689984 -0.088998884 -0.14127643 -0.011146943
-0.37208113 -0.14991024 -0.45551273 0.046992958 0.42016104 -0.36179477 0.46788856 0.07841497
-0.41783616 0.22114608 -0.37779543 -0.69366807 -0.68352175 0.66822386 0.4622343 0.112851046
0.11236941 -0.008007594 0.256341 -0.39926624 0.6246169 -0.016599134 0.23023328 0.17435555
0.44361198 0.6376936 -0.073514 -0.24567607 0.5902592 0.6340946 -0.45716298 -0.33342552
-0.6016925 0.23745064 0.14293292 0.15535037 -0.47989678 0.19650333 0.42579705 -0.68921274
0.42265445 -0.5929923 0.2338071 -0.488884 0.2933255 0.5514323 0.026743853 0.03344395
0.5542207 -0.5719097 -0.36051854 -0.33455694 0.4371898 0.23755029 -0.5022387 0.07838187

velocity_.embedding.net_.net_.2.weight f4 [64, 64]
00000000: 44be a23b 2353 c53d a16f 323d a535 0b3e
00000010: 7474 653d 94e6 db3d 1c33 7e3e b9dc 033e
00000020: 1ef9 643e 06fe 1d3e 5cda d73d ae5a 183e
00000030: ee87 2e3d 36b8 bf3c 0c32 1fbe ba0d 26bc
00000040: 72e9 95bd 0b22 29be 8bc6 4c3e e69e cdbd
00000050: 591e 963d 5ab5 2d3d 620c 48be b94e 2a3e
00000060: 2374 b63d ac99 4d3e b902 bbbd c05d ac3e
00000070: 5bd2 5fbe caa5 373e 7a45 e3bd ed1b 21be
00000080: 36f5 cf3c 1208 ee3c dbc7 13bd d4e0 b83b
00000090: b665 49be c1b3 87bc a7bd 3f3d a94d 583e
000000a0: fbd3 cc3d 13fe 7ebd 4105 053b 23ed 633d
000000b0: 27b9 8e3e 596e bb39 9b3c b73c d9a3 8dbd
000000c0: 0b1e 2ebe b3dc 85bd 9387 a3bd 5895 073d
000000d0: 4bc5 14be 9e7d febd ebd4 2abe a89c 58be
000000e0: 4bfd 1cbd a03d e93c ca59 3a3e dd52 0a3e
000000f0: 50ff e0bd 8058 68be 3405 1c3e d390 66be
00000100: a0d1 14be 3fc3 4a3e ee03 543e 3a35 cd3c
00000110: 41d6 22bd 61ed e73d f126 2f3e 1603 203e
00000120: ef5f 4b3e 31c4 753d a145 28bd e0bf a83d
00000130: 90db 043e 0c86 083e 818d 32be 11ee 4d3e
00000140: c3b7 a4bc 8a53 a3be b058 4f3e 3071 9ebd
00000150: 827c 193d ce00 bf3d d981 2fbd f7a6 9f3c
00000160: a64e c83d 712d 913e 03bf d43c 0695 b13e
00000170: 22a5 9abe 3544 a63e 6145 063e f334 91be
00000180: 7255 efbd d73f 80bd 052a be3d 5013 49bd
00000190: 6b3b a5be 3e23 ee3c e12f 673e 6a41 993e
000001a0: f659 553d 380e 4f3e 4451 d73d a5f9 4b3d
000001b0: 127d a23e 38c1 253e 1115 d5bd 0d1e 853c
000001c0: 760e 0bbe 1ab3 7e3e 5204 efbc bef9 913d
000001d0: f6b4 51bd 475e 4ebd d421 7cbd 0d86 34be
000001e0: 294b 14be 3153 d03b ae3c 583e 2abb fc3d
000001f0: 1596 b2bc 91ca 44be 1f76 033e b6c0 96be
00000200: 15d8 0b3e cf34 40be 7668 b1be 472d 3fbe
00000210: 552d 7e3d eb1e 963d fb8a 64be b161 1abe
00000220: 0f24 8bbe 314f 433d 60d2 58be 4d0d 93bd
00000230: dc58 01be 49c9 6f3c ae55 863e 3aa6 65be
00000240: 6720 9abd 66de a23c 3821 be3d ad7d 1abe
00000250: 67a6 21be 1fa7 363e 0b05 2b3d 1f4b 17be
00000260: 2635 30be d2c4 09be 561f 9fbc 5559 2cbe
00000270: e290 933e e048 0bbe b50c 9ebd 0419 423e
00000280: 1030 be3d b775 b23d 35b9 273e 67dd 733d
00000290: b963 7b3d 62fa 033e fc20 45be 3125 b7be
000002a0: 08ea 103d a102 143e 76e6 46bd a5ff 51be
000002b0: a1a1 9fbe 0001 863c 3ccf fbbc 6f20 56be
000002c0: 4db7 653d dd1f 1dbc 2ae6 a23d 2954 6cbd
000002d0: 3e84 cbbb 35b6 3d3e c4b0 05be 0f0d 083e
000002e0: b7ba 2b3e d573 29bd a509 87be 7875 bcbd
000002f0: 59f5 423d a417 733e db5d 04be d247 8f3e
00000300: 74c2 31be e1a9 80be b4fd 2fbe 64f2 913d
00000310: 72ba 1cbd 7eae 273e 4f48 943b 3f95 bfbd
00000320: 09c0 8fbe 8c6c 9c3e 0e97 9ebe e014 14be
00000330: 21d5 b1bd 9048 8dbc 0d0c 6c3e 2be1 85bd
00000340: 5c56 453c a93f 09be 877d 3e3e 85a0 4ebd
00000350: bf15 86bd 4aaf a1bb 4080 24be 9c6b 0bbe
00000360: b256 abbd bfb2 e3bd ad33 6ebe 3941 063d
00000370: e388 473d 5086 923e a48c 7c3c f379 593e
00000380: 3f71 d53d a64a 493e f4b5 4e3e 6145 80bd
00000390: caeb 633d 503e d23d a22a ed3c a0af bdbe
000003a0: 14d6 9f3d e273 3c3e 02f9 d6bd 2cdc 38bd
000003b0: a240 0abe 4a4b e73d 024f 27bd 282b dabd
000003c0: 5cb3 df3d 34e2 b4bc 312f 023c b5ac 6bbd
000003d0: c1af 2cbe ff40 7c3e 377e 11be 4ecc 97be
000003e0: 6c7b 8a3d 63b0 4ebe 69c5 c33d d1ff 69be
000003f0: a0f9 2a3e eba3 3c3f f8d9 1bbd ffda a4bd
0.004966529 0.09634998 0.04356349 0.13594683 0.05601926 0.10737339 0.24824184 0.12877168
0.22360656 0.15428934 0.105396956 0.14878342 0.0426101 0.023403268 -0.15546435 -0.010135109
-0.07319917 -0.16516893 0.19997613 -0.10040073 0.07330007 0.04240928 -0.19535974 0.16631593
0.0890887 0.20078152 -0.09131379 0.33665276 -0.21857588 0.17934337 -0.11097236 -0.15733309
0.02538548 0.029056583 -0.03607927 0.005642036 -0.19667706 -0.016565206 0.046811726 0.21123375
0.100013696 -0.062254023 0.002029732 0.055646073 0.27875635 0.00035749635 0.022367766 -0.06916017
-0.17003648 -0.06536236 -0.07984843 0.03310141 -0.14528386 -0.12426303 -0.16682784 -0.2115351
-0.038327496 0.028471768 0.18198314 0.13508172 -0.10986197 -0.2269001 0.1523636 -0.22516184
-0.1453309 0.19801043 0.20704624 0.025049794 -0.03975511 0.11324573 0.17104699 0.15626177
0.19860815 0.060001556 -0.04108203 0.08239722 0.12974381 0.13332385 -0.17436792 0.20110346
-0.020107156 -0.31899673 0.20248675 -0.077364326 0.037472256 0.09326325 -0.04284844 0.019488795
0.09780626 0.28354982 0.025969988 0.34684008 -0.3020411 0.32473913 0.13112403 -0.2836071
-0.11686219 -0.062621765 0.09285358 -0.049090683 -0.32271895 0.02906954 0.22576858 0.2993272
0.052087747 0.20220268 0.10513547 0.049798626 0.31736046 0.16186988 -0.10404409 0.01624968
-0.13579735 0.2487301 -0.029176865 0.07127713 -0.05119797 -0.05038288 -0.0615557 -0.17629261
-0.14481796 0.0063575734 0.21116897 0.12340386 -0.02180008 -0.19217898 0.12838028 -0.29443902
0.13656648 -0.18770145 -0.3465001 -0.18669616 0.06205495 0.07330116 -0.22318642 -0.15076329
-0.27175948 0.047682945 -0.21174002 -0.07180271 -0.12631553 0.014635392 0.26237243 -0.22426692
-0.075257115 0.019881438 0.0928368 -0.15087004 -0.15786134 0.17837189 0.041752856 -0.1477475
-0.17207775 -0.13453987 -0.019424122 -0.16830952 0.28821474 -0.13602018 -0.077172674 0.18954855
0.09286511 0.087138586 0.16379245 0.059537318 0.0613744 0.12888482 -0.19250864 -0.35770562
0.03537944 0.14454128 -0.04855963 -0.20507677 -0.31178 0.016357899 -0.030738465 -0.2091081
0.056083012 -0.009590116 0.079540566 -0.05769745 -0.006210833 0.18526538 -0.13055712 0.13286231
0.16770445 -0.04137023 -0.26374546 -0.09202093 0.047597263 0.23739487 -0.12926428 0.27984482
-0.17359334 -0.25129607 -0.17186624 0.071263105 -0.038263746 0.16375157 0.0045252214 -0.09354638
-0.280762 0.30551565 -0.3097462 -0.14461088 -0.08683229 -0.017246515 0.23051472 -0.06537088
0.012044515 -0.1340319 0.18602572 -0.050446052 -0.065471165 -0.004934226 -0.16064548 -0.13615268
-0.08366145 -0.111180775 -0.232619 0.032777045 0.04871453 0.28618097 0.015414391 0.21237926
0.104219906 0.19657382 0.20186597 -0.06263233 0.055644788 0.102657914 0.028950993 -0.37048054
0.07804504 0.18403581 -0.10496713 -0.045131847 -0.13501218 0.11293657 -0.040846832 -0.10652763
0.10922882 -0.022080518 0.007945822 -0.057537753 -0.1686392 0.24634169 -0.14208303 -0.2964806
0.06761822 -0.20184474 0.095591374 -0.22851492 0.16696787 0.7368762 -0.038049668 -0.08049583

velocity_.embedding.net_.net_.2.bias f4 [64]
00000000: 7d46 59bd e009 803d f306 0b3e 44f1 2fbd
00000010: fc4c 653c 5bd1 193e e402 9ebd 84d3 b0bd
00000020: 9293 4b3d edb4 afbd 1ff4 3e3d 2640 53bd
00000030: 9fc6 86bd 94cb c0bd e460 e1bd 8337 25be
00000040: 424a 23be c1b0 a03b ac45 01be 6d33 edbd
00000050: fafc e13c cbd0 d43c 16ad 6bb8 d076 1a3e
00000060: d578 65bd 8400 a53d cdc7 87bd 9c3d 96bd
00000070: 15d1 313d ed5a 193d 004e a8bc f254 773c
00000080: 5ea1 2a3d 45be 42be 29b7 bd3c b13c 4cbd
00000090: a30d 093d f271 7a3d 5330 21be dc7e df3c
000000a0: b974 7dbc 5e23 5abe 4405 4e3e d4d4 02be
000000b0: e009 3dbe 9f12 43be 8699 bebd e618 b63d
000000c0: b5f9 613e a99e debd 2192 023e 89e0 84bc
000000d0: cd56 0f3e a979 7bbd e036 f2bc 392d ec3d
000000e0: 5585 d03c c2dc 503d c5f5 1c3d 5f36 fabd
000000f0: 1bbe a9bb 87fd 0e3d eebe 073c 77e2 7d3c
-0.05304574 0.062518835 0.1357687 -0.0429547 0.013995405 0.15021269 -0.07715395 -0.086340934
0.04970128 -0.08579431 0.04661953 -0.05157485 -0.06580853 -0.094138294 -0.110048085 -0.16134457
-0.15946296 0.004903883 -0.12624234 -0.11582074 0.027586449 0.025978466 -5.6189565e-05 0.15084386
-0.056023438 0.08056739 -0.06629906 -0.0733597 0.043412287 0.03744023 -0.020545006 0.015095936
0.041657798 -0.19017895 0.023158627 -0.049862567 0.03346027 0.061143823 -0.1574109 0.027282171
-0.015469723 -0.21302554 0.20119196 -0.127765 -0.18460798 -0.19050072 -0.09306626 0.08891468
0.22067912 -0.10870106 0.12751056 -0.016220348 0.13997956 -0.06139532 -0.029567182 0.11532063
0.025454203 0.05099178 0.03832032 -0.12217402 -0.005180133 0.03490975 0.008285267 0.015495888

velocity_.embedding.net_.net_.4.weight f4 [64, 64]
00000000: 6e90 4bbd d492 623d f340 1dbd 1af1 b4bc
00000010: a55b b13d 3c12 283c 99ad 17bd a1d7 ec3c
00000020: f2c1 893d 35ac a83d 4dcb 90bd 2737 a33d
00000030: 064d 9a3d 5568 a0bd bb57 1ebe 3f1e f8bd
00000040: b489 0abe af34 043e 47b3 173e 8906 1eba
00000050: 779b 1abe e7bc 9bbd 8f40 cf3d f734 d83d
00000060: 6c72 a63c 1a7f 4ebc ed43 11bd 18cd 6fbc
00000070: 1607 7abb 73aa 01bd e0b3 0d3e 2860 9b3b
00000080: 66a5 c2bc bc06 c43d 787b 84bd ca96 303c
00000090: 1827 7c3d 7103 f7bc dc79 59bd a194 4bbd
000000a0: dd52 8238 9cf9 2e3e b2c6 8b3d f4fc 57bd
000000b0: e82a 08be 7923 b8bd 6759 233b 4cbc 33be
000000c0: de0c 8fbc 896b d3bd 75e3 123e 2cba 2dbd
000000d0: dec0 f13d d335 b03d 13d1 1e3e f28c 1a3c
000000e0: c508 293d b0b9 cebc 60f3 08be b237 8e3d
000000f0: 0116 6f3d eeca 923d 7e35 0c3d 5257 a93d
00000100: ee4b c8bd 9477 4d3d 8a94 853d 2840 153e
00000110: 608a 50bd e943 323e 13d7 10be 6468 003d
00000120: ae51 183e 93de 103c f1a1 4fbd 92ea 353e
00000130: 20e4 8c3d 2410 5abe 2064 c3bd e095 dcbb
00000140: f32c 40be 0d0c 2dbe 06b4 dbbe 7491 e73d
00000150: dac5 65be e757 7d3d 2b2e 853d cf40 023e
00000160: e9e6 e13d 6704 3c3d 1631 a9be c458 a7bd
00000170: c140 963e c5f3 c13c 4e9e 003e 81bc 223e
00000180: 7620 9ebc 4c95 f63c 0c3b 5b3e 0168 a3bd
00000190: 556a 793e eb5c 1c3e 9b33 d5bd 862f d03d
000001a0: 9ac2 553e 59e0 883d d68f e73c 5b33 a33b
000001b0: d5a9 903d c27d 133c a1ae 943d fd44 b8bd
000001c0: 5d5b 3abe 7284 2e3e 30ca df3d 91e0 bf3c
000001d0: da84 0e3e 44a8 063e b2f4 0fbe 6933 d73d
000001e0: f7c9 3b3e 2ab2 afbd b8da ab3d da02 a6be
000001f0: e5b4 023e 0c9d 3e3c 4509 4dbd 4979 233d
00000200: c81f 353e d7dc 953e b7e5 cdbd e4b1 a0bc
00000210: 67e8 2c3e b0c3 d8bd f860 23be 45a4 2cbe
00000220: 8161 1c3e 35cc e53d 1747 0a3e 6172 97bd
00000230: 21e2 353d 69ea 173d 37fa 0e3e 437f cebe
00000240: 2332 843d af8b d93e 5508 013e 6135 23bf
00000250: 8ac5 d63c 365e 66be dfdb 1d3c 915d e73c
00000260: 4b8b 803f 2fe0 103e f3b3 86bb 5bc0 5c3d
00000270: 35fc 613c 830d 633d 6ee1 1dbf 75dc 713e
00000280: 3e81 a1bd b23e c3bd cb60 c7bd 862f 3b3e
00000290: 3ee1 fabd 9309 14be 5693 393d e632 14bf
000002a0: b05b 2d3d bc69 923f 693c 483d 2bd8 1ebe
000002b0: d0b3 0d3e da69 cf3a 3b37 75be dae2 633e
000002c0: 39d9 1b3e 2510 22bf 3ffd 593f a07d 953d
000002d0: bed7 3fbe f5d6 b9bd 2a15 283f 0c8f c5bd
000002e0: 76cc 23be a9c8 bb3e cc0d 25bd 0215 de3d
000002f0: b306 9fbd bd60 143f a7c4 ffbd 2f42 37be
00000300: 544e 52bd 2ec9 98be 33ce aa3e a7c9 46be
00000310: f9ff 88be 4ec9 58bd 8630 3cbe fa40 113e
00000320: 3b41 acbe 7cac 053c 6204 8b3e ffb1 1fbe
00000330: 5713 483d 0aea 6e3e ad78 3abd 057b fc3d
00000340: bc94 d83d ef2c 383d b2f8 433e 8bdf f63b
00000350: e486 dc3d fb7e 2d3d ef4e 76be a78c 833d
00000360: 6ee9 aabd bf72 2dbd d71a d83e 0806 5abe
00000370: 5789 81bd a245 343e 0508 9e3d 525f a8be
00000380: a602 e3bd faa8 7b3d f29b aebe 8926 c0bd
00000390: f3ad 50bb efa3 cabd cdde 713e 3e70 a6bc
000003a0: 12ec b1be e548 1f3d 003f f2bd b92e a13e
000003b0: d4de e0bd a49a a8be 5e95 50bd 394e 1bbe
000003c0: 51d1 11bd 2f76 943c 66c7 81be 43a9 eabd
000003d0: 4be3 0bbd 9d95 94be 3fcb b9bd 25ba d53c
000003e0: f33f 12bd 9e35 f33b 0ab5 4abe 9893 0f3e
000003f0: 5160 97bd 9975 44bd ee2c ca3e 3257 f0bd
-0.049698286 0.055315807 -0.03839202 -0.022087622 0.08660058 0.010258254 -0.03703079 0.028911414
0.06726445 0.08235971 -0.070700265 0.07969504 0.07534222 -0.078324 -0.15463154 -0.12115144
-0.13529092 0.12910722 0.14814483 -0.00060281955 -0.15098368 -0.0760439 0.101197354 0.10556977
0.020318232 -0.012603546 -0.03546517 -0.0146363005 -0.0038151196 -0.031656694 0.13838148 0.0047416873
-0.023760509 0.09571597 -0.06468862 0.010778138 0.06156072 -0.030153008 -0.05309473 -0.04970229
6.2143175e-05 0.17087406 0.068250075 -0.05273147 -0.13297617 -0.08991141 0.0024925114 -0.17552298
-0.01746219 -0.10323245 0.1434458 -0.042413875 0.118043646 0.08604016 0.15509443 0.009433018
0.04126813 -0.025235027 -0.1337409 0.06944217 0.058370594 0.07167612 0.0342307 0.08268608
-0.097801074 0.050162867 0.06522472 0.14575255 -0.050913215 0.17408718 -0.14144544 0.031349555
0.14874908 0.008842128 -0.05069155 0.17765263 0.06879449 -0.2129522 -0.09540582 -0.0067317337
-0.18767147 -0.16899128 -0.42910784 0.1130704 -0.22438756 0.06185141 0.065029465 0.12720035
0.11030371 0.045902636 -0.33045262 -0.081712276 0.29346278 0.023675809 0.12560388 0.15892221
-0.019302588 0.030100487 0.21409243 -0.079788215 0.24356969 0.1526982 -0.104102336 0.101653144
0.20875016 0.06683416 0.028266829 0.0049804873 0.07063643 0.009002151 0.0725987 -0.089975335
-0.18198915 0.17042711 0.10927236 0.023422511 0.13917866 0.13150126 -0.14058188 0.105078526
0.18338762 -0.08578904 0.08391327 -0.3242405 0.12764318 0.011634123 -0.05005767 0.03991059
0.17687905 0.2927005 -0.1005358 -0.019616075 0.1688553 -0.105841994 -0.1595496 -0.16859539
0.1527157 0.1122059 0.13503681 -0.07394863 0.044405106 0.037088785 0.13962637 -0.40331468
0.06454875 0.42489383 0.12600835 -0.63753325 0.02621724 -0.22496876 0.009634941 0.028242858
1.0042509 0.14148019 -0.004110807 0.053894382 0.013793041 0.055432808 -0.61672103 0.23619254
-0.07885979 -0.095334426 -0.09735259 0.18279848 -0.12249993 -0.14456777 0.045306526 -0.57890165
0.04232377 1.1438518 0.048885737 -0.15512149 0.13838124 0.0015824393 -0.2394685 0.22254506
0.15219583 -0.63305885 0.8515205 0.07299352 -0.18734643 -0.09074203 0.65657294 -0.09646425
-0.15995964 0.3667653 -0.04029636 0.10843851 -0.0776495 0.5796011 -0.1248868 -0.17896341
-0.05134423 -0.29840988 0.33360443 -0.19412862 -0.26757792 -0.052926354 -0.18377885 0.14184943
-0.33643517 0.008158799 0.2715178 -0.15595244 0.04884657 0.23331466 -0.04552524 0.123281516
0.10575244 0.044964727 0.19137838 0.0075339726 0.10767916 0.042357426 -0.24053548 0.06423312
-0.083453044 -0.04234576 0.42207977 -0.21291363 -0.063250236 0.17604688 0.07716373 -0.32885224
-0.110844895 0.061440445 -0.34103352 -0.0938235 -0.0031841963 -0.09894549 0.23620148 -0.020317193
-0.3475042 0.038887877 -0.118284225 0.3148096 -0.10980001 -0.3293048 -0.050923698 -0.15166558
-0.03560001 0.01812276 -0.2534744 -0.11458065 -0.03415231 -0.29020396 -0.09071969 0.026089737
-0.035705518 0.007422163 -0.19795623 0.14021146 -0.07391418 -0.047963712 0.39487404 -0.11735381

velocity_.embedding.net_.net_.4.bias f4 [64]
00000000: 9739 00bc cb4c c6bd 2593 0abd 5e0a 83be
00000010: df2c 72be e87f 38bd 90cb 02be db14 503e
00000020: cf12 a0bd d84d 5fbc 47c9 a43e ced4 37be
00000030: 8c10 013e 92b6 1fbd ea97 f83c bba0 893c
00000040: 9dde 0bbe 4641 203e bf30 b03e 14f6 9bbe
00000050: 1a1a d83d 68cf 23be 7b0b bdbd 4418 05be
00000060: 5834 95bd e1b2 673c 1292 2c3d d275 97bc
00000070: 95e8 1abc f9d8 6d3d 58d5 803d 5a49 403e
00000080: 256a 5abd e1f4 70bd 2dc2 be3b 78c8 02bd
00000090: 809f 253e 8e72 0ebc cd73 b0bc 0926 083d
000000a0: 0c46 91be 7b12 3c3d 1e60 26bd d876 debd
000000b0: 4cc8 8dbd dc1c 2b3d eeac 953d 00d2 b1bd
000000c0: 612c 093e e35c 3dbe ee06 8abd 4561 dcbd
000000d0: 0c89 503d f180 b3bc a914 fd3d 4d3e 5dbe
000000e0: 4717 b63b 2a0a c5bd ec16 b13d 6ff5 e93d
000000f0: ff40 283e e82e 503d c373 97bb a612 6cbd
-0.0078262305 -0.09682616 -0.033831734 -0.25593847 -0.2364993 -0.045043856 -0.12772965 0.20320456
-0.078160875 -0.013629399 0.32184812 -0.17952272 0.12603968 -0.038992472 0.030345876 0.016800275
-0.13659139 0.156499 0.3441219 -0.3046118 0.105518535 -0.15997088 -0.09230705 -0.12997538
-0.072853744 0.014141769 0.04213149 -0.018488798 -0.009454866 0.05806825 0.06290692 0.18777981
-0.053323884 -0.058827285 0.0058214874 -0.031929463 0.16174126 -0.008694304 -0.021539593 0.0332394
-0.28373754 0.04591606 -0.04061901 -0.108625114 -0.06922969 0.04177557 0.07308374 -0.086826324
0.13395835 -0.18492465 -0.06739603 -0.1076074 0.050911948 -0.02191207 0.12357456 -0.21605797
0.005556974 -0.09621079 0.0864695 0.11423766 0.16431044 0.050825983 -0.004621954 -0.057634972

velocity_.embedding.net_.net_.6.weight f4 [1, 64]
00000000: 06c7 d83d a91a 343e bdc8 02be 4627 5c3e
00000010: e1f6 6dbe d4a5 24be 3869 fc3d e4af 92be
00000020: 6740 74be da86 4e3e cd70 9fbe e2ea 0dbe
00000030: 2d25 1a3e 1532 e93d fc26 7c3e 10bd 263c
00000040: df1e b33d 7d3b 59be f8ae 1ebf 1efa b63e
00000050: 143c e03e 77bd c73d 604c 223e 7a26 8cbe
00000060: ff1e 82be b0a2 593e 6971 8b3e 80a1 7c3e
00000070: 37d1 23bd b630 98bd b229 05be 4988 44bd
00000080: ec4e 7fbe 127a 17be 1fe7 adbd 6334 8fbe
00000090: 2921 81be e0ab c5bd c732 143e eee8 e33c
000000a0: cb27 e7bd a072 3c3e 89a2 40be c15f 80bd
000000b0: e0e8 a63d 793a 173e 542f edbd 7f93 69be
000000c0: 842f 763e a512 7cbd af2f d43d d85d 073d
000000d0: 9870 de3d 7fd9 98be 7723 d83d 5bd0 2e3e
000000e0: c93a 84be dcd6 72be 36ed 823e 168b c7bd
000000f0: e0ff eebd e473 b7be 8898 e4bd ec05 383e
0.10584836 0.17588295 -0.12771888 0.21499357 -0.23238708 -0.16078883 0.123247564 -0.2864982
-0.23852693 0.2016863 -0.31140748 -0.13859132 0.15053244 0.113865055 0.24624246 0.010176912
0.087461226 -0.21214099 -0.6198573 0.357377 0.43795836 0.097529344 0.15849447 -0.27373105
-0.25414273 0.21253467 0.27234963 0.24670982 -0.039994445 -0.07431166 -0.13004187 -0.047981534
-0.2493245 -0.1479266 -0.084913485 -0.27969655 -0.25220612 -0.09651923 0.14472495 0.02782103
-0.11286887 0.18403101 -0.18812002 -0.062682636 0.08149886 0.147684 -0.11581293 -0.22810172
0.24041563 -0.06154122 0.103606574 0.03304848 0.10861319 -0.29853436 0.105536394 0.17071669
-0.258261 -0.23714775 0.25571603 -0.097433254 -0.11669898 -0.35830605 -0.111619055 0.17971009
