models/Khamesh1_bak.pt (torch, 3287 bytes, 5 tensors)

stiffness.eig_ f4 [2]
00000000: 7772 5340 a31a b33f
3.3038614 1.3992504

stiffness.vec_ f4 [2]
00000000: 6ffe 883f fe09 813c
1.0702647 0.015751835

embedding.net_.net_.0.weight f4 [64, 2]
00000000: f728 c73e 2a51 07c0 c36f 0b3f 020e bebe
00000010: 37cb 743e a732 38bf 3eeb d03c 18ba 933e
00000020: 5a40 ac3d 7463 00bf 2331 b73e dccc 413f
00000030: 12c6 56bf 5eb9 c5be 3587 da3d 0eff cbbe
00000040: b0f0 54bf 4323 e13d e754 b8bd 603e 5b3f
00000050: 31ba 9eba 5076 8f3d 2d52 d6be f4dd 82be
00000060: e60b fbbe eff4 093e 9954 593e f9f9 47bf
00000070: 2398 2a3f f115 0340 99d3 cf3f 4e29 573f
00000080: c0ba 8bbe 3410 533e 9b5e f9be 59ef 66be
00000090: aa06 843f 38fd a9be 1e73 75bc 8a40 1b3f
000000a0: 17e3 bb3e 6a3c 67bf c2f9 963b 5343 ebbe
000000b0: 510d 743f cd09 303f c774 363f a262 3d3f
000000c0: 3d47 7fbe bc9e 01bf cc96 4f3f e8df 1ebf
000000d0: 6122 673e 7300 a0bf 687e 79c0 7d66 a03f
000000e0: 31c7 aabe 15b7 50bf 99bb 3b3f aed0 38bf
000000f0: 1a70 e0be 1d90 bcbe 7dbf f63d 7a90 58bf
00000100: f9bb 873e 7038 6cbf 1ea9 263f afb9 fd3e
00000110: 5058 d53e c7d0 203f 2245 0fbf c993 febe
00000120: b505 f3bd d1de c13e 618c f93e 727c 113f
00000130: ee84 0a3f 5872 eabf d13e e6be c0db 92be
00000140: 1c35 fd3d b69b 853d 6e3d 883e b7f0 31bf
00000150: 7d40 cdbe c90b f83d af8c 083e 9ab5 d93d
00000160: 4a7a 98bd 83ab 00bf 298a 66be d041 25bf
00000170: dc43 fd3f 3c94 fdbf 4a81 893e 050e f2be
00000180: 400b 01bd 3e05 883d 028e 1540 d088 0440
00000190: 8ade 93be 268a 3abe 27bb 2ebe 5e09 cdbe
000001a0: c20c 0ebc 4af6 43be 32fe 993e cf22 4339
000001b0: 7b23 16be 74de 68bf 3bc0 0f3f 4e9e e7be
000001c0: 7177 a33e ddaf cebb af8e aa40 510d c43e
000001d0: 68bc a0be 79dc 003f 33ea 4dc0 9e51 183e
000001e0: 31ab 38bf 02c7 183f 1f47 98bf 90ab 09bf
000001f0: 425d da3e c35f d93e 25a4 fdbd d006 dfbe
0.3889844 -2.1143289 0.5446741 -0.37120062 0.23905645 -0.7195229 0.025502797 0.28852916
0.084107116 -0.50151753 0.35779676 0.75703216 -0.8389598 -0.38617986 0.1067032 -0.3984303
-0.8317976 0.10993054 -0.09000569 0.8564205 -0.0012109933 0.07004988 -0.4185957 -0.25559962
-0.49032515 0.13472341 0.21223678 -0.78115803 0.6663839 2.0482142 1.623645 0.840474
-0.27290916 0.2061165 -0.4870499 -0.22552241 1.0314534 -0.33201003 -0.014981059 0.60645354
0.36696693 -0.9032656 0.00460741 -0.45949802 0.9533282 0.68764955 0.7127194 0.73978627
-0.24929519 -0.50632834 0.8108947 -0.62060404 0.22571708 -1.2500137 -3.8983402 1.2531277
-0.33355096 -0.8152936 0.73333126 -0.7219342 -0.43835527 -0.368287 0.12048242 -0.84595454
0.265106 -0.92273617 0.651018 0.49555728 0.4166894 0.6281857 -0.55964863 -0.49722126
-0.11866323 0.37865308 0.48739913 0.56830513 0.54109085 -1.8316145 -0.449698 -0.2868328
0.123636454 0.0652384 0.26609367 -0.69507927 -0.40088263 0.12111623 0.13334917 0.10630341
-0.074452 -0.50261706 -0.22513641 -0.64553547 1.9786334 -1.9810863 0.26856452 -0.4727632
-0.03150487 0.06641625 2.3367925 2.0708504 -0.2888072 -0.18216762 -0.1706358 -0.4004621
-0.008670034 -0.1913692 0.30076748 0.00018609616 -0.14661972 -0.90964437 0.56152695 -0.45237964
0.31927064 -0.0063075856 5.3299174 0.3829141 -0.31393743 0.50336415 -3.2174194 0.14874884
-0.7213622 0.5967866 -1.1896704 -0.5377741 0.42649275 0.42455873 -0.12384824 -0.43559885

embedding.net_.net_.0.bias f4 [64]
00000000: 9bca d2bc fd2b 973e 5c34 debe 2450 b0be
00000010: 035b 0ebf 63f3 183f 4234 c23e 086a a4be
00000020: 048f 463f 93bd 233f ac10 1b3d b7c3 133e
00000030: f9ba 13bf e56f 07bf 5873 dd3e e980 a73d
00000040: a017 ad3e 2e6e a83e cd06 d83f e371 debe
00000050: 2a21 213f 11a6 923e fddc 053c 90a3 683f
00000060: 09cb 0f3f 14f0 c23f 8638 063f 7953 15be
00000070: d495 5abf 30fc 073e 87ce 073e c90f 0c3f
00000080: 4cbd 47bf 9d7e 15bd e359 e73e b98e 403f
00000090: 9d2c bc3f a11a dd3e 50f0 4a3f e11b cd3d
000000a0: 41d1 95be 1a99 1dbf af07 113f 3c16 5f3f
000000b0: 24e5 18bf 8064 b4be 5150 d83f f4a8 fbbb
000000c0: 8010 393f 7401 c9bf a17c c13e 21c0 853e
000000d0: 91ae e83e e861 03bf 0d88 5abf 6038 9abe
000000e0: f890 593e 836e 2840 4331 1c3f e1c8 693f
000000f0: 2f00 a7bd b3b2 61bc 28f8 8b3e 9cb3 0fbe
-0.025731375 0.29525748 -0.43399322 -0.34436142 -0.5560762 0.5974638 0.37930495 -0.32112145
0.77561975 0.6396114 0.037857696 0.14430128 -0.5770717 -0.5290511 0.43252063 0.081788845
0.33807087 0.3289656 1.6877075 -0.43446264 0.6294123 0.28642324 0.0081703635 0.90874577
0.5616918 1.5229516 0.5243 -0.14582624 -0.8538487 0.13279796 0.13262378 0.54711586
-0.7802322 -0.0364977 0.45185766 0.7521778 1.4701115 0.4318438 0.7927294 0.10015083
-0.2926121 -0.6156174 0.5665235 0.871433 -0.5972464 -0.35232925 1.6899511 -0.007680053
0.722908 -1.5703568 0.37790397 0.26123145 0.45445684 -0.5132127 -0.85363847 -0.30121136
0.21246707 2.631745 0.6101267 0.9132214 -0.08154332 -0.013775515 0.27337766 -0.1403336

embedding.net_.net_.2.weight f4 [1, 64]
00000000: a377 783f e886 cd3c 76ed 133e 596e 1e3d
00000010: c4d5 143d dbca 87be a9be be3e 6e39 0f3e
00000020: dfc4 2ebe 9ad2 8ebe 2627 873d ba4e 9a3e
00000030: 0120 193c 76ca 793e 1aac 9e3f bf0a 00bf
00000040: 5201 f3bd 48b6 35bd 0930 b2be 3c0e b13d
00000050: 99c1 6ebe 3dee 893d b727 84be 467b 3ebe
00000060: e048 d1bd 86ff f6be 374f 90be 5cfc 573f
00000070: 5b33 8e3e 87c6 1b3f ed74 ab3d c73f 08be
00000080: bd5e 223e 3454 16be 705a 5dbd 42cf 44be
00000090: e85f 863c 4126 8ebe c3a4 fabe d4d6 6b3d
000000a0: 6c4e 94bd 425e 973e edac 0abe 5ad7 7abe
000000b0: b27e 863e 7a2e 653e 3e2f 75bf 9cfb 103e
000000c0: 1f9a dbbb cd4d 453f e883 853d cc4f 313d
000000d0: e394 f73d 3ee8 fa3c 3d51 693e 970b 1d3e
000000e0: c5b9 c5bd a586 28c0 d6e4 98bd 241d 6c3f
000000f0: c146 79be 5b5c d93e 21d5 59be f9f0 e13c
0.9705755 0.025088742 0.14446053 0.038679454 0.036336675 -0.26521954 0.37254837 0.13986751
-0.17067288 -0.2789505 0.06599264 0.3013819 0.009346009 0.24393639 1.2396271 -0.500164
-0.11865486 -0.04436329 -0.34802273 0.08645293 -0.23316039 0.067348935 -0.2581155 -0.18601713
-0.10218978 -0.48241824 -0.28185436 0.84369445 0.27773556 0.60849804 0.08371911 -0.13305579
0.15856452 -0.14680558 -0.054041326 -0.19219688 0.016403154 -0.2776356 -0.48953828 0.057577923
-0.0724152 0.295641 -0.13542528 -0.24496213 0.26268536 0.2238101 -0.9577521 0.14158481
-0.0067017223 0.7707184 0.065193 0.04328899 0.12088945 0.03062832 0.22784896 0.15336452
-0.09654573 -2.633218 -0.07465522 0.92231965 -0.24343397 0.42453274 -0.21272708 0.027580725
