models/KhameshFirstOrder_nn.pt (torch, 3351 bytes, 5 tensors)

embedding_.net_.net_.0.weight f4 [64, 2]
00000000: b927 6a3f 6408 4e3f 1e53 b7bf a639 3cbf
00000010: d7eb 4640 26d5 1bc0 55ae 0a40 dbd7 173f
00000020: 4536 f33b 809a c6be 88e1 263d 064f 953e
00000030: cbb0 b5bf e59d 423e 7f9d 783b d804 d2bd
00000040: 1ed8 843e cca9 abbe 4be1 91bd 9e94 8fbe
00000050: 9ba3 8d3e bf2d 033f 94ea 84bf 0364 f7be
00000060: b129 743e 7819 743e 99c8 e1bf 8469 23bf
00000070: 60ce 28be e508 0ebe d5d8 3c3f 0a1b cebe
00000080: 5a04 8f3d 707b 54be 6134 713f 5756 283e
00000090: 5219 9c3f e567 ee3d 50f8 87bf a355 a0bf
000000a0: 57c0 7a3f ca98 213f b2be d23e c298 7a3f
000000b0: 28e0 07bf 75d7 cf3e b301 013e fe00 a43d
000000c0: c4c9 b53e 0873 723e 969d 80bf da33 7dbd
000000d0: a627 6c3e de76 66be f48d b13e e070 0ebd
000000e0: baaa 4f40 60bd 9b3f 7d1e 053f 9a2a 39bf
000000f0: 2b40 c6be aff9 33be 7abe c73d 1a0a 5ebe
00000100: 17d6 313f e7d0 aa3e 027c 273f 76bd a1bf
00000110: 2369 af3e c7b7 113d 298c 273f dff9 b2bf
00000120: 24bb 53be 315b ea3e 02ee 24bf d508 29bd
00000130: ebc9 37be 8f38 06bf 54bc 343f b1a8 27be
00000140: f786 88bd 6e9e 0a3e 74c6 eebe 55b0 0dbf
00000150: 64b4 49bf 05e9 db3f 2d18 b9be 8678 f8be
00000160: a4a3 0a3f 26a4 cbbe 1d83 523e a6dd 2e3e
00000170: dd7b d33e a7a3 f9be 80f8 2fbd 776b 3dbd
00000180: 6ff8 9a3f f7a6 3fbe 389e 183e f8c2 0ebf
00000190: 1a2e 6ac0 681b e4bf 13ec 2e3f 6da1 f2bd
000001a0: ce3b 8a40 5d41 a2bf 07dd 30bf 666b ae3f
000001b0: 5f2a 0ebf cb01 383f 8dee 2dbf 0d1b 52bf
000001c0: baf2 9fbf e8a1 203e ae0f bdbd ddfa 023f
000001d0: 915d 093f 2135 8ebe 7464 973f fb40 2bbd
000001e0: a20a 15bd be70 2e3e 01a6 19bf 24db 2a3f
000001f0: 2acd ae3e fab3 9fbe e9a9 983f c95e aa3d
0.9146686 0.80481553 -1.432224 -0.73525465 3.1081445 -2.4348845 2.1668904 0.59313744
0.007422241 -0.3878975 0.040742427 0.29161853 -1.4194578 0.19005544 0.0037935672 -0.1025483
0.25946134 -0.33527982 -0.07123049 -0.28043073 0.27663884 0.5124168 -1.0384088 -0.4831849
0.23844029 0.2383784 -1.7639343 -0.6383288 -0.16484976 -0.1387058 0.7376836 -0.40255004
0.06983252 -0.20750213 0.9422055 0.16439186 1.2195227 0.1164091 -1.0622654 -1.2526134
0.9794974 0.6312376 0.41161114 0.9788934 -0.5307641 0.40594068 0.12598304 0.08008002
0.35505497 0.23676693 -1.0048091 -0.061817028 0.23062 -0.22506282 0.34678614 -0.034775615
3.2447953 1.2167168 0.51999646 -0.7233063 -0.3872083 -0.17575715 0.097531274 -0.21683541
0.694673 0.33362505 0.65423596 -1.2635944 0.342599 0.035575654 0.6544824 -1.3982505
-0.20676857 0.457727 -0.6442567 -0.04126819 -0.1794812 -0.5243005 0.70599866 -0.16372944
-0.066663675 0.13536999 -0.46635783 -0.55347186 -0.7879088 1.7180487 -0.36151257 -0.48529452
0.54155946 -0.39773673 0.20557828 0.1707674 0.41305438 -0.4875767 -0.042961597 -0.046245065
1.2107066 -0.18716036 0.14904106 -0.5576625 -3.6590638 -1.7820864 0.6832897 -0.11847196
4.3198004 -1.2676197 -0.6908726 1.3626525 -0.55533403 0.71877736 -0.67942125 -0.82072526
-1.2495949 0.15686762 -0.09231506 0.51164037 0.53658396 -0.2777491 1.1827531 -0.041810017
-0.036387093 0.17035195 -0.60018927 0.6674063 0.34140903 -0.31192 1.1926852 0.0831886

embedding_.net_.net_.0.bias f4 [64]
00000000: 23a0 16bf a3ca babf cff0 7abd 2a64 7cc0
00000010: ce5d 893e 8671 bc3c bb16 89bf c984 8b3e
00000020: c1ef e0bc f74f c7bf cc97 1fbe 9fb1 44bf
00000030: 28c5 72be d858 99bf 82b2 c33c 9f68 04bf
00000040: e431 e3be 683c 173f df65 3a3f 3cc5 633f
00000050: 4fdc 1340 c256 4ebf cb37 09bf 7512 02bf
00000060: e374 bf3b 53e9 28bf 5e5c 043f f50b 28bd
00000070: 3e5a 2abf 9cf7 523f 1754 793d 7345 253f
00000080: 7c5e 363f ca71 3f3d b1d1 46be dd51 35bc
00000090: f4ef fabe 8dc2 543f cacc 3ebf e257 41bf
000000a0: 0e62 523f 1ec3 16bf 480e 1e3d 5d0a e2be
000000b0: 9a6a b53e 4db3 cebe d201 27bf ca22 e03e
000000c0: d476 733f bd24 12bf 627b 11c0 855e e23e
000000d0: 36be 1140 5665 86bc e5b4 06bd dcea 0cc0
000000e0: 5637 58bf 91bf 453f b22f 70be 59ee 283f
000000f0: 2b1e babe 6941 9d3d 9361 17bf c9cf 3e3f
-0.588381 -1.459309 -0.06126481 -3.9436135 0.2682938 0.023003351 -1.0710062 0.27249745
-0.027458074 -1.5571278 -0.1558525 -0.7683353 -0.23708022 -1.1980238 0.02388883 -0.5172214
-0.44374 0.5907655 0.7281169 0.8897283 2.3103216 -0.8060113 -0.5360076 -0.50809413
0.0058427914 -0.65981025 0.5170344 -0.041027028 -0.6654395 0.8240907 0.06087121 0.64559096
0.7123792 0.046739377 -0.19415928 -0.011066881 -0.49011195 0.8310936 -0.74531233 -0.75524724
0.8218087 -0.58891475 0.03858784 -0.44148532 0.35432893 -0.4037117 -0.6523715 0.43776542
0.9510319 -0.5708731 -2.2731557 0.44212738 2.2772346 -0.016405743 -0.03288736 -2.2018347
-0.84459436 0.7724543 -0.23455694 0.6598869 -0.3635114 0.076784916 -0.5913326 0.74535805

embedding_.net_.net_.2.weight f4 [1, 64]
00000000: 4942 933e c11d 5e3e 0e6c 01bf e8b5 243f
00000010: 585c 123d 09f5 cc3a a9cf 253f ecef 99bd
00000020: ddc5 e0bc cddf bc3c da2e 24bd 0e22 8a3e
00000030: e56e 12bd 6b0a b53e ebaf 8fbc 598d 543d
00000040: 5c20 e3bd caa2 b8be 191b bbbe 42c1 b3be
00000050: e6d0 0bbe 0809 813e 5c80 763d 6f38 94bd
00000060: 2772 9f3c 523c 0a3f 4f8e 55bd bb5b 3abe
00000070: b21c 4fbf 17dd 4dbe 6093 b43d 366c 2ebe
00000080: f47d 6bbe 8808 8c3e 0eb3 8abd 9b31 9f3e
00000090: 0d34 20bd 4c27 b5bd b8d0 f5bc d21e 843d
000000a0: 0f52 fb3c 9259 7bbc 87cd a1be 689e dfbc
000000b0: 4064 55bd 056d 31bd 8dce 8ebd 2ee3 9d3c
000000c0: 0052 1bbf 4975 3abd 1b4a cb3f 21eb 16be
000000d0: 80de debf c90c ebbe ed9f 1cbe 5d8e 5a3e
000000e0: 2140 cb3e e8c8 123d ca81 99bd 4548 afbe
000000f0: c51d 66bd 3663 083b 3891 46bd a35c d0be
0.2876151 0.21691038 -0.50555503 0.64340067 0.035732597 0.0015636991 0.6476999 -0.075164646
-0.027438099 0.023055935 -0.040083744 0.26979107 -0.03575029 0.3535951 -0.017539939 0.051892612
-0.110901564 -0.36061698 -0.3654411 -0.35108382 -0.13653907 0.25202203 0.060181007 -0.07237326
0.019463612 0.5399829 -0.05213767 -0.18199055 -0.8090316 -0.2010387 0.08817172 -0.17033467
-0.22997266 0.2735026 -0.06772433 0.31092533 -0.03911214 -0.08845386 -0.030006751 0.06451191
0.030678777 -0.015341179 -0.31602117 -0.027297214 -0.05209756 -0.04331686 -0.0697299 0.019273367
-0.60672 -0.045522008 1.588199 -0.14738132 -1.7411652 -0.45908192 -0.15295382 0.2134337
0.39697364 0.03583613 -0.074954584 -0.34234825 -0.056180734 0.0020811087 -0.048478335 -0.40695676

stiffness_.eigval_ f4 [2]
00000000: de75 5540 513b c03f
3.335319 1.5018102

stiffness_.eigvec_ f4 [2]
00000000: 2ca9 893f 1e12 383d
1.0754752 0.044939153
