models/Khamesh1.pt (torch, 13471 bytes, 3 tensors)

stiffness.eig_ f4 [2]
-0.20834948 1.751594
00000000: 9159 55be 3b34 e03f

stiffness.vec_ f4 [2]
0.24625668 0.2835885
00000000: b62a 7c3e 8332 913e

embedding.net_.weights_ f4 [2940]
4.2223086 4.6160226 4.3325033 3.6975455 4.1649036 3.7059057 3.2679818 3.4141316
2.9903364 3.3311355 2.6777134 3.3175812 2.8604598 2.4416766 2.5107713 2.1118171
2.0204175 1.7019764 1.5714352 1.0974236 0.9682703 1.1156574 1.0408894 0.5966915
0.4904263 -0.033019293 0.16501744 -0.4048844 -0.55294055 -0.3495572 -0.9584442 -0.78763545
-1.1830273 -1.1228395 -1.790539 -1.8904976 -2.1566327 -2.3130083 -2.6047955 -2.3019655
-2.6705043 -2.9284964 -2.5192344 -3.20899 -2.521716 -3.1501966 -2.8370655 -3.386712
-2.7954617 -2.7642028 -2.6750984 -2.5104127 -2.3636987 -2.3351555 -2.6702883 -2.1662312
-2.1599944 -1.3865566 -1.9433432 -1.1301806 -1.2512167 -0.9882729 -0.51662457 0.29449996
0.330454 0.7959223 0.5786225 0.75169593 1.0607954 1.3724533 1.6274841 1.0236948
1.2008325 1.1529987 1.3330541 2.0310023 1.4551677 1.7337824 1.55947 1.6852539
1.0812888 0.84771323 0.48024318 0.22106594 0.32724902 -0.06779108 -0.283592 -0.63753957
-1.3773288 -1.5871962 -1.9047883 -1.7687956 -2.1111045 -1.4648405 -1.2917039 -1.7780421
-1.5518918 -0.69643414 -0.88654107 0.060009606 -0.5352334 -0.24503863 0.67260563 0.7446108
0.3365555 0.2611622 0.0664486 0.010033919 -0.14071913 -0.07435671 0.24403614 -0.35677797
-0.24246107 -0.58880544 -0.033477146 -0.3231011 0.009814203 0.05889384 -0.3691762 -0.08329742
-0.84190005 -0.8121677 -0.63756484 -0.86780995 -0.52718323 -0.08639641 -0.5628147 -0.47624186
-0.5666978 -0.10799073 -0.43016586 -0.31284302 0.041934974 0.020302342 -0.0811916 -0.018812595
-0.5753053 -0.71100396 -0.49955112 -0.27159733 -0.37756476 0.22130589 -0.13425705 0.35683346
0.309968 0.4032982 -0.1578327 0.5459833 0.28745124 0.4995356 -0.045214344 -0.14437285
0.094799876 0.16950196 -0.066485465 0.13572732 0.6063294 0.20332985 0.6174214 0.60161024
0.5708515 0.38643035 0.8125306 0.592359 0.6909723 0.8738973 0.72234726 0.56392634
0.97834736 0.37521672 0.7136486 0.68914473 0.78219056 0.10996001 0.39935845 0.09436951
0.63043916 0.18523468 0.33039337 0.51146084 0.17294607 0.8641434 0.71004033 0.7027162
0.34978026 0.5455381 0.091468595 0.8182911 0.07779829 0.17208464 0.79227257 0.21062951
0.9019383 0.4985339 0.87059855 0.728308 0.9109017 0.3684 0.25896433 0.3314487
0.56629354 0.92429554 0.15859333 0.7873499 0.17985351 0.7209612 0.9611062 0.33509648
0.83259743 0.7541494 0.8220341 0.43182886 1.1143426 0.41826916 0.43997583 0.31713155
0.371218 0.33187366 0.9148869 0.52460617 0.9779791 1.0665481 0.42407292 0.60720515
0.24467528 0.40239644 1.0896407 0.5081918 0.28644243 0.2104218 0.15210192 0.88626164
0.102568604 0.30147406 0.6185794 0.76674557 0.018571904 0.32734963 0.53739095 0.33809185
0.47166756 0.6830668 0.4955316 0.33728787 0.66467154 -0.0432424 0.04611962 -0.1306559
0.13197277 -0.13146174 0.66942084 0.16543993 0.22683698 0.49796423 0.37746188 0.06068155
00000000: 271d 8740 75b6 9340 dea3 8a40 96a4 6c40
00000010: e446 8540 8f2d 6d40 9d26 5140 2281 5a40
00000020: ac61 3f40 5331 5540 a85f 2b40 4053 5440
00000030: c611 3740 6e44 1c40 7ab0 2040 0328 0740
00000040: 854e 0140 5dda d93f ca24 c93f 6078 8c3f
00000050: 90e0 773f ddcd 8e3f dd3b 853f c6c0 183f
00000060: 2819 fb3e 3d3f 07bd 55fa 283e 024d cfbe
00000070: 838d 0dbf 29f9 b2be 995c 75bf 7aa2 49bf
00000080: 706d 97bf 34b9 8fbf 6230 e5bf d3fb f1bf
00000090: 4506 0ac0 5408 14c0 f8b4 26c0 6753 13c0
000000a0: 8be9 2ac0 7c6c 3bc0 233b 21c0 1860 4dc0
000000b0: cc63 21c0 d29c 49c0 7b92 35c0 e4bf 58c0
000000c0: d8e8 32c0 b3e8 30c0 d034 2bc0 9aaa 20c0
000000d0: d746 17c0 3073 15c0 01e6 2ac0 88a3 0ac0
000000e0: 593d 0ac0 b07a b1bf 78bf f8bf c2a9 90bf
000000f0: de27 a0bf 74ff 7cbf 8241 04bf b3c8 963e
00000100: 4431 a93e 90c1 4b3f 9b20 143f 256f 403f
00000110: 25c8 873f 8dac af3f 6651 d03f 6e08 833f
00000120: e1b4 993f 7695 933f 84a1 aa3f f1fb 0140
00000130: ef42 ba3f 95ec dd3f b79c c73f 66b6 d73f
00000140: ac67 8a3f bc03 593f 6fe2 f53e 1c5f 623e
00000150: 2f8d a73e 0dd6 8abd f832 91be cb35 23bf
00000160: 4f4c b0bf 3f29 cbbf 1ad0 f3bf e567 e2bf
00000170: 561c 07c0 e57f bbbf 8e56 a5bf e296 e3bf
00000180: 64a4 c6bf 8249 32bf 5bf4 62bf a2cc 753d
00000190: 0e05 09bf 68eb 7abe e22f 2c3f d09e 3e3f
000001a0: 0151 ac3e 0db7 853e 3416 883d 4e65 243c
000001b0: ad18 10be 5548 98bd 9ce4 793e 9aab b6be
000001c0: b747 78be f4bb 16bf 551f 09bd 826d a5be
000001d0: c0cb 203c ab3a 713d aa04 bdbe d697 aabd
000001e0: c386 57bf 39ea 4fbf 7337 23bf cb28 5ebf
000001f0: 7bf5 06bf 9af0 b0bd a014 10bf f9d5 f3be
00000200: 1b13 11bf 3e2a ddbd b33e dcbe f62c a0be
00000210: 02c4 2b3d 1951 a63c c847 a6bd df1c 9abc
00000220: 3547 13bf 5b04 36bf 2ac5 ffbe ce0e 8bbe
00000230: 2b50 c1be 039e 623e ae7a 09be e0b2 b63e
00000240: 20b4 9e3e 1a7d ce3e e59e 21be 90c5 0b3f
00000250: cf2c 933e 21c3 ff3e ad32 39bd 7ad6 13be
00000260: 7026 c23d ec91 2d3e 8829 88bd 1afc 0a3e
00000270: 6738 1b3f b335 503e 540f 1e3f 2103 1a3f
00000280: 5323 123f 33da c53e 0102 503f d7a4 173f
00000290: 90e3 303f bcb7 5f3f c0eb 383f 7a5d 103f
000002a0: f974 7a3f 681c c03e adb1 363f ca6b 303f
000002b0: a43d 483f b732 e13d b678 cc3e cd44 c13d
000002c0: 7664 213f 29ae 3d3e 5229 a93e 19ef 023f
000002d0: c618 313e 8038 5d3f 34c5 353f 35e5 333f
000002e0: 6616 b33e 63a8 0b3f e353 bb3d 877b 513f
000002f0: b654 9f3d f536 303e 60d2 4a3f 43af 573e
00000300: 6ee5 663f d63f ff3e 8cdf 5e3f 6572 3a3f
00000310: db30 693f ed9e bc3e f996 843e a5b3 a93e
00000320: 9df8 103f a29e 6c3f 4a66 223e c38f 493f
00000330: 852b 383e ea90 383f 0e0b 763f c491 ab3e
00000340: 1b25 553f ef0f 413f d470 523f ac18 dd3e
00000350: c7a2 8e3f 6027 d63e 8344 e13e 115f a23e
00000360: 4910 be3e 58eb a93e 0736 6a3f 974c 063f
00000370: d75c 7a3f a684 883f 1620 d93e cc71 1b3f
00000380: 288c 7a3e e806 ce3e 5979 8b3f dc18 023f
00000390: 95a8 923e d078 573e 9bc0 1b3e 0be2 623f
000003a0: 7d0f d23d cf5a 9a3e 385b 1e3f 7049 443f
000003b0: 1b24 983c 5f9a a73e 7492 093f 601a ad3e
000003c0: 697e f13e 77dd 2e3f 51b6 fd3e ffb0 ac3e
000003d0: ea27 2a3f f11e 31bd ede7 3c3d a9ca 05be
000003e0: df23 073e e89d 06be 2a5f 2b3f 1669 293e
000003f0: f447 683e 2bf5 fe3e af42 c13e 388d 783d
