models/RobotDemoFirstOrder.pt (torch, 3607 bytes, 5 tensors)

embedding_.net_.net_.0.weight f4 [64, 3]
0	0x3e47b128	0.19501173
1	0x3e77600c	0.24157733
2	0xbed6ec96	-0.41977376
3	0x3fcba3e4	1.590939
4	0xbfba8ca8	-1.4574175
5	0xbf219920	-0.63124275
6	0xbeadb012	-0.33923393
7	0x3f702b1f	0.938158
8	0x3f6a7bc1	0.91595083
9	0xbdf58dbd	-0.11989925
10	0x3e566765	0.2093788
11	0xbe8c9f83	-0.27465448
12	0x3f4d17c8	0.8011441
13	0xbfa0f9d3	-1.257624
14	0xbf1449b3	-0.57924956
15	0xbd444364	-0.04791583
16	0x3eb94ded	0.36192265
17	0x3d747c10	0.059688628
18	0x3e933090	0.28747988
19	0xbe326696	-0.17421946
20	0xbf01cb4e	-0.50700843
21	0xbeffa1dd	-0.4992818
22	0xbe882e7d	-0.26597968
23	0x3ebfd625	0.37468067
24	0xbfd34e61	-1.6508294
25	0xbf8c2bc2	-1.0950854
26	0xc0146288	-2.3185139
27	0xbe282e37	-0.1642388
28	0x3c9c3e8b	0.019072792
29	0x3efc55ef	0.49284312
30	0xbe90173c	-0.28142726
31	0x3f1a27c7	0.60216945
32	0xbe4645d5	-0.19362576
33	0x3f6ecaac	0.93278
34	0xbfe2e7bc	-1.772697
35	0x3f57daca	0.8431822
36	0x3e2371ef	0.15961431
37	0x3e44fe88	0.19237721
38	0xbda84d58	-0.08217877
39	0xbf683d7a	-0.90718806
40	0xbee9172b	-0.45525488
41	0x3f372e53	0.7155506
42	0x3db59c8b	0.08867749
43	0xbdb17080	-0.08664036
44	0x3f172ecf	0.590558
45	0x3dfdf96a	0.124010876
46	0xbdd8c9fa	-0.10585399
47	0x3de0d805	0.109787025
48	0x3fa26da2	1.2689707
49	0xbf58fbbf	-0.84759134
50	0x3f0e18e9	0.5550676
51	0xbf5764cb	-0.8413817
52	0xbf0de41c	-0.5542619
53	0x3f456310	0.7710428
54	0xbfd2ef8c	-1.6479354
55	0x3f9447ea	1.1584446
56	0x3ef1e612	0.47245842
57	0x3f6cba25	0.92471534
58	0xbe0187c8	-0.12649453
59	0x3f715e31	0.9428435
60	0xbe866097	-0.26245567
61	0xbea04316	-0.31301183
62	0xbbef9254	-0.007311145
63	0x3f113f94	0.5673764
64	0x3eb6530f	0.35610244
65	0xbf05ce9b	-0.5226838
66	0xbef37983	-0.47553644
67	0xbf27edaf	-0.6559705
68	0xbe8a5fdf	-0.2702627
69	0xbf8ab2f6	-1.0835865
70	0x3fa73500	1.3063049
71	0xbdedaa2e	-0.11604725
72	0xbf2930bf	-0.66090006
73	0x3eda52c1	0.4264126
74	0xbee73be0	-0.45162868
75	0xbe7415b0	-0.23836398
76	0x3fc83667	1.5641602
77	0xbf0eea0e	-0.5582589
78	0xbf74aaa6	-0.9557289
79	0xbf842311	-1.0323201
80	0xbfc2ceff	-1.521942
81	0xbba29c1b	-0.004962457
82	0x3ec92720	0.39287663
83	0xbed7624c	-0.42067182
84	0x3e2a987e	0.16659734
85	0x3eb8826f	0.36037013
86	0xbf33f467	-0.70294803
87	0x3da59d78	0.080866754
88	0xbe4ed789	-0.20199408
89	0xbec22bd1	-0.37924054
90	0x3f1b1a33	0.6058685
91	0x3f0ee265	0.558142
92	0x3f9fb085	1.2475744
93	0xbf4b8804	-0.7950442
94	0xbedbcad2	-0.42928177
95	0x3f4744bb	0.7783925
96	0x3f731a02	0.9496156
97	0x3f1d0e91	0.6135035
98	0xbf61581a	-0.8802506
99	0x40183504	2.3782358
100	0x3ea29e77	0.31761524
101	0xbf94abc5	-1.161492
102	0xbe6e6625	-0.23281153
103	0xbe8122ce	-0.25221866
104	0x3e96fe5c	0.29490936
105	0x3e2afb12	0.16697338
106	0xbe00eece	-0.12591097
107	0xbea48eca	-0.3214019
108	0x3f5daf01	0.8659516
109	0xbf25bbac	-0.6473949
110	0x3eff7a28	0.49897885
111	0xbf4ef78a	-0.80846465
112	0x3fcacaf7	1.584319
113	0xbfbf7d8d	-1.496019
114	0xbe91ce77	-0.28477833
115	0x3e60b5b6	0.21944317
116	0x3e11bdf9	0.14232625
117	0x3d627fa3	0.055297505
118	0xbeef0879	-0.46686152
119	0x3aed9bf6	0.0018128145
120	0xbf84e23b	-1.038154
121	0x3f2cc892	0.67493546
122	0x3d12c191	0.03582913
123	0xbe1c9bf6	-0.1529387
124	0x3e0aae49	0.13543047
125	0xbf0993fc	-0.5374143
126	0x3ca44786	0.020053636
127	0xbd3b6f18	-0.045760244
128	0xbec1b769	-0.37835243
129	0x3e21db26	0.15806255
130	0xbd4181e1	-0.047243003
131	0xbe515b21	-0.20444919
132	0xbd6d0e7f	-0.057875153
133	0xbe5b2422	-0.21400502
134	0x3f228608	0.63485765
135	0xbec7893c	-0.3897189
136	0xbef9b872	-0.48773533
137	0xbf0796a3	-0.5296423
138	0xbdebf621	-0.11521555
139	0xbe4cc5dc	-0.19997352
140	0x3f3837f8	0.719604
141	0xbf833df7	-1.0253285
142	0x3f583dfa	0.8446957
143	0xbf04891e	-0.51771724
144	0x3e943f5e	0.28954595
145	0x3ea126f7	0.3147504
146	0xbf1d1f7f	-0.61376184
147	0xbec74e45	-0.38926902
148	0x3e092207	0.13391887
149	0x3eb7fa62	0.35933214
150	0xbd57dce7	-0.052700903
151	0xbebbcf50	-0.36681604
152	0x3e8f1bcb	0.27950892
153	0xbf16da44	-0.58926797
154	0x3f552d66	0.832724
155	0x3f481597	0.78157943
156	0x3ed50c4c	0.41610944
157	0xbf321915	-0.6956952
158	0xbeb2c237	-0.349138
159	0xbf691ec8	-0.91062593
160	0xbe03b92c	-0.12863606
161	0xbfa6ad28	-1.3021593
162	0x3e9ba073	0.3039585
163	0xbedc3928	-0.43012357
164	0xbdcee8e8	-0.10103017
165	0xbf483d40	-0.7821846
166	0x3f17e3a6	0.5933174
167	0xbddeea3c	-0.108845204
168	0xbf153885	-0.58289367
169	0x3f791e2a	0.9731165
170	0x3e80b559	0.25138357
171	0x3fad9fcd	1.3564392
172	0xbebce973	-0.36896858
173	0x3ec984b7	0.39359066
174	0x3eaf01de	0.34181112
175	0xbdfa2f2a	-0.12216027
176	0xbed33615	-0.412522
177	0xbee4f832	-0.44720608
178	0x3e631b11	0.22178294
179	0xbb058e0d	-0.0020378858
180	0x3f0d8d09	0.5529333
181	0xbecfaa46	-0.40559596
182	0x3ea20265	0.31642452
183	0x3c9c43c3	0.01907528
184	0xbf65222f	-0.89505285
185	0x3ef43ccf	0.47702643
186	0x3e910509	0.28324154
187	0xbef681dd	-0.48145953
188	0x3eb561fc	0.3542632
189	0x3f24aae5	0.64323264
190	0xc04e9acd	-3.2281983
191	0xbe6f4eb1	-0.23369862

embedding_.net_.net_.0.bias f4 [64]
0	0xbde54ca6	-0.1119626
1	0x401a116f	2.407314
2	0x3e726f35	0.23675235
3	0xbf964fc7	-1.1743096
4	0x3fdbf682	1.7184603
5	0xbf384782	-0.7198411
6	0xbee20986	-0.4414789
7	0x3e224a51	0.15848662
8	0xbfa90243	-1.3203815
9	0x3e8286db	0.25493512
10	0x3ea472a1	0.32118705
11	0x3ebc7333	0.3680664
12	0x3d6ada86	0.057337306
13	0xbed99231	-0.42494348
14	0x3f80adcd	1.005304
15	0x3f14f01a	0.58178866
16	0x3e2fa57f	0.17152975
17	0xbe98ed2a	-0.29868442
18	0xc011600a	-2.2714868
19	0x3fbbfd49	1.4686671
20	0xbe86c731	-0.26323846
21	0x3ee050f9	0.43811777
22	0x3fab24fa	1.3370659
23	0xc00d8dd3	-2.2117813
24	0xbfafba0f	-1.3728656
25	0xbfb419b6	-1.4070346
26	0x3f5efdba	0.87105906
27	0xbf9590b7	-1.1684788
28	0xbed37d7b	-0.41306672
29	0xbe5d7464	-0.21626431
30	0xbf342b64	-0.7037871
31	0xbe8ca20d	-0.27467385
32	0x3e8ba431	0.27273706
33	0x3e883529	0.26603058
34	0xbd67f7c3	-0.05663277
35	0x3e0fb298	0.14032972
36	0x3fd993af	1.6998194
37	0xbe24949b	-0.16072313
38	0xbe880139	-0.26563433
39	0x3f73d437	0.9524569
40	0x3d851f9e	0.06500171
41	0xbf5ef267	-0.87088627
42	0xbeb50ea9	-0.35362747
43	0x3e7b55a9	0.24544396
44	0x3f0c0ef2	0.54710305
45	0x3f71f714	0.94517636
46	0x3f195dbd	0.5990866
47	0xbe7db827	-0.2477728
48	0xbdb272c0	-0.08713293
49	0x3df776f8	0.12083238
50	0xbe899ead	-0.26878873
51	0x3e965f2c	0.29369485
52	0x3f97a26b	1.1846441
53	0xbfb32a53	-1.3997291
54	0xbea42ce6	-0.32065505
55	0xbfbb4815	-1.4631373
56	0xbe68ebd1	-0.22746207
57	0x3fde2652	1.7355444
58	0x3da9828d	0.08276854
59	0x3e1325eb	0.14369933
60	0x3d7dee30	0.06199473
61	0x3f23f9b9	0.6405292
62	0x3fa2aa9d	1.2708317
63	0x4036bece	2.8553958

embedding_.net_.net_.2.weight f4 [1, 64]
0	0x3e539359	0.20661677
1	0xbfa106c1	-1.2580186
2	0xbf0e93fd	-0.5569456
3	0x3e9dccdb	0.30820355
4	0xbf2daf5b	-0.67845696
5	0x3e514752	0.20437363
6	0x3dd7f942	0.10545589
7	0x3c57ebe5	0.0131788
8	0x3f9cc70b	1.2248243
9	0xbe1ae86d	-0.15127726
10	0xbdc97070	-0.09835899
11	0x3f2af836	0.6678499
12	0x3e40d399	0.18830718
13	0xbeb06b30	-0.34456778
14	0xbe965b81	-0.29366687
15	0xbcf6f68c	-0.03014686
16	0x3f793c53	0.9735767
17	0xbeaa95c8	-0.333174
18	0x3f7aeacf	0.9801454
19	0xbf14d744	-0.5814097
20	0xbdf78699	-0.12086219
21	0x3ea09022	0.31359965
22	0xbe61af5d	-0.22039552
23	0x3f24713b	0.64235276
24	0x3f3ae673	0.7300789
25	0x3f2090bb	0.6272084
26	0xbf27a608	-0.6548772
27	0x3e5b4920	0.21414614
28	0x3e73b75d	0.23800416
29	0x3d28e972	0.041238256
30	0x3ee07e1e	0.4384622
31	0xbe06a1e0	-0.13147688
32	0x3e826413	0.25466976
33	0x3f2157ee	0.63024795
34	0xbe6ed27b	-0.2332248
35	0x3e04f858	0.1298536
36	0xbed25f55	-0.41088358
37	0xbebbd543	-0.36686143
38	0xbda0b8b5	-0.0784773
39	0xbd9af889	-0.075669356
40	0xbf3419ca	-0.7035185
41	0x3db0364c	0.08604106
42	0x3e1e11e2	0.15436509
43	0x3e6d8eb0	0.23198962
44	0xbe677126	-0.22601756
45	0xbe9b2ef4	-0.3030926
46	0xbe1d0747	-0.15334807
47	0xbeaea54c	-0.34110487
48	0x3e3d65e7	0.18495904
49	0xbe94851a	-0.29007798
50	0x3cc54bc4	0.02408398
51	0xbeefe1e0	-0.46852016
52	0xbe0940b5	-0.1340359
53	0x3efd6235	0.4948899
54	0x3e50cf86	0.20391664
55	0x3f0fb675	0.5613778
56	0xbe5d317b	-0.21600907
57	0xbf32972f	-0.6976194
58	0x3e3e6b6f	0.1859567
59	0xbe2dfe3e	-0.16991517
60	0x3dee8591	0.116465695
61	0xbe54dac3	-0.20786576
62	0xbe9a7dae	-0.3017401
63	0xbf8fc829	-1.1232959

stiffness_.eigval_ f4 [3]
0	0xbddb0d11	-0.106958516
1	0xbd82f4d5	-0.06394354
2	0xbdd7718b	-0.105197035

stiffness_.eigvec_ f4 [3]
0	0x3ed76544	0.42069447
1	0x3ef54011	0.4790044
2	0xbda32c37	-0.07967418
