models/synthetic_second.pt (torch, 21878 bytes, 9 tensors)

embedding.net_.net_.0.weight f4 [64, 2]
-0.8508563 -0.1117259 0.31406164 -0.28893083 -0.5193759 -0.69010323 0.023153003 0.5870651
-0.5315592 -0.2890826 0.20411098 -0.18574233 -0.6743363 0.71485704 0.5524111 -0.9700608
0.1648016 0.3140865 0.279299 -0.12669508 0.7409671 -0.14389287 0.62696475 0.5094146
-0.6556395 1.0044283 0.86469364 0.6334643 -0.16409367 0.67244846 -1.0678413 -0.4879291
-0.7829662 -0.48638225 -0.029273871 0.28323898 -0.0961669 0.3744715 0.2745758 -0.2144853
0.108484425 0.2529233 -0.6591558 0.709103 0.44698548 -0.82558 0.020845566 0.30967703
0.7039392 0.282714 0.20032948 -0.579989 0.5149041 0.4956026 0.96942145 0.3226515
-0.7023455 0.16131882 -0.6351722 0.11520785 -0.3386955 -0.4510994 -0.8266154 -0.032810412
0.72148174 -0.34623358 -1.0206494 -0.7494739 0.5401242 -0.0911724 -0.98347676 -0.38446367
-0.26055905 0.42125797 -0.2328515 -0.18822668 0.35096288 -0.7305718 -0.4258809 -0.09069926
0.66181016 -0.07108844 0.112963855 -0.35793117 0.044212766 -0.17966749 0.1123464 -0.93628883
-0.73443794 0.14744343 -0.75597876 0.3668026 0.07641292 -0.0025799894 0.74405175 0.27561852
0.61149234 0.13338935 -0.6429043 0.3256927 -0.7998296 0.9109989 -0.5540024 0.52663034
0.08458691 -0.12114475 -0.609164 -0.74841917 -0.75565076 -0.38550824 0.33319065 0.24606751
0.548853 -0.48961884 -0.3418675 0.65307385 -0.85163265 -0.6558618 0.83024466 0.45072594
-0.6320235 -0.47412983 -0.59336644 0.6004839 0.5666376 -0.48688284 0.0931102 0.6456647
00000000: b8d1 59bf 8cd0 e4bd b0cc a03e beee 93be
00000010: d2f5 04bf 9baa 30bf 5eab bd3c e649 163f
00000020: 4414 08bf a202 94be 7802 513e 3d33 3ebe
00000030: 4ea1 2cbf df00 373f d06a 0d3f e855 78bf
00000040: c0c1 283e f2cf a03e 4700 8f3e 5bbc 01be
00000050: 05b0 3d3f a758 13be c380 203f ff68 023f
00000060: fed7 27bf 1b91 803f 905c 5d3f b72a 223f
00000070: 2c08 28be 9525 2c3f 06af 88bf d8d1 f9be
00000080: 7970 48bf 1807 f9be c2cf efbc b304 913e
00000090: 27f3 c4bd baba bf3e 3395 8c3e 09a2 5bbe
000000a0: 152d de3d 2a7f 813e 6fbe 28bf c687 353f
000000b0: 48db e43e 3659 53bf 52c4 aa3c fd8d 9e3e
000000c0: 5c35 343f e4bf 903e 2c23 4d3e 297a 14bf
000000d0: c1d0 033f a0bf fd3e 012c 783f 9432 a53e
000000e0: eacc 33bf c330 253e a59a 22bf 18f2 eb3d
000000f0: 7f69 adbe 80f6 e6be 119d 53bf 3664 06bd
00000100: 07b3 383f 8745 b1be a4a4 82bf 86dd 3fbf
00000110: 9445 0a3f 98b8 babd 22c5 7bbf 6cd8 c4be
00000120: ff67 85be 20af d73e a070 6ebe 7fbe 40be
00000130: 68b1 b33e c106 3bbf 100d dabe 89c0 b9bd
00000140: 646c 293f d196 91bd 9859 e73d c142 b7be
00000150: 7218 353d c1fa 37be df15 e63d a0b0 6fbf
00000160: 2004 3cbf 69fb 163e d387 41bf 8dcd bb3e
00000170: 617e 9c3d 0a15 29bb 2d7a 3e3f df1d 8d3e
00000180: c38a 1c3f 3897 083e 6095 24bf 32c1 a63e
00000190: a2c1 4cbf 3937 693f 1ad3 0dbf 3fd1 063f
000001a0: e73b ad3d bd1a f8bd 2cf2 1bbf 6698 3fbf
000001b0: 5472 41bf 5661 c5be f797 aa3e 1ff9 7b3e
000001c0: a181 0c3f 52af fabe 4209 afbe d92f 273f
000001d0: 9904 5abf 8fe6 27bf ea8a 543f 8dc5 e63e
000001e0: 4bcc 21bf 25c1 f2be dde6 17bf 50b9 193f
000001f0: 290f 113f b548 f9be 8fb0 be3d 484a 253f

embedding.net_.net_.0.bias f4 [64]
0.75558597 0.38681772 0.72153085 -0.47429058 0.3038049 0.23481044 -0.29500404 0.5419193
-0.08413336 -0.37859744 -0.4837841 -0.36357948 -0.5467265 0.7912729 -0.43083695 -0.4723309
0.77404284 -0.20227449 0.032150697 -0.37244242 -0.25366125 -0.3516204 0.5005543 -0.09616396
0.59899867 -0.8302733 -0.1729823 0.41734198 0.41690248 0.37217495 -0.43151933 0.68938565
-0.2367426 0.9577871 -0.43655142 0.9431135 0.69721556 -0.40699354 0.5176047 0.39525542
-0.36133853 0.021905927 0.18874477 0.7412482 0.3760777 0.57193285 0.09094613 0.49750674
-0.51415 0.22375579 -0.40412578 0.0067795995 0.03424049 0.80031085 0.7876575 0.40713432
-0.24142192 -0.30025312 -0.62744373 0.58902043 0.7533196 -0.34341776 -0.02520849 -0.6021071
00000000: 156e 413f f90c c63e 3fb6 383f 37d6 f2be
00000010: 518c 9b3e 2672 703e c50a 97be 39bb 0a3f
00000020: 1c4e acbd 86d7 c1be 8db2 f7be 1727 babe
00000030: 45f6 0bbf dc90 4a3f a996 dcbe 5bd5 f1be
00000040: ac27 463f 0b21 4fbe 73b0 033d c6b0 bebe
00000050: e3df 81be 9707 b4be 5424 003f 9cf1 c4bd
00000060: fa57 193f ca8c 54bf 4622 31be d9ad d53e
00000070: 3e74 d53e b78d be3e 1af0 dcbe 947b 303f
00000080: a76c 72be 8931 753f ab83 dfbe e36f 713f
00000090: b87c 323f 7561 d0be be81 043f eb5e ca3e
000000a0: 5d01 b9be 0f74 b33c 4f46 413e 71c2 3d3f
000000b0: 428d c03e 316a 123f f741 ba3d 34b9 fe3e
000000c0: 569f 03bf 3d20 653e 93e9 cebe 6727 de3b
000000d0: c23f 0c3d 2ce1 4c3f eca3 493f e973 d03e
000000e0: 4f37 77be c7ba 99be 27a0 20bf 0bca 163f
000000f0: 8ed9 403f 74d4 afbe 0982 cebc b123 1abf

embedding.net_.net_.2.weight f4 [64, 64]
0.0039952653 0.031350918 0.107295305 0.003056109 0.08602545 0.035661533 -0.052912127 -0.092049696
-0.09979576 0.027198588 -0.17551604 -0.10190047 0.07893143 0.08877135 0.032164253 -0.11443306
0.15681818 0.022838252 -0.15483107 -0.090518124 -0.033554077 -0.027433455 -0.011795017 -0.04443598
-0.035321552 -0.101022154 0.041142322 0.040706553 0.16869247 -0.012169836 0.043101657 0.19302793
-0.094430566 0.19154109 -0.13745938 0.22105424 0.03524789 -0.06272466 -0.11623958 0.056887135
-0.10176644 0.044635694 -0.008154104 0.052943002 0.13259168 -0.043230046 0.06886569 0.010125104
-0.069371164 -0.041495834 0.046499353 0.12038029 0.14812706 0.13540752 0.055874664 0.046511393
0.047871064 -0.009567939 -0.006833693 0.026313016 0.01595933 0.059880573 -0.0025011094 -0.032477234
-0.18974638 0.09969021 -0.11050551 0.18181512 -0.2326723 0.11447691 -0.005298399 0.035971694
0.20430592 -0.06764839 0.18034849 0.3342178 0.046296526 0.24913278 0.15440457 -0.25489345
-0.43678573 0.06882852 0.18159911 0.051063515 0.026593741 -0.16122715 -0.031067124 0.20181084
0.30618092 0.0357322 0.2516928 0.3370124 -0.044491805 -0.20195937 -0.15389685 -0.16263004
0.003739833 -0.30171958 0.13655716 -0.37297907 0.0049026264 -0.2082712 0.029935835 -0.23096615
0.17822848 0.0064973687 0.06783254 -0.14244503 -0.21612914 -0.01962883 0.1437566 0.32984832
0.34681526 -0.016244853 0.01683681 -0.10568265 0.05649859 -0.25731242 -0.24796408 0.337544
0.08797148 3.0578576e-05 -0.24025075 0.29561234 -0.16275416 -0.10973733 0.11937507 0.062308084
-0.24096881 0.220155 -0.282269 0.29839382 -0.40445036 0.22734909 -0.16159268 -0.049683075
0.34324685 -0.2692952 0.2861398 0.29972973 -0.08677656 0.21643281 0.22791107 -0.22333914
-0.46301702 0.14262629 0.27474108 -0.17589056 0.18225916 -0.15094785 0.07853866 0.21031353
0.32007226 -0.10253612 0.14745909 0.3443694 -0.22345115 -0.20106263 -0.27650502 -0.27902415
0.054346755 -0.29708105 0.011148608 -0.39267176 0.24458271 -0.31948492 0.13592306 -0.10507743
0.48733664 -0.33241254 0.12325675 -0.17158434 -0.35384935 -0.11235867 0.38969812 0.25459623
0.26364404 -0.055050932 -0.13381092 0.062318057 0.033642024 -0.3843501 -0.26919922 0.29403913
-0.097211555 0.10797115 -0.12993357 0.3563558 -0.27973992 -0.27235886 -0.0069724876 0.12935247
-0.17559034 0.1616999 0.04351238 -0.1431624 -0.0021376912 0.27221432 -0.29914868 0.19641095
0.06962505 0.049556993 0.0019295933 0.054432433 -0.44923574 0.07227642 -0.22350782 0.09100471
-0.09195155 -0.14035021 0.09902455 0.030321864 -0.13368651 -0.29390997 0.08683684 0.034036204
-0.017911905 0.08371235 0.048695166 0.013084778 -0.06306623 -0.11601825 -0.07107328 -0.096633054
0.0465763 -0.022290304 0.14309768 -0.10496684 -0.022769237 0.06505598 0.3294262 -0.047117393
0.08206832 0.12114576 0.13414614 0.24700779 -0.25109115 0.04238863 0.09307714 0.04441429
0.2131396 -0.09224484 -0.36919552 0.005475185 0.12479179 0.13748911 0.049355365 0.119140685
0.021160265 -0.23210178 -0.058175754 0.036793113 0.0096551655 -0.37064618 -0.0024397874 -0.17144142
00000000: b7ea 823b d269 003d a4bd db3d 0049 483b
00000010: 1c2e b03d d411 123d 63ba 58bd 8d84 bcbd
00000020: b861 ccbd 93cf de3c 7aba 33be 32b1 d0bd
00000030: cda6 a13d c1cd b53d aabe 033d e15b eabd
00000040: f294 203e 4917 bb3c 098c 1ebe 9161 b9bd
00000050: 0070 09bd 20bc e0bc e33f 41bc 8102 36bd
00000060: 55ad 10bd b4e4 cebd da84 283d eabb 263d
00000070: b8bd 2c3e fe63 47bc 5d8b 303d 1da9 453e
00000080: d064 c1bd 5923 443e 27c2 0cbe 0b5c 623e
00000090: 1760 103d c975 80bd 040f eebd 7c02 693d
000000a0: ec6a d0bd ebd3 363d cb98 05bc c3da 583d
000000b0: 1dc6 073e fd11 31bd 7409 8d3d c4e3 253c
000000c0: 7812 8ebd 89f7 29bd 1b76 3e3d f189 f63d
000000d0: 9fae 173e 45a8 0a3e d5dc 643d bb82 3e3d
000000e0: 7314 443d d8c2 1cbc 2ced dfbb 658e d73c
000000f0: 24bd 823c 5545 753d a7e9 23bb d906 05bd
00000100: e04c 42be 612a cc3d b650 e2bd be2d 3a3e
00000110: a641 6ebe df72 ea3d 319e adbb 0e57 133d
00000120: 9235 513e 3d8b 8abd 46ad 383e 981e ab3e
00000130: 6da1 3d3d aa1c 7f3e 3b1c 1e3e 6581 82be
00000140: 61a2 dfbe f8f5 8c3d 1ef5 393e fa27 513d
00000150: 1edb d93c bb18 25be 7b80 febc 80a7 4e3e
00000160: bfc3 9c3e ed5b 123d e1dd 803e e48c ac3e
00000170: 0a3d 36bd 70ce 4ebe 2397 1dbe 7d88 26be
00000180: fc17 753b fd7a 9abe a4d5 0b3e 1df7 bebe
00000190: 36a6 a03b 0c45 55be ff3b f53c 6482 6cbe
000001a0: 8781 363e e1e7 d43b c9eb 8a3d 1cdd 11be
000001b0: f550 5dbe a4cc a0bc ee34 133e e1e1 a83e
000001c0: c591 b13e ed13 85bc 5aed 893c 2570 d8bd
000001d0: 116b 673d 74be 83be 4cea 7dbe 91d2 ac3e
000001e0: 642a b43d 7f41 0038 4b04 76be 805a 973e
000001f0: 07a9 26be f7bd e0bd eb7a f43d c336 7f3d
00000200: 87c0 76be 5070 613e 9085 90be 13c7 983e
00000210: 1e14 cfbe 33ce 683e 8d78 25be 7b80 4bbd
00000220: 0dbe af3e 0fe1 89be ea80 923e 2d76 993e
00000230: e9b7 b1bd 90a0 5d3e 8561 693e 04b3 64be
00000240: 9110 edbe a00c 123e ddaa 8c3e a81c 34be
00000250: 25a2 3a3e 1392 1abe e1d8 a03d 6e5c 573e
00000260: 83e0 a33e 75fe d1bd 84ff 163e 3051 b03e
00000270: 61d0 64be 5de3 4dbe 1192 8dbe 41dc 8ebe
00000280: b49a 5e3d 021b 98be a7a8 363c 460c c9be
00000290: e473 7a3e 8793 a3be 6a2f 0b3e d632 d7bd
000002a0: 3084 f93e fa31 aabe 096e fc3d ceb3 2fbe
000002b0: be2b b5be 4d1c e6bd 8386 c73e 705a 823e
000002c0: 5afc 863e 167d 61bd bb05 09be 3841 7f3d
000002d0: 38cc 093d 89c9 c4be 7bd4 89be 4c8c 963e
000002e0: da16 c7bd fa1f dd3d 4e0d 05be 4474 b63e
000002f0: 123a 8fbe 9f72 8bbe 7779 e4bb f974 043e
00000300: f4cd 33be a994 253e 0a3a 323d 2a99 12be
00000310: 8218 0cbb ad5f 8b3e 042a 99be f41f 493e
00000320: 9497 8e3d 46fc 4a3d 68ea fc3a 8bf4 5e3d
00000330: 3a02 e6be a905 943d 3cdf 64be ad60 ba3d
00000340: 1851 bcbd f7b7 0fbe 62cd ca3d 8f65 f83c
00000350: 1ee5 08be 5e7b 96be 83d7 b13d 8c69 0b3d
00000360: fdbb 92bc 6171 ab3d 9574 473d 8961 563c
00000370: de28 81bd fa9a edbd de8e 91bd 8de7 c5bd
00000380: cac6 3e3d 289a b6bc 3388 123e dbf8 d6bd
00000390: 8d86 babc 123c 853d 8daa a83e 2bfe 40bd
000003a0: 6f13 a83d 451b f83d 9b5d 093e 9cef 7c3e
000003b0: 058f 80be b39f 2d3d 3a9f be3d c2eb 353d
000003c0: 4441 5a3e ddea bcbd 3207 bdbe 2e69 b33b
000003d0: d792 ff3d f2c9 0c3e da28 4a3d 0800 f43d
000003e0: 4b58 ad3c 17ac 6dbe b349 6ebd 60b4 163d
000003f0: b330 1e3c 56c5 bdbe d7e4 1fbb 578e 2fbe

embedding.net_.net_.2.bias f4 [64]
0.1266888 0.29233736 0.39566034 0.25269532 0.15790579 0.2928449 -0.1023441 0.13499896
-0.16589406 -0.097536966 -0.23066849 -0.3434566 0.09281868 0.077143945 0.0834775 -0.019613253
-0.28709644 -0.1856878 0.17359091 0.14950314 -0.14003275 -0.21666221 0.01819167 -0.06819343
0.041719127 -0.19379066 0.12538168 0.28451473 -0.13013738 0.064128056 -0.12120294 -0.19615638
-0.109517135 -0.18348196 -0.21828337 -0.14459218 -0.07341549 0.013632028 -0.35116017 -0.26266858
0.0706535 -0.12241174 -0.10532333 0.011719385 0.27582392 0.16221294 0.004732345 0.13684551
0.30748397 -0.34786344 0.12901625 0.046552375 0.10505168 0.4579197 -0.3297572 0.2354821
-0.19955797 -0.09626224 0.1087348 -0.27701348 0.30186525 -0.36278516 0.1545983 0.09568794
00000000: b5ba 013e 3ead 953e fe93 ca3e 4861 813e
00000010: 0eb2 213e c4ef 953e c999 d1bd 2b3d 0a3e
00000020: 22e0 29be 76c1 c7bd 5c34 6cbe 8bd9 afbe
00000030: b817 be3d a5fd 9d3d 40f6 aa3d f9ab a0bc
00000040: 4efe 92be f124 3ebe d1c1 313e 5a17 193e
00000050: bf64 0fbe b3dc 5dbe b206 953c ffa8 8bbd
00000060: ade1 2a3d 0f71 46be 0e64 003e eaab 913e
00000070: bc42 05be 9255 833d 3f39 f8bd 38dd 48be
00000080: 854a e0bd b2e2 3bbe ad85 5fbe f90f 14be
00000090: dc5a 96bd df58 5f3c 44cb b3be 7f7c 86be
000000a0: c8b2 903d 02b3 fabd c2b3 d7bd aa02 403c
000000b0: cb38 8d3e 261b 263e ca11 9b3b 3b21 0c3e
000000c0: 8a6e 9d3e 281b b2be d61c 043e b4ad 3e3d
000000d0: 5625 d73d 7374 ea3e f0d5 a8be 3822 713e
000000e0: ed58 4cbe 2325 c5bd 5ab0 de3d b6d4 8dbe
000000f0: 158e 9a3e fabe b9be 044f 1e3e 0af8 c33d

embedding.net_.net_.4.weight f4 [1, 64]
-0.016969927 0.83063203 1.9060866 0.15718503 0.23662642 -0.06655108 0.10544482 0.1282408
-0.07661644 -0.30824748 -0.1132602 0.26718193 0.071661554 -0.09944561 -0.08335373 0.03436157
0.12351475 -0.6626078 -0.1243244 0.03349587 0.3629539 0.14095646 0.20603196 -0.23110013
0.28921738 0.023885101 -0.2108977 -0.016465656 -0.13349971 0.25258735 0.2269315 -0.4879966
-0.017006114 -0.05110104 0.16635025 0.12401872 -0.15813887 0.2334069 0.06402105 0.40270478
-0.34017622 -0.2843377 0.16967094 0.21668084 -0.118313454 0.48996413 -0.14674619 0.03837827
-0.124097995 0.03774254 -0.17712364 0.18150392 -0.19304559 -0.0099299215 -0.3467952 -0.0720189
-0.39673293 -0.18663937 0.26391095 -0.16822119 0.3497445 -0.1762644 -0.17991401 -0.26208282
00000000: 8404 8bbc 4da4 543f a5fa f33f 1df5 203e
00000010: 324e 723e ef4b 88bd 74f3 d73d 8e51 033e
00000020: 15e9 9cbd 9dd2 9dbe f7f4 e7bd 12cc 883e
00000030: 4bc3 923d 24aa cbbd 5cb5 aabd b8be 0c3d
00000040: 4df5 fc3d aaa0 29bf cb9d febd f732 093d
00000050: 18d5 b93e e456 103e 0bfa 523e 83a5 6cbe
00000060: 4d14 943e b0aa c33c 91f5 57be fce2 86bc
00000070: 26b4 08be 2153 813e bb60 683e b1da f9be
00000080: 6850 8bbc 534f 51bd b857 2a3e 87fd fd3d
00000090: 28ef 21be 3802 6f3e 781d 833d 522f ce3e
000000a0: 942b aebe b694 91be 38be 2d3e 95e1 5d3e
000000b0: 534e f2bd 94dc fa3e a244 16be 8832 1d3d
000000c0: 1727 febd ec97 1a3d e65f 35be 2adc 393e
000000d0: bead 45be 1cb1 22bc 248f b1be a57e 93bd
000000e0: 9420 cbbe 641e 3fbe 561f 873e 2d42 2cbe
000000f0: b611 b33e a87e 34be 613b 38be b82f 86be

stiffness.eigval_ f4 [2]
-0.4200491 2.1341689
00000000: ad10 d7be 3996 0840

stiffness.eigvec_ f4 [2]
0.2121406 -0.42472014
00000000: 633b 593e eb74 d9be

dissipation.eigval_ f4 [2]
1.511246 0.4475611
00000000: 8270 c13f ba26 e53e

dissipation.eigvec_ f4 [2]
0.6853883 0.81921077
00000000: 9c75 2f3f ccb7 513f
