models/synthetic_second_best3.pt (torch, 22090 bytes, 9 tensors)

embedding.net_.net_.0.weight f4 [64, 2]
0	0x3e9cea21	0.30647376
1	0x3eb3c686	0.351124
2	0xbf300cc3	-0.6876947
3	0xbe61859a	-0.22023621
4	0xbf11abc4	-0.5690272
5	0x3eeef974	0.46674693
6	0x3ee465e4	0.44608986
7	0x3f12cd60	0.5734463
8	0xbf63d9e2	-0.8900434
9	0xbf977b9c	-1.1834598
10	0x3ea4a8c1	0.3216
11	0xbc80818e	-0.015686776
12	0xbf4cee25	-0.8005088
13	0x3f6500fe	0.8945464
14	0xbf22c2b0	-0.6357832
15	0x3ef79940	0.48359108
16	0x3f45303c	0.77026725
17	0xbec46b3b	-0.3836306
18	0x3f1df30e	0.61699
19	0x3e3b30ac	0.18280286
20	0x3ebf36ab	0.37346396
21	0x3f4ec683	0.80771655
22	0xbf4b6356	-0.7944845
23	0xbef9bd07	-0.4877703
24	0xbec2ea71	-0.3806949
25	0x3d650ece	0.055922322
26	0xbec76972	-0.38947636
27	0x3f0c7b73	0.5487587
28	0xbed837b7	-0.42230007
29	0x3eeaa5e2	0.45829684
30	0x3eafc7c4	0.34332097
31	0x3debd85e	0.11515878
32	0xbd952efe	-0.07284354
33	0x3f36fd85	0.7148059
34	0x3eeaaf70	0.45836973
35	0xbeb208d2	-0.34772354
36	0xbe315ca8	-0.17320502
37	0xbf1b73d7	-0.6072363
38	0xbebb8ccd	-0.3663086
39	0x3e618529	0.22023453
40	0xbf1ecfb0	-0.62035656
41	0xbe9de985	-0.30842224
42	0xbf229c78	-0.6352
43	0x3d23e642	0.040014513
44	0xbe9e3bd7	-0.3090503
45	0xbe078ca4	-0.13237244
46	0x3ec05016	0.375611
47	0x3f1c6d03	0.6110384
48	0xbf69802a	-0.9121119
49	0x3f0b1853	0.5433399
50	0x3e979abf	0.2961025
51	0xbf25f818	-0.64831686
52	0x3f1d097a	0.61342585
53	0xbecffe4b	-0.40623698
54	0xbee4857c	-0.4463309
55	0xbebbe8d3	-0.36701068
56	0xbf132c6b	-0.5748965
57	0x3e752ec1	0.23943616
58	0xbf5b1425	-0.85577613
59	0x3eb35c92	0.35031563
60	0x3f1421be	0.57863986
61	0x3f251ffa	0.6450192
62	0xbe37e29d	-0.1795754
63	0x3f0fe02f	0.5620145
64	0xbe1c313e	-0.1525316
65	0x3fc55a5a	1.5418198
66	0x3eec9221	0.46205238
67	0xbe061697	-0.13094555
68	0xbef10f0b	-0.4708179
69	0x3f71deb6	0.94480455
70	0xbea30bd3	-0.3184496
71	0x3ef41b56	0.47677106
72	0x3ef3f783	0.47649774
73	0xbea6d0c2	-0.32581145
74	0xbf0349e0	-0.512846
75	0x3c8e7bb0	0.017392963
76	0xbd51bfb9	-0.05120823
77	0x3f1efa2c	0.6210048
78	0xbed1fe7f	-0.41014478
79	0x3e8ea224	0.27858078
80	0x3f27eda7	0.65597004
81	0xbe3a60ba	-0.18200961
82	0xbf296f00	-0.66185
83	0x3f16ae91	0.5886012
84	0xbf2dfc66	-0.67963254
85	0xbf6a39e6	-0.91494596
86	0x3f216772	0.6304847
87	0xbe69ee7c	-0.22844881
88	0x3ea207e1	0.31646636
89	0xbdf2a040	-0.118469715
90	0x3e3a7217	0.18207584
91	0x3fa6c87f	1.3029937
92	0x3e950ae4	0.2910987
93	0x3eee3fad	0.46532956
94	0xbf48ead9	-0.7848335
95	0x3ebbb0b2	0.36658245
96	0x3ef82fcf	0.48473975
97	0x3f8bf2dc	1.093349
98	0xbf1ade64	-0.6049559
99	0xbe8daf8b	-0.2767299
100	0x3f594266	0.8486694
101	0xbf04d5d6	-0.5188879
102	0xbf0d5ecc	-0.55222774
103	0xbeee38f5	-0.4652783
104	0x3e9466d8	0.28984714
105	0xbf3ae62e	-0.73007476
106	0xbf2b72da	-0.66972125
107	0x3e9e5585	0.3092462
108	0x3f4af83d	0.7928503
109	0x3f2f8b7b	0.68572205
110	0x3f3f2082	0.7465898
111	0x3e24b954	0.16086322
112	0xbf6ef045	-0.9333537
113	0x3f29c6fc	0.6631925
114	0x3d958dca	0.07302435
115	0xbe8cd179	-0.27503565
116	0x3f1d180a	0.61364806
117	0x3f45aff7	0.77221626
118	0xbe83b275	-0.2572209
119	0xbf4c346c	-0.7976749
120	0x3f1502fd	0.58207685
121	0xbe9b2512	-0.3030172
122	0x3f1efd29	0.6210504
123	0x3eb00d00	0.34384918
124	0x3d7d6712	0.061865874
125	0xbf335d06	-0.7006382
126	0x3f25d02c	0.6477077
127	0x3e1f9480	0.15583992

embedding.net_.net_.0.bias f4 [64]
0	0x3f410eec	0.75413394
1	0x3ed62c2e	0.4183058
2	0xbeda3753	-0.42620334
3	0xbef8a098	-0.48560023
4	0xbe4144cb	-0.18873899
5	0x3f43d0ea	0.7649065
6	0xbf3fd7aa	-0.7493845
7	0xbf4bcd67	-0.79610294
8	0xbdc47aa6	-0.09593706
9	0xbe929146	-0.2862646
10	0xbf025755	-0.5091451
11	0x3f4f4091	0.80957896
12	0xbf4d9578	-0.80306196
13	0x3ea198ad	0.31561795
14	0xbec29708	-0.38005853
15	0x3dc38985	0.09547714
16	0x3eee9721	0.46599677
17	0x3d75f0f5	0.060044248
18	0xbe63fd64	-0.2226463
19	0xbd96aff9	-0.07357783
20	0x3ecdf98b	0.4022945
21	0xbe0d3c31	-0.13792492
22	0x3f05d60a	0.5227972
23	0x3d30efb5	0.043197352
24	0xbe9cc74a	-0.30620795
25	0xbd8c5916	-0.06852929
26	0x3d95c070	0.07312095
27	0x3e903a62	0.28169543
28	0xbebeada6	-0.37241858
29	0xbf63a66e	-0.88925827
30	0x3df6fcb7	0.1205992
31	0xbe409052	-0.18805054
32	0xbfb3e2fb	-1.4053644
33	0x3f054f15	0.52073795
34	0xbf5e968d	-0.8694847
35	0xbda358dc	-0.07975933
36	0x3e65f820	0.22457933
37	0xbef174da	-0.47159463
38	0x3c2bd5d0	0.010487989
39	0xbf031ecb	-0.5121886
40	0x3d70e50d	0.05881219
41	0xbf2fb193	-0.6863033
42	0x3f5e9fd6	0.8696264
43	0xbd0743f4	-0.03302379
44	0x3f67497f	0.9034652
45	0xbfa04218	-1.252017
46	0xbe575c33	-0.21031265
47	0xbf5cc8a0	-0.8624363
48	0x3ed4b6fa	0.4154585
49	0x3e440e98	0.19146192
50	0x3eb0fb63	0.34566793
51	0x3e06b3c5	0.13154514
52	0x3f3987c1	0.7247277
53	0x3e0ba408	0.13636792
54	0xbdaa6e07	-0.08321767
55	0xbec4236c	-0.38308275
56	0xbf1c62d4	-0.610883
57	0x3f3aede6	0.73019254
58	0xbf4a499d	-0.79018575
59	0x3ee6c24c	0.45070112
60	0x3e10659f	0.14101265
61	0xbe41ac27	-0.18913327
62	0x3f4c6ea3	0.7985632
63	0x3ebf4f85	0.37365356

embedding.net_.net_.2.weight f4 [64, 64]
0	0xbdeafe49	-0.11474282
1	0x3d29ee3f	0.041486975
2	0x3e0d9f44	0.13830286
3	0xbdc7b98f	-0.09752189
4	0x3c606fcf	0.013698532
5	0xbe511902	-0.20419696
6	0x3e1596f7	0.1460837
7	0x3daac4d2	0.08338322
8	0xbdebdc69	-0.11516649
9	0xbe117f9a	-0.14208832
10	0xbd47334a	-0.048632897
11	0x3c4595b8	0.0120596215
12	0x3e244ea7	0.16045628
13	0x3dcaf5b5	0.09910146
14	0x3db5721d	0.08859656
15	0xbe0a6e8b	-0.13518731
16	0xbd556418	-0.05209741
17	0xbe096039	-0.13415612
18	0x3dc8dcc3	0.09807732
19	0x3d539f01	0.05166531
20	0x3ca687b1	0.020328375
21	0x3da32690	0.079663396
22	0xbd824c00	-0.06362152
23	0xbd6a1b16	-0.057154737
24	0x3c90460a	0.017611522
25	0xbd321d6f	-0.0434851
26	0xbd8e64a6	-0.06952791
27	0x3d964f30	0.073393226
28	0x3db9a1aa	0.09064038
29	0x3e5a4792	0.21316364
30	0xbd46bd2e	-0.04852026
31	0xbce6f6b1	-0.028193804
32	0x3da69a18	0.0813486
33	0xbd96737d	-0.073462464
34	0x3dd6136c	0.10452923
35	0x3ce6be78	0.028166994
36	0xbe17ad21	-0.14812137
37	0x3ddcd4ad	0.10782752
38	0x3c320620	0.010865718
39	0x3e2601b6	0.1621159
40	0xbdd08f09	-0.10183532
41	0x3e08a5b2	0.13344458
42	0x3df6fbde	0.120597586
43	0xbcaed7b8	-0.021343097
44	0xbe621e46	-0.22081861
45	0x3bc4ec32	0.006009602
46	0xbd565b28	-0.052333027
47	0x3e2037dd	0.1564631
48	0xbbcbce88	-0.006219689
49	0x3c67b633	0.014142561
50	0xbc7d650e	-0.015465988
51	0xbbc217ab	-0.0059232316
52	0xbe004401	-0.12525941
53	0x3e16bfc8	0.14721596
54	0x3cf316de	0.02967399
55	0xbdcd4dfc	-0.1002464
56	0x3e29ad07	0.16569911
57	0xbe3a22f3	-0.18177395
58	0xbb516fe9	-0.0031957573
59	0x3cfb0f1e	0.030646857
60	0xbe2c96cd	-0.16854401
61	0x3c9c58fc	0.0190854
62	0xbdac8b91	-0.08425058
63	0xbe2dc840	-0.1697092
64	0x3d804218	0.062626064
65	0xbe0d0bee	-0.13774082
66	0xbd3135e8	-0.0432643
67	0x3e49a243	0.19690804
68	0xbd9e049c	-0.07715723
69	0x3e4ec8d3	0.20193796
70	0xbe07c408	-0.13258374
71	0xbe8a2bef	-0.26986644
72	0x3d9e1df5	0.077205576
73	0x3e2b2c57	0.16716133
74	0x3ebdb18e	0.37049526
75	0xbe34af2a	-0.17644945
76	0xbe5192c1	-0.20466138
77	0x3d0d3aa6	0.03447976
78	0xbcee69b7	-0.029103143
79	0x3e208622	0.15676168
80	0x3d61fcce	0.055172734
81	0xbd438ded	-0.047742773
82	0xbe4c8a52	-0.1997464
83	0xbd59f986	-0.05321648
84	0xbe1dbd2a	-0.15404192
85	0xbe1627c5	-0.14663608
86	0xbd4e688a	-0.050392665
87	0x3d988773	0.0744771
88	0xbe035026	-0.12823543
89	0xbd61811b	-0.055054765
90	0xbbd8834c	-0.0066074487
91	0xbe1448a6	-0.14480838
92	0xbdf5ff88	-0.12011629
93	0xbe346469	-0.17616428
94	0x3cb04f59	0.02152221
95	0x3dba4de1	0.090968855
96	0x3ea9530d	0.33071175
97	0x3e51ef2d	0.20501395
98	0x3d8b2aa2	0.06795241
99	0x3de5122b	0.11185106
100	0x3b5de129	0.003385613
101	0xbe2246ec	-0.15847367
102	0x3e2ef006	0.17083749
103	0xbe38f440	-0.18061924
104	0x3d7715a2	0.060323365
105	0xbddd9b08	-0.108205855
106	0xbe89b18c	-0.2689327
107	0x3e0396cf	0.12850498
108	0x3e4edc0a	0.20201126
109	0x3ef06d9d	0.46958628
110	0x3e8f5c91	0.2800031
111	0xbe43588b	-0.19076745
112	0x3ccfe33f	0.025376914
113	0xbda9dddf	-0.08294272
114	0x3e01e9fe	0.12686917
115	0xbe8bdf07	-0.27318594
116	0xbde8a467	-0.11359482
117	0xbd91889e	-0.07106136
118	0x3e3f2a91	0.18668582
119	0x3dd9892b	0.10621866
120	0xbe6dc6ff	-0.23220442
121	0x3e5bd712	0.21468762
122	0x3e8a2acd	0.2698578
123	0xbeeb4d03	-0.45957193
124	0xbd121b1f	-0.035670396
125	0x3e8bf3c7	0.27334425
126	0xbd8cdaa8	-0.06877643
127	0x3e10ed2f	0.14152978
128	0xbdab1122	-0.08352877
129	0xbc8a761b	-0.01690202
130	0x3de50f59	0.11184568
131	0xbcac0566	-0.020998668
132	0xbc4491ef	-0.011997684
133	0xbdc99273	-0.09842386
134	0x3db7aafa	0.08968158
135	0x3cb5ec19	0.022207307
136	0xbc917de5	-0.017760227
137	0xbda170fe	-0.0788288
138	0xbd73cebb	-0.059523325
139	0xbbd2202e	-0.0064125275
140	0x3d3d8939	0.046273444
141	0x3d51af02	0.05119229
142	0x3c376c1f	0.011195212
143	0xbd328425	-0.043583054
144	0x3d858283	0.06519034
145	0xbcb13966	-0.021633815
146	0x3d399dfd	0.045316685
147	0x3db821e5	0.0899084
148	0x3d99233c	0.074774235
149	0x3def46f8	0.11683458
150	0xbd3b0bc8	-0.045665532
151	0x3c397fad	0.011321944
152	0x3b84e4a4	0.0040555764
153	0xbe1257a0	-0.14291239
154	0xbdb6fe7c	-0.08935258
155	0x3dc8ef64	0.09811285
156	0x3df42f05	0.11923031
157	0x3e1e3eb4	0.15453607
158	0xbd2f4da0	-0.04279864
159	0x3df5e0af	0.120057456
160	0xbc6771d3	-0.014126259
161	0xbcf1adf3	-0.02950189
162	0x3d3aac12	0.045574255
163	0x3d9f75b5	0.07786123
164	0xbe157779	-0.14596356
165	0x3cf72793	0.030170238
166	0x3c94cc09	0.018163698
167	0x3ced279d	0.028949553
168	0xbd5eda59	-0.05440745
169	0x3df742b4	0.120732695
170	0x3e07e161	0.13269569
171	0xbd170f83	-0.036880028
172	0xbddffd4a	-0.10936983
173	0xbd984dd6	-0.07436721
174	0xbce2aa77	-0.027669175
175	0x3d25ca5e	0.040476196
176	0x3dcec5a0	0.10096288
177	0x3b98dfac	0.0046653356
178	0xbe33e723	-0.1756864
179	0xbc9b4468	-0.018953517
180	0x3bf7bf8c	0.007560676
181	0x3d2f4226	0.042787693
182	0x3c6b3d97	0.014357946
183	0xbe085e64	-0.13317257
184	0x3d0b97d4	0.03408034
185	0xbd1cfaea	-0.038325228
186	0xbe0016ea	-0.12508741
187	0x3a6e5edd	0.0009093115
188	0x3bf39b5f	0.007434293
189	0xbdea1f91	-0.11431802
190	0xbd3b4954	-0.045724228
191	0xbdbd8b2f	-0.09255063
192	0xbe3b70ea	-0.18304792
193	0x3dfc9656	0.12333362
194	0x3db740a6	0.089478776
195	0x3ad15a29	0.0015972304
196	0x3d343cb6	0.04400321
197	0xbe210ca7	-0.15727483
198	0x3e3c2f2b	0.18377368
199	0x3daddfd9	0.08489961
200	0xbdad3172	-0.084566966
201	0xbb1511c6	-0.002274619
202	0x3c465091	0.012104169
203	0x3dac2640	0.08405733
204	0x3e10296a	0.14078298
205	0x3c9921b5	0.01869283
206	0x3d888fc4	0.06668046
207	0xbddb78f0	-0.10716426
208	0xbd12b94a	-0.035821237
209	0xbd3e11a4	-0.046403542
210	0x3cd4face	0.0259985
211	0x3dce6608	0.10078055
212	0x3d0f81d4	0.035035923
213	0x3df431fb	0.119235955
214	0xbcff0470	-0.031130046
215	0xbc31fa77	-0.010862938
216	0x3cacd2d0	0.021096617
217	0xbd3a9e21	-0.04556096
218	0xbcdd73c3	-0.027032739
219	0x3db37170	0.08761871
220	0x3d6e7051	0.058212582
221	0x3e1f506f	0.15558027
222	0xbc1cfef2	-0.009582268
223	0xbbeeeb3e	-0.0072912266
224	0x3d3befbd	0.04588293
225	0xbd7e051d	-0.062016595
226	0x3df24cb5	0.11831037
227	0x3d9371f6	0.07199471
228	0xbdadc085	-0.08483986
229	0x3dcfd62d	0.10148273
230	0x3dd28070	0.10278404
231	0x3e32dbe1	0.1746669
232	0xbdff5569	-0.124674626
233	0x3d1b1176	0.03785845
234	0x3ccf5f80	0.025314093
235	0xbdf9290a	-0.12166031
236	0xbe20f65b	-0.15718977
237	0x3c98f0c9	0.018669503
238	0xbc12cc1a	-0.008959794
239	0x3e0091d2	0.12555626
240	0xbcb27b02	-0.02178717
241	0x3d7cf32b	0.06175534
242	0xbd136d03	-0.035992634
243	0x3d866fee	0.06564318
244	0xbda407ca	-0.08009298
245	0x3da9703d	0.08273361
246	0x3d3d9edf	0.04629409
247	0xbe1f7051	-0.15570189
248	0x3e18548e	0.14876005
249	0xbdd5e16f	-0.10443389
250	0x3c180a3f	0.009279787
251	0xbc8b8e20	-0.017035544
252	0xbdf36d38	-0.11886066
253	0xbd444abd	-0.04792284
254	0xbd8070b3	-0.06271496
255	0xbb9e9fd2	-0.0048408294

embedding.net_.net_.2.bias f4 [64]
0	0xbe33ea58	-0.17569864
1	0x3e07eb81	0.13273431
2	0xbe1bf669	-0.15230717
3	0xbde002c6	-0.10938029
4	0xbd2d3cf2	-0.04229445
5	0xbe29b719	-0.16573752
6	0x3e92f9fc	0.28706348
7	0xbe81c883	-0.2534829
8	0xbe14426f	-0.14478467
9	0x3e287104	0.16449362
10	0x3b2611da	0.002534023
11	0xbdc6c8d4	-0.09706274
12	0x3e8583bf	0.26077077
13	0xbe09777a	-0.13424483
14	0x3e465149	0.19366945
15	0xbdc7ed9b	-0.097621165
16	0xbe52c88e	-0.20584318
17	0xbe24d93d	-0.16098495
18	0x3e235e5b	0.15953963
19	0x3e8fe1b4	0.28101885
20	0x3d22312d	0.03959768
21	0x3dcea9cf	0.10090982
22	0xbe686f25	-0.22698648
23	0x3ef0cd83	0.47031793
24	0xbe540abd	-0.20707221
25	0xbe020a0b	-0.12699144
26	0x3dcaa0ba	0.098939374
27	0x3df010ba	0.1172194
28	0x3e04b40f	0.12959312
29	0x3e2d3917	0.1691631
30	0xbdf2d726	-0.118574426
31	0x3e3f3c6a	0.1867539
32	0x3d6972bb	0.05699418
33	0x3d3c182e	0.045921497
34	0xbede4656	-0.43413037
35	0xbea2a9b0	-0.31770086
36	0x3e847a2b	0.25874457
37	0x3e162dd6	0.14665923
38	0xbe04160d	-0.12899037
39	0xbd202772	-0.039100118
40	0xbdd39b24	-0.10332325
41	0x3e82ae8f	0.25523803
42	0xbe84756e	-0.25870842
43	0xbddb4011	-0.10705579
44	0x3e6a053d	0.22853561
45	0x3db9ce06	0.09072499
46	0x3ea17fbc	0.31542766
47	0x3e0fb8ea	0.14035383
48	0xbc9eab2b	-0.019368729
49	0xbd3c5d42	-0.045987375
50	0x3e8ade41	0.2712269
51	0xbe9ee0a5	-0.31030765
52	0x3e7e2deb	0.24822204
53	0xbe49a0aa	-0.19690195
54	0x3de5a22b	0.11212572
55	0x3e88cfb3	0.26720962
56	0xbda36985	-0.07979111
57	0xbe56395f	-0.20920323
58	0xbd8ed83c	-0.06974837
59	0x3dfd8baf	0.12380158
60	0x3e10ca24	0.1413961
61	0x3c891137	0.016731841
62	0xbe5f0527	-0.21779309
63	0xbdd97251	-0.10617507

embedding.net_.net_.4.weight f4 [1, 64]
0	0xbe19e196	-0.1502746
1	0x3e9f33a1	0.31094077
2	0x3bae5889	0.005320613
3	0xbcf23959	-0.029568361
4	0x3dd1d8d6	0.10246436
5	0xbd5dd4dc	-0.054158077
6	0xbe1b12a1	-0.15143825
7	0xbdeee893	-0.11665454
8	0xbe18f3e9	-0.14936794
9	0x3d2a9e72	0.04165501
10	0xbf031f97	-0.5122008
11	0xbe00836f	-0.12550138
12	0x3dfdb97a	0.123888925
13	0xbdd16fb8	-0.10226387
14	0x3e1dc64c	0.15407676
15	0xbe0f5ec4	-0.14000994
16	0xbe129408	-0.14314282
17	0xbdd8837e	-0.10571955
18	0x3dab3beb	0.08361038
19	0x3e01cf2c	0.12676686
20	0x3e144433	0.14479141
21	0xbc151958	-0.009100281
22	0xbdd6c6ef	-0.10487162
23	0xbe68f5eb	-0.2275006
24	0xbe2bc31e	-0.1677365
25	0xbd8a856c	-0.067637295
26	0xbe6b7790	-0.22994828
27	0x3e046bb9	0.12931718
28	0xbcfe4317	-0.03103785
29	0x3e1a37a7	0.15060292
30	0x3e68862e	0.22707435
31	0x3e1dee29	0.15422882
32	0x3db2830d	0.08716402
33	0x3e34557a	0.17610732
34	0x3e3cc3f7	0.1843413
35	0xbe16a8f1	-0.14712884
36	0x3e12e7bc	0.14346212
37	0x3e0ad230	0.13556743
38	0xbdac0095	-0.083985485
39	0xbd19d1f5	-0.037553746
40	0x3d1606b3	0.036627483
41	0x3df17719	0.11790294
42	0xbe67ef6a	-0.22649923
43	0xbdeec8c7	-0.11659389
44	0x3e424854	0.18972903
45	0x3dec07fc	0.115249604
46	0xbe1c7468	-0.1527878
47	0x3dc20aba	0.09474702
48	0x3e867096	0.2625777
49	0xbdd7a922	-0.105303064
50	0x3df0361a	0.11729069
51	0xbdfaf487	-0.12253671
52	0x3e41f8e0	0.18942595
53	0x3ed94167	0.4243271
54	0x3dbe14a6	0.09281282
55	0x3ddb68d5	0.107133545
56	0xbdec0878	-0.11525053
57	0xbdd1af96	-0.102385685
58	0x3e3cd982	0.18442348
59	0xbebe5cca	-0.37180167
60	0x3dc26aea	0.094930485
61	0xbeb49c1c	-0.35275352
62	0xbf0ad0aa	-0.54224646
63	0x3d2cad2c	0.042157337

stiffness.eigval_ f4 [2]
0	0x401db4cd	2.4641602
1	0x3e0e7b74	0.13914281

stiffness.eigvec_ f4 [2]
0	0x3ee6a343	0.45046434
1	0x3f11f367	0.5701203

dissipation.eigval_ f4 [2]
0	0x3fe430da	1.7827408
1	0x3f0d0209	0.5508123

dissipation.eigvec_ f4 [2]
0	0x3c772727	0.015085018
1	0x3f932a51	1.1497289
