models/synthetic_first.pt (torch, 21344 bytes, 7 tensors)

_embedding.net_.net_.0.weight f4 [64, 2]
0	0xbf437355	-0.7634786
1	0xbe258bc1	-0.16166593
2	0x3e9e18a2	0.30878168
3	0xbdf93d44	-0.121698886
4	0xbe86927e	-0.2628364
5	0xbf314a85	-0.6925433
6	0x3d02ff22	0.031981595
7	0x3eff0b2a	0.49813205
8	0xbf013323	-0.50468653
9	0xbecde24a	-0.40211707
10	0x3e97fc71	0.29684785
11	0x3d747ead	0.05969112
12	0xbf0b6876	-0.5445627
13	0x3e517b44	0.20457178
14	0x3edab683	0.4271737
15	0xbed8196b	-0.42206892
16	0x3e51a36a	0.20472494
17	0x3eae0766	0.3399002
18	0x3c129083	0.008945587
19	0xbe82780f	-0.25482222
20	0x3f2c3b13	0.6727764
21	0xbe33dc4a	-0.17564502
22	0x3f1490e9	0.58033615
23	0x3f03303d	0.5124548
24	0xbee84dd9	-0.45371893
25	0x3dd390b2	0.10330333
26	0x3efad590	0.4899106
27	0x3f4c4cf1	0.79804903
28	0xbe3d829d	-0.18506856
29	0x3f20348b	0.62580174
30	0xbf0a7c4b	-0.54095906
31	0xbedaba8c	-0.4272045
32	0xbf1b3945	-0.6063426
33	0xbee67604	-0.45011914
34	0x3d8f7919	0.070055194
35	0x3ea7020a	0.32618743
36	0x3cc56fb5	0.024101118
37	0x3c218540	0.009858429
38	0x3dcb0078	0.09912199
39	0xbefd29b3	-0.49445876
40	0x3e7c0786	0.24612245
41	0x3e809732	0.25115353
42	0xbf11798a	-0.5682608
43	0x3e14b931	0.1452377
44	0x3ed2e174	0.41187632
45	0xbf195534	-0.59895635
46	0x3e8f9219	0.2804115
47	0x3ea896fc	0.32927692
48	0x3f08f48d	0.53498155
49	0x3ea394f7	0.3194959
50	0x3e5a101e	0.2129521
51	0xbf5482f7	-0.83012336
52	0x3ee0d0ce	0.43909305
53	0x3f04691e	0.51722896
54	0x3f171f5a	0.59032214
55	0x3e9e9fb3	0.30981216
56	0xbf1e1ad0	-0.6175966
57	0x3e033757	0.12814079
58	0xbf16a551	-0.58846
59	0x3d804ace	0.06264268
60	0xbe87ede8	-0.26548696
61	0xbf00b3bc	-0.5027425
62	0xbf333cf5	-0.7001489
63	0xbcfad005	-0.03061677
64	0x3f26230d	0.64897233
65	0xbe68b258	-0.22724283
66	0xbf2d1eac	-0.67624927
67	0xbf101b42	-0.5629159
68	0x3ec4cfc3	0.3843976
69	0xbdd2e48e	-0.102974996
70	0xbf3b025b	-0.7305047
71	0xbe69a3ec	-0.22816437
72	0xbe3d9f91	-0.18517901
73	0x3f3af536	0.7303041
74	0xbec71a7b	-0.3888739
75	0xbe9654a6	-0.29361457
76	0x3e9b863a	0.30375844
77	0xbef5c083	-0.47998437
78	0xbeaa7382	-0.3329125
79	0xbe0306f6	-0.12795624
80	0x3f071bdf	0.527769
81	0x3d7efe2f	0.062254127
82	0xbe199a86	-0.15000352
83	0xbe77dcd8	-0.24205339
84	0x3eb150f5	0.34632078
85	0x3e023746	0.12716398
86	0x3d948209	0.07251365
87	0xbf8157ef	-1.010496
88	0xbf2aefa9	-0.6677194
89	0x3d91e3dd	0.071235396
90	0xbf2b1742	-0.66832364
91	0x3f1d0399	0.61333615
92	0x3ddf5d77	0.10906499
93	0x3d4b4866	0.04962959
94	0x3eba367c	0.36369693
95	0x3e4c7033	0.19964676
96	0x3ef3f7ff	0.47650144
97	0x3e1ad8a5	0.15121706
98	0xbf1a60a7	-0.6030373
99	0x3e5ff542	0.21870902
100	0xbf3d699b	-0.73989266
101	0x3f15e4a5	0.5855201
102	0xbecab483	-0.39590845
103	0x3ec540d0	0.3852601
104	0x3e8f0d66	0.2793991
105	0x3daf3603	0.08555224
106	0xbebe979e	-0.3722505
107	0xbf4bf1f1	-0.7966605
108	0xbf176527	-0.5913872
109	0xbed0b8ea	-0.40766078
110	0x3eb79389	0.35854748
111	0x3eb9434a	0.3618415
112	0x3e902a18	0.28157115
113	0xbf2e1004	-0.6799319
114	0xbe226b60	-0.15861273
115	0x3ede3a7a	0.4340399
116	0xbef8506c	-0.48498857
117	0xbf45ddea	-0.7729174
118	0x3ef4a96f	0.47785518
119	0x3edaa7c3	0.42706117
120	0xbef41ba5	-0.4767734
121	0xbf195094	-0.5988858
122	0xbeebd837	-0.46063396
123	0xbaa51b86	-0.0012596704
124	0x3eb84e62	0.359973
125	0xbebb962a	-0.36638004
126	0x3e2f5fe2	0.1712642
127	0x3f31c65d	0.69443303

_embedding.net_.net_.0.bias f4 [64]
0	0x3f4eb825	0.8074973
1	0x3e42dff5	0.19030745
2	0x3f421a65	0.75821525
3	0xbed702a8	-0.41994214
4	0x3f2375ae	0.6385144
5	0x3dfb14d6	0.122598335
6	0xbdf8cd66	-0.12148552
7	0x3ea590df	0.3233709
8	0xbdc706aa	-0.09718068
9	0xbf3ba593	-0.7329952
10	0xbf28a637	-0.65878624
11	0xbee6aa50	-0.45051813
12	0xbea8efd1	-0.32995465
13	0x3f09b3da	0.53790057
14	0xbedff7d1	-0.43743756
15	0x3c0f574c	0.008748841
16	0x3f57954f	0.842122
17	0xbe5fcf9d	-0.21856542
18	0x3eedf546	0.4647619
19	0xbf17c047	-0.59277767
20	0xbe10bd5d	-0.14134736
21	0xbe331b36	-0.17490849
22	0x3ea867e5	0.32891765
23	0x3e458b49	0.19291414
24	0x3ec0a625	0.37626758
25	0xbf4559dc	-0.7709024
26	0xbeb86c7d	-0.3602027
27	0xbd5ecc6a	-0.054394163
28	0x3f0129e8	0.5045457
29	0x3ee2901a	0.44250566
30	0xbe8ae2e2	-0.27126223
31	0x3f2b94b3	0.6702377
32	0xbeeaaf5a	-0.45836908
33	0x3f6c5fa0	0.9233341
34	0xbf232a51	-0.63736445
35	0x3f4674d2	0.77522004
36	0x3f46c242	0.77640164
37	0xbea95c5b	-0.33078274
38	0x3ed48cc6	0.41513652
39	0x3eb7e460	0.35916424
40	0xbe860e27	-0.26182672
41	0xbe0bd05f	-0.13653706
42	0xbb1eeb14	-0.0024249004
43	0x3f687034	0.9079621
44	0x3ebc0e5a	0.367297
45	0x3f617fc3	0.88085574
46	0xbdae4eaa	-0.08511098
47	0xbd642b9f	-0.055705663
48	0xbed75d6c	-0.42063463
49	0x3ea5bf79	0.32372645
50	0xbea7dcd7	-0.32785675
51	0x3e92226a	0.2854188
52	0xbe8a7b78	-0.27047324
53	0x3f75fb32	0.9608642
54	0x3f479230	0.7795744
55	0x3e8c8c0b	0.27450594
56	0xbf0e0cdc	-0.5548837
57	0xbc91841c	-0.01776319
58	0xbece2add	-0.40267077
59	0x3eb93eeb	0.36180815
60	0x3f61f278	0.882606
61	0xbdf3d986	-0.11906724
62	0xbe981938	-0.2970674
63	0xbf44d700	-0.76890564

_embedding.net_.net_.2.weight f4 [64, 64]
0	0xbc1f5438	-0.009724669
1	0x3d1a2d93	0.03764112
2	0x3d8f95d2	0.07010998
3	0xbcc4eefd	-0.02403974
4	0x3d31829c	0.04333745
5	0x3cf18554	0.029482521
6	0xbd3eefed	-0.04661553
7	0xbc7191c0	-0.014744222
8	0xbcad07c8	-0.021121874
9	0xbd426a26	-0.047464512
10	0xbe0cc958	-0.13748682
11	0xbd1075d0	-0.035268605
12	0xbc2c030b	-0.010498772
13	0x3defe9f4	0.11714545
14	0xbc7f5b2d	-0.015585703
15	0xbdbc0d0e	-0.091821775
16	0x3cea8522	0.028627936
17	0x39c853bf	0.00038209368
18	0x3cd11aeb	0.02552553
19	0xbdcf2006	-0.1011353
20	0x3b1f4abc	0.002430602
21	0xbd12b8f0	-0.0358209
22	0x3ccc8ac7	0.024968518
23	0x3cdad48d	0.02671268
24	0x3d58f484	0.052967563
25	0xbdf9f442	-0.122047916
26	0x3d4e5b63	0.050380122
27	0x3d716c09	0.05894092
28	0x3e035576	0.1282557
29	0xbc4021b6	-0.011726787
30	0xbb4b3931	-0.003100943
31	0x3e0924e0	0.13392973
32	0xbd9ab91b	-0.07554837
33	0x3dada97d	0.08479593
34	0xbdc659d7	-0.09685104
35	0x3dfb3fc3	0.12268021
36	0x3d91aa20	0.07112527
37	0xbda347db	-0.0797269
38	0xbc4dc1ff	-0.012558459
39	0x3b43e96e	0.0029893774
40	0xbd2e7766	-0.042594336
41	0xbc8682e6	-0.01641984
42	0x3bfb229b	0.0076640374
43	0x3dd2e2c0	0.102971554
44	0x3d9dab65	0.076987065
45	0xbc301fb1	-0.010749743
46	0x3b4bd18d	0.0031100244
47	0x3cf56383	0.029954677
48	0xbbe5c6f4	-0.0070122425
49	0xbce40e6f	-0.027838914
50	0xbcd8c980	-0.02646327
51	0x3dd29ade	0.10283445
52	0x3b115889	0.0022178015
53	0x3dbf28b5	0.09333936
54	0x3c53644e	0.0129023325
55	0x3d90a0e2	0.07061936
56	0x3c0bdc68	0.008536436
57	0x3ac6f55f	0.0015179327
58	0xbd89e813	-0.06733718
59	0x3d8d9290	0.0691272
60	0x3d0d51f9	0.034502003
61	0x3b8f8957	0.004380386
62	0xbc7ea879	-0.015543097
63	0xbd6a4c24	-0.05720152
64	0xbd141be7	-0.036159422
65	0x3dce080d	0.10060129
66	0xbd83b480	-0.06430912
67	0x3ddfa50c	0.10920152
68	0xbcf20f97	-0.02954845
69	0x3db14705	0.08656124
70	0xbd999040	-0.07498217
71	0x3de70800	0.11280823
72	0x3d9489ee	0.072528705
73	0xbd947567	-0.07248955
74	0x3daa1b6d	0.08306012
75	0x3e0992b9	0.13434877
76	0xbdb93734	-0.09043732
77	0x3d21a4d8	0.039463848
78	0x3dd063fe	0.10175322
79	0xbd84e5f2	-0.06489171
80	0xbdb9951a	-0.09061642
81	0x3d0e0279	0.034670327
82	0x3d6478f0	0.055779397
83	0x3ccf1954	0.025280632
84	0x3cc34879	0.023838269
85	0xbe402391	-0.18763568
86	0xbcadbefc	-0.021209233
87	0x3db58bbb	0.08864542
88	0x3df4d11a	0.119539455
89	0x3dbfad76	0.09359257
90	0x3da81920	0.08207917
91	0x3def3aca	0.11681135
92	0x3c42b803	0.011884692
93	0xbdb38c9c	-0.087670535
94	0xbce5c228	-0.028046682
95	0xbcf50837	-0.029911144
96	0xbc8b803c	-0.01702892
97	0xbdc28349	-0.09497697
98	0x3c132fff	0.008983611
99	0xbde5a543	-0.11213162
100	0xbd3faccb	-0.046795648
101	0xbda5ad56	-0.08089702
102	0x3d9bde1e	0.07610725
103	0xbc9c8e40	-0.019110799
104	0x3d75f821	0.060051087
105	0xbcf7f889	-0.030269878
106	0x3da953da	0.082679465
107	0xbe69a9e0	-0.22818708
108	0xbde92a8a	-0.11385067
109	0xbcded4ee	-0.027201142
110	0x3bdfbd41	0.0068279807
111	0x3d8b563d	0.06803558
112	0x3d91438b	0.07092961
113	0x3ba12c37	0.004918601
114	0xbcc549c4	-0.024083026
115	0xbdad35aa	-0.08457501
116	0x3c77cbb1	0.015124247
117	0xbe3f497b	-0.18680374
118	0xbd6aa674	-0.05728765
119	0x3ddd5aa2	0.108083025
120	0x3da9d38f	0.08292305
121	0xbc0167fc	-0.007898327
122	0xbc762c8f	-0.015025272
123	0x3d98ebc5	0.074668445
124	0xbd87dc5a	-0.066338256
125	0xbe1a3461	-0.15059043
126	0x3da3b313	0.0799314
127	0x3da4078c	0.08009252
128	0xbd4cdbc7	-0.050014284
129	0xbcd77740	-0.02630198
130	0xbdddfe19	-0.10839481
131	0x3dbdeccb	0.0927368
132	0xbd599ba7	-0.053126957
133	0xbc9748a9	-0.018467264
134	0xbd00f53a	-0.031483866
135	0xbd1f3d0f	-0.03887659
136	0x3cc558bb	0.024090162
137	0x3d20db69	0.039271746
138	0x3df45b11	0.11931432
139	0x3d570213	0.052492213
140	0x3bf1c582	0.007378281
141	0xbda69e03	-0.08135607
142	0x3dbf4d0c	0.093408674
143	0x3cf08843	0.02936185
144	0xbd556142	-0.052094705
145	0x3d1823a0	0.03714335
146	0xbca42a6c	-0.02003976
147	0x3d8acb75	0.067770876
148	0x3bc132b1	0.0058959355
149	0xbc5e8355	-0.013581117
150	0xb9adeb47	-0.00033172427
151	0xbcbd22db	-0.02308791
152	0xbd0fdf5f	-0.035125133
153	0x3dced84b	0.10099848
154	0xbcf8a8f2	-0.030353997
155	0xbabbb732	-0.0014321564
156	0xbd776d51	-0.060406987
157	0xbc99532c	-0.018716417
158	0x3d1322e6	0.035921954
159	0xbd773f34	-0.06036301
160	0xbbb32f7e	-0.005468308
161	0xbd94919b	-0.072543345
162	0x3d560d16	0.052258573
163	0xbdd2a8f5	-0.10286132
164	0xbd0f389c	-0.034966096
165	0x3d07d2bc	0.033159956
166	0x3c10767c	0.008817311
167	0xbc758758	-0.014985882
168	0x3d847131	0.06466902
169	0x3b9c1e75	0.004764373
170	0xbc0accee	-0.008471711
171	0xbe3b91ae	-0.18317291
172	0xbd871be1	-0.06597114
173	0xbe1a017f	-0.15039633
174	0x395f06ca	0.00021269466
175	0xbc3f332a	-0.011669913
176	0x3cc53ed2	0.024077807
177	0x3b66e90a	0.0035234117
178	0x3bb9f7cc	0.0056752916
179	0xbcb1cd7b	-0.021704426
180	0x3c2f9bf9	0.010718339
181	0xbe28221a	-0.16419259
182	0xbd6c5d90	-0.057706416
183	0xbd188bb6	-0.037242614
184	0x3d6ded1d	0.058087457
185	0x3ba060ec	0.0048943665
186	0x3de07d96	0.109614536
187	0xbcc6d6d7	-0.024272365
188	0xbdd4fb9d	-0.10399554
189	0xbcf53b54	-0.029935516
190	0x3d05dec1	0.032683138
191	0x3db505f0	0.08839023
192	0xbdf67e30	-0.12035787
193	0xbc1f49c6	-0.009722179
194	0xbd78f50c	-0.06078057
195	0x3d2d7f1d	0.042357553
196	0xbcb16c5c	-0.021658115
197	0x3cd55c76	0.026045065
198	0xbd69fe7b	-0.057127457
199	0xbd0aa54f	-0.033849057
200	0x3d1c095c	0.038094863
201	0x3a23635e	0.00062327634
202	0xbc614fc5	-0.013751929
203	0x3d44e9e5	0.04807462
204	0xbd225421	-0.039631013
205	0x39c11811	0.0003682976
206	0x3aee6d0c	0.0018190457
207	0x3cd9c018	0.026580855
208	0xbd667cba	-0.056271292
209	0xbbfdd131	-0.007745885
210	0x3b48ceb2	0.0030640778
211	0x3cc67b55	0.024228731
212	0xbbf00932	-0.007325315
213	0xbd50b2a6	-0.050951622
214	0xbd91e6ec	-0.07124123
215	0x3c961209	0.018319147
216	0xbc1e8601	-0.009675504
217	0x3dd887f8	0.10572809
218	0x3d2378cd	0.039910126
219	0x3b039168	0.0020075683
220	0xbcd8fa4e	-0.026486542
221	0xbd665215	-0.056230623
222	0xbce20cee	-0.027594056
223	0xbd7d5e0d	-0.061857272
224	0xbb1fe895	-0.0024400104
225	0xbd08c26a	-0.033388533
226	0x3d6cc771	0.05780739
227	0xbd9758a9	-0.073899575
228	0xbd567d96	-0.05236586
229	0x3c91be3c	0.017790906
230	0x3d0b6a30	0.034036815
231	0xbbe42800	-0.006962776
232	0x3ad61fea	0.0016336415
233	0x3b61b57d	0.003444045
234	0x3cb32239	0.021866905
235	0xbdde812d	-0.10864482
236	0xbde42d4e	-0.11141454
237	0x3ce923df	0.028459487
238	0x3a1dd4c7	0.0006020781
239	0x3c132406	0.008980757
240	0x3da09b27	0.07842093
241	0xbd1ad1d8	-0.03779778
242	0xbd30e8b5	-0.043190677
243	0x3d278b2a	0.0409042
244	0x3b82db3e	0.003993421
245	0xbd6601e9	-0.056154165
246	0xbcfdd256	-0.030984085
247	0x3cc8976c	0.024486266
248	0x3c627dc3	0.013823929
249	0xbd6c75a1	-0.057729367
250	0xbc062f52	-0.008189993
251	0x3c4c26e0	0.01246044
252	0xbda8df8e	-0.08245765
253	0xbd8e62e9	-0.06952459
254	0xbd3ed564	-0.046590224
255	0x3d5d0982	0.053964145

_embedding.net_.net_.2.bias f4 [64]
0	0x3e020932	0.1269882
1	0x3e25a66d	0.16176768
2	0xbd7e78e6	-0.062127016
3	0xba8aca2a	-0.0010588814
4	0xbde58c7d	-0.11208437
5	0x3e411481	0.18855478
6	0xbdcbf6c8	-0.09959179
7	0xbe712928	-0.23550856
8	0xbda051d3	-0.07828107
9	0xbde9133c	-0.11380622
10	0x3e135984	0.14389616
11	0xbce3cb4a	-0.027806897
12	0x3ea09342	0.3136235
13	0x3deea9b5	0.11653463
14	0x3e4b9fc5	0.19885166
15	0xbdf9eb6a	-0.12203105
16	0xbe4e4f86	-0.20147523
17	0x3e4c06fe	0.19924542
18	0x3d59b26c	0.053148672
19	0xbe7b9a52	-0.24570587
20	0xbdef70fb	-0.11691471
21	0x3bdae121	0.0066796695
22	0xbe01aaef	-0.12662862
23	0x3de013f2	0.10941304
24	0xbdb6b8e0	-0.08921981
25	0xbe86e3a2	-0.26345545
26	0x3e5a6bb3	0.21330146
27	0xbdd30fa5	-0.10305718
28	0x3e208cc4	0.15678698
29	0xbe1ff21b	-0.156197
30	0x3e570a92	0.21000126
31	0x3db12c2b	0.086510025
32	0xbd7325e7	-0.05936232
33	0xbe82244b	-0.25418314
34	0xbe097072	-0.134218
35	0xbdfefc7d	-0.12450502
36	0x3e167a9b	0.14695208
37	0xbdac5324	-0.08414295
38	0xbe41a004	-0.18908697
39	0xbdd65ee7	-0.1046732
40	0xbe104b9f	-0.14091347
41	0x3de58b52	0.11208214
42	0x3d788452	0.060673065
43	0xbe181c0c	-0.14854449
44	0x3e57a5d5	0.21059354
45	0x3e25430e	0.1613886
46	0x3e4be928	0.19913161
47	0xbe392402	-0.18080142
48	0x3d610b99	0.0549427
49	0x3e1367c2	0.14395049
50	0xbe882ec3	-0.26598176
51	0xbe14f3eb	-0.14546172
52	0x3dd2492b	0.10267862
53	0x3daa761e	0.0832331
54	0xbe141d36	-0.14464268
55	0x3e26398f	0.16232894
56	0x3e04e6e9	0.1297871
57	0x3cc4ea8e	0.024037626
58	0xbdf25ac3	-0.11833718
59	0x3e224442	0.15846351
60	0x3d696da8	0.056989342
61	0xbd3d385b	-0.046196323
62	0x3e158b89	0.1460401
63	0xbe401ad6	-0.18760237

_embedding.net_.net_.4.weight f4 [1, 64]
0	0xbc6c8c97	-0.014437816
1	0x3d4e4484	0.05035831
2	0x3caa6b60	0.020803154
3	0x3c0e7919	0.008695864
4	0x3e56b8b8	0.20968902
5	0xbe0d6711	-0.13808848
6	0x3e27e055	0.1639417
7	0x3e1afdbf	0.15135859
8	0xbc048b4f	-0.008089854
9	0xbe5bf99d	-0.21481939
10	0xbdda87e7	-0.106704526
11	0xb931cfb9	-0.00016957418
12	0x3d9fa664	0.07795408
13	0xbe12a664	-0.14321285
14	0xbeb89f43	-0.36059007
15	0x3c913857	0.01772706
16	0x3e1546b7	0.14577757
17	0xbe73d452	-0.23811463
18	0xbe09336a	-0.13398519
19	0xbd577796	-0.05260428
20	0x3e377cf9	0.17918767
21	0x3e1b8718	0.15188253
22	0x3e26b3b2	0.16279486
23	0xbecc8d56	-0.3995158
24	0x3e20f522	0.15718511
25	0x3e5474f9	0.20747747
26	0xbe4508b1	-0.19241597
27	0xbead8d9c	-0.33897102
28	0xbeb7253e	-0.357706
29	0x3e1400a4	0.1445337
30	0x3e0f6005	0.14001472
31	0xbe082480	-0.13295174
32	0x3dcf2830	0.10115087
33	0x3e700c1e	0.23442122
34	0x3e54cc13	0.20780973
35	0x3e67aec0	0.22625256
36	0xbd644c7a	-0.055736996
37	0x3e5189f3	0.2046278
38	0x3ce9c409	0.02853586
39	0x3e4ebb41	0.20188619
40	0xbd5d7de2	-0.05407513
41	0xbe65168f	-0.22371887
42	0x3dd18bfc	0.10231778
43	0x3dcf1173	0.1011075
44	0xbde7dd28	-0.11321479
45	0x3e4398cf	0.1910126
46	0xbe0c1108	-0.13678372
47	0xbcb46e5c	-0.02202528
48	0xbdb6d605	-0.0892754
49	0x3e7ad5c3	0.24495606
50	0x3f090ad3	0.5353214
51	0x3d55471c	0.05206977
52	0xbe6d0859	-0.23147716
53	0xbc00c071	-0.007858382
54	0xbebafc55	-0.3652064
55	0xbe383cd8	-0.1799196
56	0xbe546db1	-0.20744969
57	0xbe4cbb4b	-0.19993322
58	0x3e51c964	0.2048698
59	0xbe34b763	-0.17648081
60	0x3c131c06	0.008978849
61	0x3bdd2280	0.0067484975
62	0xbe5ebb7d	-0.21751209
63	0xbdb164de	-0.08661817

_stiffness.eigval_ f4 [2]
0	0xbf251b94	-0.64495206
1	0x3f991ad5	1.1961313

_stiffness.eigvec_ f4 [2]
0	0x3eaaa007	0.33325216
1	0xbeb80df5	-0.35948148
