models/synthetic_second_best.pt (torch, 21948 bytes, 9 tensors)

embedding.net_.net_.0.weight f4 [64, 2]
00000000: 8be9 613e f030 5d3f c116 163f 91cc 81be
00000010: 527f c73e a3d0 07be f287 9d3e 3486 803f
00000020: 6c9f 2ebf 1df8 223f d19f c93e f028 213f
00000030: 2cb1 d93e 877c 94be ee5c debe bcb8 86be
00000040: 4ce6 d33e f750 eebe 64c3 f3be 8b12 8abd
00000050: e2e8 5c3e f95b 363f 2334 cb3e 39af 4f3f
00000060: 5e8e 25bf 39a2 d9be e35d bebe 4902 073d
00000070: 45ac d8be ac61 febe e2f6 eabc b16e d3be
00000080: 2e00 4abd b71c 61be 8295 0e3d 5548 3bbf
00000090: c9e7 323f 1520 c7be f99f f5bd ddc2 653e
000000a0: 2be4 c6bd 8fc2 5abe a5a6 b6bd 79d3 5bbc
000000b0: 54b3 6c3d 7906 33bf 7ac3 c53e 6e85 ea3d
000000c0: 1217 e33e 00bd 883e 90a1 02bf e591 0c3e
000000d0: 7726 0bbe 2195 7e3e c23e 87be 54dd f0be
000000e0: 14b2 6dbe df97 c43e 8d18 833e 8d5e 993f
000000f0: 40e1 dbbe 1c42 16bf f40e 4ebf bae2 313f
00000100: 88e7 0e3f 591c bbbe e5d9 88be dfc7 aa3e
00000110: 3074 2d3f de40 03bf 50ad 9abd 985f 0ebf
00000120: 12f5 10bf 2873 c63e 992c 89be 47d9 febc
00000130: fca9 24bf d65a 2abc 2ffb b43e 974a 7ebe
00000140: cde6 2c3e 3c74 c73e 5d66 94be fa8d e2be
00000150: f569 3dbf 4b04 a63e a870 eb3c 15e1 15bf
00000160: 7b4e 853e 4e74 053d 3b18 07bf efac 453e
00000170: 713b 9fbf 3551 23bf d590 693e 9454 ccbc
00000180: 2e41 d43e 7ebf d3be e503 00bf 3b69 c03e
00000190: 822a 253e 2bcd a7be c404 20bf 33ce f83e
000001a0: b3fa 0bbd 4ca7 20bf ef71 2ebf ed4f edbe
000001b0: 09c0 053f 545f 5fbe 3882 63bf faa0 24bf
000001c0: 40e4 4bbe 15f2 1cbe 1386 123f 84e2 e13d
000001d0: f59c dcbe d188 033f 6c36 92be 3310 9e3e
000001e0: 3c00 903e 5439 923f 88d3 bfbe 03af 053f
000001f0: ce6d 823e 3874 09bf dfba 033f 12ec d23e
0.22061746 0.864028 0.5862847 -0.25351384 0.38964325 -0.13263182 0.3076778 1.0040956
-0.6821201 0.6365984 0.39379743 0.6295309 0.42517984 -0.29001257 -0.43430275 -0.26312816
0.4138664 -0.46546146 -0.4761001 -0.06741818 0.21573213 0.7123409 0.39688215 0.81126744
-0.6467036 -0.4250658 -0.37181005 0.032961164 -0.4231893 -0.49683893 -0.028682176 -0.41295388
-0.049316578 -0.2198361 0.03481055 -0.73157245 0.69884926 -0.38891664 -0.11993403 0.22437616
-0.09711488 -0.2136328 -0.08918504 -0.013417118 0.057788208 -0.6993175 0.386257 0.11451231
0.4435354 0.26706696 -0.51027775 0.1372753 -0.13588892 0.24861576 -0.26415068 -0.4704386
-0.23212463 0.38397118 0.25604668 1.198198 -0.4294529 -0.58694625 -0.80491567 0.6948658
0.5582204 -0.36545065 -0.2672874 0.33355615 0.67755413 -0.51270854 -0.07552588 -0.55614614
-0.5662395 0.38759732 -0.26791838 -0.031109465 -0.64321876 -0.010397634 0.35347888 -0.24833141
0.16884919 0.38955867 -0.28984347 -0.44248945 -0.739898 0.3242515 0.028740242 -0.5854657
0.26036438 0.03258162 -0.5277135 0.1930425 -1.2440015 -0.6379579 0.22809155 -0.024942674
0.41455978 -0.41357034 -0.5000594 0.37580284 0.16129497 -0.32773718 -0.6250727 0.48594818
-0.034174632 -0.62755275 -0.681426 -0.4635004 0.5224615 -0.21813709 -0.88870573 -0.6430813
-0.19911289 -0.15326722 0.5723583 0.110295326 -0.430885 0.5138064 -0.28557146 0.30871734
0.2812518 1.1423745 -0.37466073 0.5222017 0.254744 -0.5369296 0.5145702 0.41195732

embedding.net_.net_.0.bias f4 [64]
00000000: a598 903f 0223 24bf 00e1 0ebf c9ba 19bf
00000010: 83a4 a8be 9aa6 373f 3c6f 0cbf 26dc 1f3e
00000020: c0c1 953e 6484 533e 8325 49bf e713 2cbf
00000030: 17c3 afbe 3094 2abe 0f37 4d3f 3b1a 623f
00000040: 6b1c 45bf 4d4e c33e 2a04 30bf 892a 8f3e
00000050: 5f4e b33e 0b23 083f f40a 4a3f d2bf 883d
00000060: 5958 4abf 94dd 833c a52b 223e 0158 91be
00000070: f74d 9cbe ee7a 05bf 9fd7 02bf 83f8 a5be
00000080: 254e cabe d18f 643f 3b2f c5bd 3026 5b3f
00000090: a668 823e 6598 07bf 55e0 14bf 49db 59be
000000a0: 9e3d 9a3b 7e8a df3d e952 233f 698f 1fbf
000000b0: 3b98 cd3e c278 c0bd 38f7 e8be 64ad 2fbf
000000c0: 3aa3 49be 7ac4 693d fc93 3c3e 2465 4dbe
000000d0: 115a 073f ac6f 78be fadc ae3d 45fc 16bf
000000e0: 0814 ef3e 8b50 49bf 835a 32be 5429 313e
000000f0: 7647 b8be 023c 8fbe be7b bc3e 02db eebe
1.1296583 -0.6411592 -0.5581207 -0.60050637 -0.32938012 0.7173859 -0.5485723 0.15611324
0.29249382 0.20655972 -0.78572863 -0.6721787 -0.3432853 -0.16658092 0.8016214 0.88321275
-0.7699649 0.38145676 -0.68756354 0.2796214 0.3502073 0.5317847 0.78922963 0.06677212
-0.7904106 0.016096868 0.15836962 -0.28387454 -0.30528232 -0.521407 -0.5111026 -0.32416162
-0.39512745 0.89281946 -0.09628149 0.85605145 0.25470465 -0.5296691 -0.58154804 -0.21275057
0.0047070524 0.10915087 0.63798386 -0.623282 0.40155205 -0.09398033 -0.45501113 -0.6862395
-0.19691172 0.05707214 0.18415827 -0.20058113 0.52871805 -0.2426135 0.08538242 -0.5897868
0.4669497 -0.78638524 -0.1741734 0.17300922 -0.3599202 -0.2797547 0.36813158 -0.46651465

embedding.net_.net_.2.weight f4 [64, 64]
00000000: 5a08 32be e555 013e 51aa 203e 855d 773d
00000010: d7f9 0dbe 1da3 ecbd 11a4 69bc 63d7 0ebe
00000020: 00e5 d9bc 6f5a 53be e8ed b23d 4109 b03c
00000030: 7c54 433e 6921 81bd 4de4 a3bd 256b c7bd
00000040: 7366 523a 7cce a1ba f469 3a3e bee3 b3ba
00000050: fc25 1bbe e844 6fbd 90a9 18bc 769c 333e
00000060: 8a78 de3d f936 c6bd c218 0ebe c3db 293e
00000070: 8c85 dbbd 0871 033e 3635 8c3b adba 3cbe
00000080: 7b66 ad3d b0a6 59be 8c8a bb3d cb48 68be
00000090: 0adf bcbc 47d9 6b3e 5282 6c3d 27f8 113e
000000a0: dd34 b3bc cc50 ecbd 05f9 0abe e00f 613e
000000b0: 6d59 52be eb25 1cbe c0a8 933e 974a d73d
000000c0: 07b4 ef3c 9f6b 2cbe 8ab4 91bd 98ed aabd
000000d0: 3950 b7bc 8c29 bb3d dbec a8bc 6984 c93d
000000e0: fbea 2abe 878b 383e ea4d cfbd 1421 e8bd
000000f0: a48c 6f3e d34a 3e3c 4aea 383c af7a 283e
00000100: df3d 203e b037 dc3c 2095 55be fa7c 80be
00000110: a1d5 de3d c8cb 423e 61f3 3abd 146d 933d
00000120: 1607 29be bb70 f43c e2c6 15be 6cf0 5ebd
00000130: 367f 66bd d2c6 e33d b797 473d 4614 743e
00000140: cd9c 01be 8fe3 4abe debc 28bd d0c8 af3d
00000150: 343b 2d3d 4ef9 9c3d 636e 003e ae73 13bd
00000160: bf87 08be 3c49 2a3e a9eb 8c3d c77e 11be
00000170: 13f7 ca3d 0228 1abe 875b 68be 2d33 c03d
00000180: 65e9 f1bc 9daf 5d3e 5f16 03be ba61 1f3e
00000190: 0539 013e 6cfb 60be c7d6 6fbd 42de ed3c
000001a0: ce6a 3a3e 9953 29bc d9f8 6a3c 9743 6abd
000001b0: c077 cc3b 537f ee3d 3a85 94be 45ba debd
000001c0: 3f79 73bd 7fb0 9e3d b64f d6bd c697 153e
000001d0: fe47 343e ddd0 dfbd 1155 0abd e412 31be
000001e0: b96f 353e 20de 5abe 9feb 1e3e 0692 1c3e
000001f0: 751b 5fbe 68d6 073e 95c5 babc 2a7c 02be
00000200: 9a47 20be b79a f33d d652 fa3d 48f1 5c3e
00000210: 6bd7 d13d 1eaf b4bd 1d41 4f3e e9db 06be
00000220: 9916 8a3d b996 5fbd be6c cc3a 6400 4d3d
00000230: 2941 6e3d 0e37 ac3d b6e1 32be 11b7 dbbd
00000240: f34c 3a3d 4305 673e c3a3 4e3e ee12 023c
00000250: e919 a73c c2e4 b1bd 7884 e0bd 8f02 15be
00000260: dae8 8a3d 36b8 36be 40c5 2abd 7ba8 cd3d
00000270: 4077 cc3d 3a58 7f3e ec3d 3f3e 64f4 fbbb
00000280: b8ee 2d3e e8fc 3bbe f2f1 38bc 52d3 e2bd
00000290: 3b2a afbd 63e0 953d de62 b83c 923e ba3d
000002a0: 3054 33be cc48 bb3d 9b35 03be 0349 323e
000002b0: a784 a6bc 95cb c0bd ac79 0d3d 00e4 373c
000002c0: 21f3 efbc c40d f1bd f8f2 323d 7abb fabd
000002d0: 8c36 1abe 4691 ce3d e3bd da3d 0add 683d
000002e0: 53dc 56be 99c1 493e 0e2a debc 74b4 873c
000002f0: 1841 d73c 731d f93b ce4e e0bd aad5 b23d
00000300: 58ee 83be a7a7 0abc 581d 1a3e ba92 463e
00000310: 0961 63bb 5d50 d7bd 3594 453e 5907 43be
00000320: b6de 0c3d 7aa1 0a3c 43c6 d53d 5896 503e
00000330: 81d8 b7bd 0077 3fbe 1c47 183b 104e d6bd
00000340: 998f f33d 1848 893c 84a4 7a3d 39e9 01be
00000350: 1b19 813c eb95 80bd c0b9 ebbd 466e 8b3d
00000360: 2fda 213d f4af 97bc 9fe4 b13c e3cf 91bb
00000370: 83a9 1bbe e476 9dbc 0ada e53c 626f 84bd
00000380: a772 833d 62ae 08be d27e 0d3e bbb5 88be
00000390: cc84 b6bd 102d 27be 3539 e2bd ee51 063d
000003a0: 76a9 e43d 9aed 11be b9d3 54bd 7d6e 413e
000003b0: 9823 f33d ca52 fc3c 3024 b2bc f609 893d
000003c0: f156 6d3c 3872 5abd 4720 e9bc f42e 9ebc
000003d0: d933 dcbd ba82 13be 41ac 493e 6917 babd
000003e0: 8b53 e2bd 54cd 0b3e e1b2 20be 6fc6 2ebd
000003f0: 1edc 813d a848 1f3b ddb9 86bc 223c c13d
-0.17385998 0.12630422 0.1568997 0.06039192 -0.13864838 -0.11554549 -0.014260308 -0.13949351
-0.026598454 -0.20639966 0.08736783 0.021488788 0.19075197 -0.063052006 -0.08002529 -0.09737233
0.00080261304 -0.0012344862 0.1820448 -0.0013724489 -0.15151209 -0.058415323 -0.009317771 0.17540154
0.10862835 -0.09678454 -0.13876632 0.16587739 -0.107188314 0.12836087 0.004278804 -0.18430586
0.08466812 -0.21254992 0.09157285 -0.22684018 -0.023055572 0.23032103 0.05774147 0.14254819
-0.021875793 -0.11538848 -0.13571556 0.21978712 -0.20541926 -0.1524884 0.28839684 0.10512274
0.029260648 -0.16837929 -0.07114513 -0.08346099 -0.02237712 0.09138784 -0.020620754 0.09839708
-0.166912 0.18021975 -0.10122283 -0.11334434 0.23393494 0.011614519 0.011286328 0.1645305
0.15648602 0.026882023 -0.20857668 -0.2509535 0.1088059 0.19023049 -0.04564226 0.071985394
-0.1650661 0.02983891 -0.14626649 -0.054428503 -0.05627366 0.11121906 0.04872867 0.23835859
-0.12657471 -0.19813369 -0.041195743 0.08583224 0.04229279 0.076647386 0.12542109 -0.035998993
-0.13333033 0.16629499 0.06880886 -0.14208518 0.09910407 -0.15054324 -0.22691165 0.09384761
-0.029530236 0.21649022 -0.12801503 0.15564623 0.12619407 -0.2197091 -0.058554437 0.029036645
0.18204805 -0.010334873 0.0143415565 -0.057193365 0.0062398612 0.11645379 -0.29007894 -0.10875372
-0.0594418 0.07748508 -0.104644224 0.14608678 0.17605588 -0.109285094 -0.033772532 -0.17292362
0.177184 -0.21373796 0.1551957 0.15290079 -0.21787818 0.13265383 -0.022799293 -0.12742677
-0.15652314 0.11894744 0.12222831 0.21576416 0.10246166 -0.088224635 0.20239682 -0.13169827
0.067425914 -0.0545871 0.0015596373 0.0500492 0.05816761 0.08408938 -0.17468914 -0.107282765
0.04548354 0.22560601 0.20179658 0.0079390835 0.020398097 -0.0868621 -0.109627664 -0.14551757
0.06782694 -0.17843708 -0.04169202 0.10041901 0.09983683 0.24936 0.18675965 -0.0076890457
0.16985595 -0.18358195 -0.011288153 -0.110754624 -0.08552977 0.07318189 0.022508081 0.090939656
-0.17512584 0.09144744 -0.12813418 0.17410664 -0.020326925 -0.0941383 0.034539863 0.011223793
-0.029290738 -0.11770204 0.043688744 -0.122427896 -0.1505987 0.100863025 0.10680749 0.056851424
-0.20982485 0.19702758 -0.027119663 0.016565539 0.026276156 0.0076023876 -0.10952531 0.087321594
-0.2576778 -0.008462823 0.15050256 0.19391909 -0.0034695289 -0.10513375 0.19294818 -0.19045772
0.03439208 0.008461351 0.10438206 0.20369852 -0.08976842 -0.18697739 0.0023235744 -0.10464108
0.118926235 0.01675801 0.06119205 -0.12686624 0.015759042 -0.062785946 -0.115100384 0.06808142
0.039514717 -0.018516518 0.02171546 -0.004449831 -0.15201382 -0.01922173 0.02805807 -0.06466557
0.064183526 -0.13347772 0.1381791 -0.2670115 -0.08912048 -0.16325784 -0.110460676 0.032792978
0.111651346 -0.14250794 -0.051959727 0.18889804 0.11872023 0.030801196 -0.021745771 0.06691353
0.0144860605 -0.053331584 -0.028457774 -0.019309498 -0.10752077 -0.14405337 0.19694616 -0.090864964
-0.11051091 0.13652545 -0.15693237 -0.04266971 0.06340812 0.002430478 -0.016446048 0.094352975

embedding.net_.net_.2.bias f4 [64]
00000000: c909 3bbd 44df 703e f1ff 1dbe 748c 86be
00000010: 1c5c eabe 90fc 6a3e 258d 2cbe ad71 023e
00000020: 1a7c 893e 974c 5e3d 9d0b 25bd 9e73 463e
00000030: fe3a 02be 7147 c0bd 0471 873a aaf8 043e
00000040: df2e 23bd 77f0 bf3e b8fa 2e3e 6e36 783e
00000050: 6ee8 493e a3c7 233e c958 ff3d 56e3 72bf
00000060: f2ab fdbc f08a 6b3d 6ccc 333e 9749 d8bc
00000070: 5bfd 243f 635b 1fbe 6004 7a3d b3e7 573e
00000080: 65b7 a43e f7f8 4b3e a975 f7bc 6efe 553e
00000090: 0586 bd3e b04e 073e 21b2 853e 9d91 783e
000000a0: 5d34 9cbe a1c0 b03e cbe0 3e3d 5c17 32be
000000b0: f8a3 b3bd 5ed3 0c3e 0726 a0bd 6d15 933e
000000c0: 03cd 213e 0baf eabc 7e39 ba3e 5514 a33d
000000d0: 4ad8 c93d 9161 0c3e 854e 23be c05e 213d
000000e0: 9929 1cbe 5eed f2bd 4da6 8c3e b8e8 193d
000000f0: 464b 80be a501 933b 6069 c3bd e4d9 cc3e
-0.04566363 0.23522669 -0.15429665 -0.26279032 -0.457734 0.22947907 -0.16850717 0.12738676
0.26852494 0.05427226 -0.04029428 0.19380042 -0.12717816 -0.09388626 0.0010333364 0.12985483
-0.03983962 0.37488148 0.17087829 0.24239513 0.19717571 0.15994124 0.12468106 -0.9487814
-0.030965779 0.057505548 0.1755845 -0.026402278 0.6444909 -0.15562205 0.06103933 0.2108448
0.3217117 0.19919191 -0.030207472 0.20897838 0.3701631 0.1321361 0.26112464 0.24274297
-0.305087 0.34521964 0.046601098 -0.17391723 -0.08771509 0.13752505 -0.07819753 0.28727284
0.15800862 -0.02864792 0.36371988 0.079628624 0.09855707 0.13709094 -0.15947922 0.039397
-0.15250243 -0.118616804 0.27470627 0.037575454 -0.2505743 0.00448628 -0.09541583 0.40009987

embedding.net_.net_.4.weight f4 [1, 64]
00000000: def3 4bbe 9f2f fc3d 8773 51be 9d63 5c3d
00000010: 7829 e7bd a277 8fbe 4c40 01be 1d82 91bd
00000020: d9ec b73d 7e94 1fbe e969 4bbe ae1c 0d3e
00000030: f78c 07be 25d4 0ebe 486b 663c f065 6c3e
00000040: c1ae 1dbe b1c8 bf3d c6ba 343e f3f7 563e
00000050: 6388 0c3c 76a3 213e eed7 293e 5f16 e33e
00000060: e239 d3bd 6416 e5bd 459d 3bbd 6af6 d4bd
00000070: a1d0 6abd db63 59be 37a4 783c 248f 423e
00000080: 824d f33d 0248 253e 92b1 efbd c726 f03d
00000090: af7b 4abe 3372 353e 731a 233e 798e 0f3e
000000a0: 3eac 2a3d f8fb bb3d 7efe a53b 7ebf 29bd
000000b0: 52bf 01be 8eef 6cbd ddda 3abe 20de bdbd
000000c0: 699a 0a3e 06d8 56be 7b42 c53d 34d4 193e
000000d0: 97e5 433e 54c6 403e 5958 bbbe c5c6 113e
000000e0: d484 763e 7d6f 723e 03f3 1e3e b98a 1e3e
000000f0: b6c1 05be c265 59be e06d 34be 993c af3d
-0.19917247 0.123137705 -0.20454226 0.053805936 -0.112872064 -0.2802096 -0.12622184 -0.07104895
0.08980722 -0.15583989 -0.1986462 0.13780472 -0.13237368 -0.13948114 0.014063664 0.23085761
-0.15398695 0.09364451 0.17649373 0.20993023 0.008577439 0.15785012 0.16586277 0.44353005
-0.10313775 -0.11185911 -0.04580428 -0.10398562 -0.05732787 -0.21229498 0.015175871 0.18999916
0.11880018 0.1614075 -0.11703791 0.11726146 -0.19773744 0.17719345 0.15928058 0.14019193
0.04166817 0.091789186 0.005065738 -0.041442387 -0.12670639 -0.057845645 -0.18247552 -0.092708826
0.13535465 -0.20980844 0.09631821 0.15022355 0.1913055 0.18825656 -0.3659084 0.14235981
0.24074107 0.23675342 0.15522389 0.15482606 -0.13062176 -0.21230224 -0.17620039 0.0855648

stiffness.eigval_ f4 [2]
00000000: 7253 933f 272c 743e
1.150984 0.23844968

stiffness.eigvec_ f4 [2]
00000000: 0117 533f 4264 483f
0.82456976 0.7827798

dissipation.eigval_ f4 [2]
00000000: 51bc 213f 266e be3e
0.63177973 0.37193412

dissipation.eigvec_ f4 [2]
00000000: 4ba1 733f dc53 2f3f
0.9516799 0.68487334
