models/synthetic_second.pt (torch, 4327 bytes, 5 tensors)

embedding.net_.net_.0.weight f4 [64, 2]
0	0xbf92553b	-1.143226
1	0xbf06ae09	-0.52609307
2	0x3f6cd69e	0.9251498
3	0xbe5566ec	-0.20840043
4	0xbe97f4a1	-0.29678825
5	0xc01e96c4	-2.477952
6	0x40054317	2.0822198
7	0x4003338d	2.0500214
8	0xbf6cedb0	-0.9255018
9	0xbf6850bc	-0.9074819
10	0x3fb7afde	1.4350545
11	0xbe01f1ff	-0.1268997
12	0xbf963678	-1.1735373
13	0x3f909923	1.1296734
14	0x3f28c227	0.6592125
15	0xbf66ecdf	-0.90205187
16	0x3e08662a	0.13320222
17	0x3e9f7174	0.31141245
18	0x3e69275f	0.22768925
19	0xbe9f4de0	-0.311141
20	0x3f3bfce4	0.73432755
21	0x3d3313f6	0.043720208
22	0x3f1dac62	0.6159116
23	0x3f541f1b	0.82859963
24	0xc04cabb4	-3.19798
25	0x407b80e8	3.9297428
26	0x3f3c9bba	0.7367512
27	0x3e930d13	0.28720912
28	0xbfc534a7	-1.5406693
29	0xbe921cc2	-0.28537565
30	0xbf80fd95	-1.0077387
31	0xbd6fed1c	-0.058575734
32	0xbf809610	-1.0045795
33	0xbf857209	-1.0425426
34	0xbf8aa36c	-1.0831122
35	0xbfb0de38	-1.3817816
36	0xbed663b7	-0.4187295
37	0x3e270d1a	0.16313592
38	0xbf6aff91	-0.91796213
39	0xbdeb9e5d	-0.11504815
40	0x3f184a5b	0.5948846
41	0x3fc0b02e	1.5053766
42	0xbf9860c9	-1.1904536
43	0x3f9b5173	1.2134231
44	0x3f95c5fe	1.1701047
45	0xbee332e2	-0.44374758
46	0x3e9513e2	0.29116732
47	0x3eb9a15d	0.36255923
48	0x3f16033d	0.5859869
49	0x3ea0a5dc	0.3137654
50	0xbf6f26b2	-0.9341842
51	0xbeb0094f	-0.34382102
52	0x3fc19184	1.5122533
53	0x3f5d4424	0.864321
54	0x3f912a14	1.1340966
55	0xbd6cd1e2	-0.057817347
56	0xbf3c72d4	-0.73612714
57	0xbc1166f9	-0.008874648
58	0xbf9088a5	-1.1291701
59	0x3d144c7e	0.03620576
60	0xbec57190	-0.38563204
61	0xbf4f7ecc	-0.8105285
62	0xbf4defa0	-0.80443764
63	0xbe49ac7a	-0.19694701
64	0x3ffc04fa	1.9689019
65	0xbf619c0f	-0.8812875
66	0x3fc4ade3	1.5365566
67	0xc0d1ec05	-6.560061
68	0x3f1c70b3	0.61109465
69	0x3d44b776	0.048026524
70	0xbf705129	-0.9387384
71	0xbf4d17cf	-0.80114454
72	0xbea9f7ee	-0.33196968
73	0x3f4d012b	0.8007991
74	0xbf80f01e	-1.0073278
75	0x3e361b7b	0.1778392
76	0x3ea2f886	0.31830233
77	0xbe7c0541	-0.24611379
78	0xbf6bb1a3	-0.9206793
79	0x3c8bfdeb	0.017088851
80	0x3f92c8cb	1.1467527
81	0xbe34a755	-0.17641957
82	0xbe585323	-0.21125464
83	0xbeddc5f8	-0.433151
84	0x3f3d6a58	0.7399039
85	0x3e57ef31	0.21087338
86	0x3f598e75	0.84983
87	0xbe56119e	-0.20905158
88	0xbf8249ab	-1.0178732
89	0x3e447c17	0.19187962
90	0xbf8b5ece	-1.0888307
91	0x3dc26556	0.094919845
92	0x3f86bbbe	1.0526044
93	0x3b65968f	0.0035032367
94	0x3f93033b	1.1485361
95	0xbeadf799	-0.33977965
96	0x3f8b0a5e	1.0862539
97	0x3f1baed9	0.6081367
98	0xbf90364a	-1.1266568
99	0x3d93165c	0.07181999
100	0xc024be74	-2.5741243
101	0x408ba26f	4.3635783
102	0xbf4bc085	-0.79590636
103	0xbc1bfdfd	-0.009521005
104	0x3fcc1ca9	1.5946246
105	0xbdd237c3	-0.10264542
106	0xbee49af1	-0.4464946
107	0xc06a96bd	-3.6654503
108	0xbf8c9bc4	-1.0985036
109	0xbf8439bd	-1.033012
110	0x3f860879	1.0471336
111	0xbd69388b	-0.05693869
112	0x3f7e01ee	0.99221694
113	0xbd742746	-0.059607767
114	0xbf739901	-0.9515534
115	0x3d20f8ef	0.0392999
116	0xbf3d667d	-0.7398451
117	0xbecaa7c6	-0.39581126
118	0x3f8bd22b	1.0923513
119	0xbe94d85e	-0.29071325
120	0xbf60070d	-0.8751076
121	0xbfc82d0e	-1.563875
122	0xbf505a53	-0.81387824
123	0x3f824418	1.017703
124	0x3f840f78	1.0317221
125	0xbde09b61	-0.10967136
126	0x3e83c0fa	0.25733167
127	0x3fce779f	1.6130255

embedding.net_.net_.0.bias f4 [64]
0	0x3f34543d	0.7044104
1	0xbf165ee8	-0.58738565
2	0x3f99bc7f	1.201065
3	0x3d707772	0.058707662
4	0x3e65fc17	0.22459446
5	0xbfb027b0	-1.3762112
6	0xbdb81189	-0.089877196
7	0x3f18c19b	0.5967042
8	0x3e5f5b3f	0.21812151
9	0xbf828ab4	-1.0198579
10	0xbefea7e8	-0.49737477
11	0xbda21d3f	-0.079157345
12	0xbfbc1065	-1.4692503
13	0xbe902da5	-0.28159824
14	0x3fc124a4	1.5089307
15	0x3f26bd13	0.65132254
16	0x3e9c599d	0.3053712
17	0x3de390e7	0.11111622
18	0x3f4a76ef	0.7908773
19	0xbf7ea138	-0.9946475
20	0x3d9b3917	0.075792484
21	0xbe031730	-0.12801814
22	0xbed24335	-0.410669
23	0x3e456a85	0.19278915
24	0x3e71a027	0.2359625
25	0xbf8e9c78	-1.11415
26	0xbf368e45	-0.71310836
27	0xbf27c440	-0.6553383
28	0x3ef97e32	0.48729092
29	0x3f69dbe5	0.9135116
30	0xbfb4ab3f	-1.411476
31	0x3f083c05	0.5321658
32	0xbf2e5e96	-0.68113077
33	0x408dcce3	4.4312606
34	0xbed4e36b	-0.41579756
35	0x3ea5b1f6	0.32362336
36	0x3f8369e0	1.0266685
37	0x3eb1c60a	0.34721404
38	0x3f02b667	0.51059574
39	0x3f46f6af	0.7772016
40	0xbf62a12b	-0.8852717
41	0xbf2c5552	-0.6731769
42	0xbef6668d	-0.48125115
43	0xbe3b26da	-0.1827654
44	0x3eecd545	0.46256462
45	0x3f66bf46	0.9013561
46	0xbf659fc1	-0.8969689
47	0xbee943d4	-0.4555956
48	0xbf0c06d4	-0.5469792
49	0x3f6a74cb	0.9158446
50	0xc0159de4	-2.3377619
51	0x3f004dce	0.5011872
52	0xbfd3095e	-1.6487234
53	0x403db2ee	2.964046
54	0x3e9001a2	0.28126246
55	0xbf5dfa40	-0.86709976
56	0xbf5065c3	-0.81405276
57	0x3f4a50d2	0.7902957
58	0x3e4eba57	0.2018827
59	0xbedbe9b1	-0.4295173
60	0x3fb96d4c	1.448648
61	0xbef76009	-0.48315457
62	0xbf594a27	-0.8487877
63	0xbe3a30b8	-0.18182647

embedding.net_.net_.2.weight f4 [1, 64]
0	0xbf38bde2	-0.7216474
1	0x3f16a889	0.58850914
2	0xbf0465b3	-0.5171768
3	0x400cbfd2	2.1992078
4	0xbf02baba	-0.5106617
5	0x3f4a9d3e	0.7914618
6	0xbee844a7	-0.45364878
7	0x3e4681cf	0.19385456
8	0x3dbb06cb	0.09132155
9	0x3e3dd4fb	0.18538277
10	0x3eaaea38	0.3338182
11	0x3e8d3e11	0.27586415
12	0xbeda4ee4	-0.42638314
13	0x3f390fbd	0.7228964
14	0xbff6b3b0	-1.9273586
15	0xbf2b0aeb	-0.66813534
16	0xbf5d71cf	-0.86501783
17	0xbfaaa4a6	-1.3331497
18	0xbed7eab0	-0.4217124
19	0x3e584ec7	0.21123801
20	0x3f350bb2	0.7072097
21	0xbedd00e9	-0.43164757
22	0x3edef1f8	0.43543983
23	0x3e43d87e	0.19125554
24	0x3e985c9d	0.29758158
25	0x3e49b8d4	0.19699413
26	0x3f854b24	1.0413556
27	0x3f006e12	0.50167954
28	0xbe9f95e8	-0.31169057
29	0xbf173ef2	-0.5908042
30	0x3e5471b7	0.20746504
31	0xbee1d0b3	-0.44104537
32	0x3ecd5231	0.4010177
33	0xbf4e48e5	-0.8057998
34	0x3edb0f55	0.42785135
35	0xbedec602	-0.43510443
36	0xbe543efc	-0.20727152
37	0xbf03c8da	-0.5147835
38	0x3dc7a0ce	0.09747468
39	0xbf563ec9	-0.8368955
40	0x3eca8356	0.39553326
41	0xbdc0aaca	-0.094075754
42	0x3f3927bb	0.7232625
43	0x3ef3c8ed	0.47614232
44	0xbe95faac	-0.2929281
45	0xbf109663	-0.5647947
46	0x3f8e44a1	1.1114694
47	0x3edef3d6	0.43545407
48	0x3f3fe138	0.7495303
49	0xbf1449e7	-0.57925266
50	0xbf725039	-0.9465366
51	0xbebee051	-0.37280515
52	0x3fcfefb4	1.6245027
53	0xbf728b1a	-0.947435
54	0xbf503614	-0.81332517
55	0x3f29c275	0.6631234
56	0x3f151173	0.5822975
57	0xbf2861d2	-0.6577426
58	0xbf0141fe	-0.5049132
59	0x3ee4fc1d	0.44723597
60	0xbf45e28a	-0.77298796
61	0xbe80a66d	-0.25126973
62	0x3f0959dd	0.53652745
63	0x3f48d8eb	0.7845599

stiffness.eigval_ f4 [2]
0	0x405a59f3	3.41174
1	0xbf965abc	-1.174644

stiffness.eigvec_ f4 [2]
0	0x3f9f64d9	1.2452651
1	0x3ede6f85	0.43444458
