models/synthetic_1_bkp.pt (torch, 20535 bytes, 5 tensors)

_embedding.net_.net_.0.weight f4 [64, 2]
000000 0a 35 05 bf 65 24 38 bd 2a e1 29 3f 89 73 5f 3e
       -0.52034056 -0.044956584 0.663592 0.21821417
000010 e2 17 87 be e3 52 e0 be d3 18 c9 3e 96 f9 d2 3d
       -0.2638541 -0.43813238 0.39276752 0.10301511
000020 97 7f ad 3d 32 92 11 bf 4a c6 aa 3e 67 20 cf 3e
       0.084716015 -0.568637 0.33354408 0.4045441
000030 8c 72 39 3f 74 1d f9 3e 9e 3e 26 3f be 79 56 bf
       0.7244041 0.48655283 0.64939296 -0.83779514
000040 4e 16 0f bf ca ca b8 be e7 c7 28 be 05 a6 01 bf
       -0.5589341 -0.36092216 -0.16482507 -0.5064395
000050 10 c2 a7 3e 24 64 05 3f f0 56 38 bf 2e 3e 16 bf
       0.32765245 0.5210593 -0.72007656 -0.5868863
000060 af 11 1e 3f c2 54 51 bf 0a 50 d6 be 31 90 3e 3f
       0.61745733 -0.81769955 -0.4185794 0.7443877
000070 51 3b 0f 3e 7c 3c 78 3e d5 af 47 bf 5f 5f 0e 3f
       0.13987471 0.24241823 -0.78002673 0.55614275
000080 62 87 06 bd 74 6f 52 3f 09 e7 17 3f 79 6d b1 3e
       -0.032843955 0.82201314 0.59336907 0.34653834
000090 02 e9 55 bf 1c f8 29 3f 02 92 28 bf b3 e0 20 bf
       -0.83558667 0.6639421 -0.6584779 -0.62842864
0000a0 46 9a 14 bf 86 7b 84 3e 03 95 dd 3e b9 5e c3 3e
       -0.580479 0.2587549 0.4327775 0.38158205
0000b0 8d f4 f4 be 36 3a 06 3f 59 67 06 be 5c fb 60 3e
       -0.47842827 0.5243257 -0.13125362 0.21970886
0000c0 a1 75 18 3f cf c1 fc 3e e6 bd 23 bf 25 52 9d be
       0.5955449 0.49366614 -0.6396164 -0.30726734
0000d0 6b 91 3b bf ed d3 ea be 07 7f c7 be b9 32 1e 3e
       -0.73268765 -0.45864812 -0.38964102 0.15449037
0000e0 4d ea 1a bf 62 1e c0 be 60 73 bc be 94 62 08 3f
       -0.60513765 -0.3752318 -0.36806774 0.5327542
0000f0 0b 50 13 bf 5d d5 51 be 63 9c 58 bd 4a 37 05 3f
       -0.5754401 -0.20491548 -0.052883517 0.5203749
000100 f6 d9 e6 be c7 34 c0 bb 15 36 cb be 47 b4 30 be
       -0.45088166 -0.0058656665 -0.396897 -0.1725627
000110 46 a0 71 3e 08 a6 27 3f eb 5c e2 be d6 86 94 be
       0.23596296 0.6548772 -0.44211516 -0.29009122
000120 49 de 8e 3e 5a dd 42 3e d1 5d 0f bd b1 a1 44 be
       0.27903965 0.19029751 -0.03500158 -0.19202305
000130 25 1a c4 be b3 f9 12 bf 39 eb 69 be 4d 96 0a bf
       -0.38301197 -0.5741226 -0.22843637 -0.5413559
000140 c2 80 20 bd 1f 96 90 be 47 60 df 3e b6 9f 0d 3b
       -0.039185293 -0.28239533 0.4362814 0.0021610088
000150 02 9c 99 3e dc bc f7 3d 1d 37 6f 3d f4 ee d4 be
       0.30001837 0.12096569 0.05840217 -0.41588557
000160 10 71 fb 3d c5 a4 01 3f eb a0 16 bf 1b ff 35 3f
       0.12277424 0.50642043 -0.5883929 0.71092385
000170 42 48 5d 3e 13 67 0a 3e 93 42 0e bd 20 5a 44 bf
       0.21609595 0.13515882 -0.03473146 -0.7670002
000180 3e 8b 01 3f 9b 42 fc 3d e3 ef d1 3d 9c fc e8 3e
       0.5060309 0.123173915 0.10250833 0.45505226
000190 f7 b8 7a be b6 bb 86 39 e2 d1 65 3f cf 49 80 bf
       -0.24484621 0.00025698327 0.8977338 -1.0022525
0001a0 23 71 1c bf 2a 1e 3b 3e 98 3e 6b bf cf 5f 3a 3f
       -0.6111013 0.18273225 -0.91892385 0.7280244
0001b0 7b b7 a2 3e f6 0d cc be 73 be 99 3e 58 9e e4 3e
       0.3178061 -0.398544 0.30028114 0.44652057
0001c0 0c df 39 bf 46 7b f7 3e 4b c6 b3 bd 53 5b ee 3e
       -0.7260597 0.48336238 -0.08778056 0.4655405
0001d0 be 59 45 be 60 dd ac 3e e9 91 64 bf 61 38 52 3f
       -0.19272515 0.33762646 -0.8928514 0.8211728
0001e0 ba 41 97 be ac db 0e 3f 86 59 b2 be 9c 26 c4 be
       -0.29542333 0.5580394 -0.34833926 -0.38310707
0001f0 8c bb bb be 36 ec 23 3f d3 2c 12 3f 0d b9 78 be
       -0.36666524 0.64032304 0.57099646 -0.24289341

_embedding.net_.net_.0.bias f4 [64]
000000 15 c2 07 3f dd 9f 16 bf 13 3e a1 3e bb bb e2 be
       0.5303052 -0.5883768 0.3149267 -0.44283852
000010 dd 2e 99 3e 82 96 e3 be 58 c6 0b bf f7 ff 08 bf
       0.29918566 -0.44450766 -0.54599524 -0.5351557
000020 ad 74 96 be e3 3a 46 be 07 e8 15 be 01 b3 ba 3e
       -0.29385892 -0.19358401 -0.14639293 0.36464694
000030 d2 e2 56 3f 49 7c 0b 3f ba a5 eb bd bc 7c d7 be
       0.8393985 0.5448652 -0.11506219 -0.42087352
000040 5b 50 51 bf 3b 33 8e 3c ac 96 18 3f 89 ff 02 3f
       -0.8176324 0.017358413 0.5960491 0.51171166
000050 57 e0 ae be 82 9c 08 3e 8a 37 ca 3e 04 e9 6f 3e
       -0.34155533 0.13340953 0.39495498 0.23428732
000060 33 9c df 3c b3 57 e1 be dc a6 db 3e a3 6b 66 be
       0.027296161 -0.44012222 0.4290074 -0.22501998
000070 51 87 d6 3d be ed 12 bf 18 a3 17 3f f4 67 a8 3d
       0.10475028 -0.57394016 0.59233236 0.082229525
000080 97 bc 62 be ca f0 4e be c8 ce 34 bf a6 d5 e3 be
       -0.22142254 -0.20209041 -0.70628023 -0.44498938
000090 a5 cd b9 3e 95 ac 75 be 03 6b 81 3e 61 ca 0b 3f
       0.36289707 -0.23991616 0.25276956 0.5460568
0000a0 07 16 03 3f ad e3 1d bd 04 63 72 3e c4 f6 cc 3e
       0.51205486 -0.038547207 0.23670584 0.40032017
0000b0 82 e5 18 bf 5b b6 5c 3e c6 f1 1b 3e 9c 3a 47 3f
       -0.597252 0.21553938 0.15228948 0.77823806
0000c0 1d c1 85 be 08 e1 31 bc cc 79 87 3c ae 67 f2 be
       -0.26123896 -0.010856874 0.01653757 -0.47344726
0000d0 70 ab d9 3e f5 0f 3f bf 1a e1 97 3e fe d4 06 be
       0.4251361 -0.74633723 0.29663926 -0.13167188
0000e0 bb 20 89 3e c2 3b 11 bf fa 4a 8b be 0d 53 1a 3f
       0.26782784 -0.5673181 -0.2720564 0.60282975
0000f0 d3 5b 23 bf b9 c7 41 3c be 8b cd 3e 65 d5 a0 bd
       -0.6381199 0.011827403 0.40145677 -0.07853202

_embedding.net_.net_.2.weight f4 [64, 64]
000000 c8 dd 4b 3d b7 53 ae bc 7d a8 4e bd 0a 48 87 bd
       0.049772054 -0.021280153 -0.05045365 -0.06605537
000010 12 bb 58 ba 4e 86 31 3d 82 aa cd 3c 31 e9 6d 3e
       -0.0008267622 0.043340974 0.025105719 0.23233487
000020 84 83 02 be 30 a6 0f 3e 5f 1f c4 bd 68 73 86 bd
       -0.12745482 0.14028239 -0.09576296 -0.06564981
000030 a8 d2 59 be 00 d0 d2 bd 0b 52 9d 3c 48 be 9a 3d
       -0.21271765 -0.10293579 0.01920416 0.075558245
000040 e2 a9 96 bd 59 49 4f bc d9 dc f5 bd ef 6c ff bd
       -0.07356621 -0.012651765 -0.12005014 -0.12471949
000050 a1 35 02 bd 9f b8 08 3d 09 c8 c8 bd 31 02 e3 bc
       -0.031789426 0.033379193 -0.09803779 -0.027711006
000060 a2 2d bd 3d 9a c7 93 bc 0e 3d ac bd a8 19 ab 3d
       0.092372194 -0.018039513 -0.08410083 0.08354503
000070 bc 3e b0 bd f9 38 11 3e 03 8e a1 bd e4 46 17 be
       -0.08605716 0.1418189 -0.07888415 -0.14773136
000080 5b a3 b4 bd 8d 9c 6d bd 6b a8 9a 3d 73 cd f0 bc
       -0.0882022 -0.058010627 0.075516544 -0.02939484
000090 60 4d ab 3d a0 1e 76 bd c5 81 97 bb 46 52 9f 3c
       0.083643675 -0.0600878 -0.004623624 0.01944841
0000a0 0e 69 80 3b 08 11 e3 3d 30 64 c5 bc 83 12 b6 bd
       0.0039187735 0.11087233 -0.024095625 -0.088902496
0000b0 2d bc b8 bc 16 5d 26 be b4 8e 91 3d 29 4e 68 bd
       -0.022550667 -0.16246447 0.071072966 -0.056715164
0000c0 32 0d 82 3c 3a ee 7b bd 52 69 56 bd 04 2c 94 3e
       0.015875433 -0.061506487 -0.052346535 0.2893983
0000d0 69 bc 84 bd cf a9 38 3e c7 a1 43 3b f6 19 b3 3d
       -0.06481249 0.18033527 0.0029851065 0.08745186
0000e0 0b d9 4e be 29 ff 92 3d 31 f4 45 3c 5b 77 47 be
       -0.20199983 0.07177574 0.012082146 -0.19479124
0000f0 da c4 10 3a 64 be 00 bc bd eb 19 be 38 8a 93 3d
       0.0005522497 -0.007857893 -0.15031333 0.072040975
000100 6a 0d 08 be 36 06 de 3c 68 c3 91 bc c1 3c 9b 3d
       -0.13286367 0.027102571 -0.017793372 0.07579947
000110 12 b1 27 bc 40 ed 07 3d 11 ea b3 3c eb 06 03 3e
       -0.010235088 0.033185244 0.021962197 0.12795608
000120 65 83 50 3d c8 6f 8c 3c dd 50 f2 bc 62 80 42 bd
       0.050906558 0.017143145 -0.029579574 -0.047485717
000130 4f a4 ad bd 89 8b 39 bd dc 28 f6 ba c2 1d 16 3d
       -0.08478605 -0.045299087 -0.0018780488 0.036649473
000140 c7 cd e4 3d 5f 93 2a 3c 2a af f1 bd 5d 3d 48 3a
       0.111720614 0.010411113 -0.11800988 0.00076385384
000150 e5 2f f6 3c c8 0d 10 3d 76 05 6e bd 5e 66 c7 bd
       0.030052135 0.035169393 -0.058110677 -0.09736322
000160 3b b5 87 3d 5b 43 ad 3c 3c 6c 8d bd f9 3c a7 bb
       0.06626364 0.021150282 -0.0690541 -0.005103704
000170 0e 6c 3f bd 10 ef 58 3d 94 01 d2 bd f3 7d 34 bd
       -0.04673391 0.052962363 -0.10254207 -0.044065427
000180 5e 22 d2 3b 70 29 24 3c ca a6 38 3d 70 34 59 3d
       0.0064127883 0.010019645 0.045080937 0.053028524
000190 c4 44 57 bd 1d 2e 95 bc 5e 52 13 3c 5e 31 c1 bd
       -0.052555814 -0.018210465 0.008991806 -0.09433244
0001a0 0d 3c 2c bd 45 5d e7 3b 84 4f 28 bc 67 72 e1 bc
       -0.042049456 0.007060679 -0.010272864 -0.027520372
0001b0 26 3e 74 3d b4 51 63 bd 1d 7e 01 bd 9c 41 bf bd
       0.059629582 -0.05549784 -0.03161441 -0.09338686
0001c0 97 80 98 3d 77 a1 9c 3c 0d 24 16 bb 2b 39 4d 39
       0.074464016 0.019119961 -0.0022909672 0.0001957162
0001d0 5f 5a 50 bd 80 9d cf 3d e5 bd 89 bd c4 fd 3a 3c
       -0.050867435 0.101374626 -0.06725673 0.0114130415
0001e0 9c 7d 63 bd 1d d7 16 3d 0f 5b 31 3d a8 bc aa bd
       -0.055539712 0.03682624 0.04329973 -0.083367646
0001f0 18 ac 39 3d 19 a5 48 bd 18 84 23 bd a3 b2 22 3d
       0.045330137 -0.048985574 -0.039920896 0.039721143
000200 45 79 c6 3d 54 26 42 be a8 fc fc 3d 95 16 05 be
       0.09691099 -0.18959934 0.12352878 -0.12996896
000210 74 06 fe bd aa 53 ee bb 94 0f 6f be 48 6c c8 3c
       -0.124035746 -0.007273157 -0.23345786 0.024465695
000220 44 ad 72 3d 51 94 5b 3d 40 f9 40 3d dd 4d 6e bc
       0.05924727 0.053608242 0.047112703 -0.014544931
000230 b0 2f ed bd 51 6c e2 bc 86 cc 58 bc e1 90 86 3e
       -0.11581361 -0.02763954 -0.013232356 0.2628241
000240 16 52 e3 3d 2b b9 1d be 33 9e 52 3c 7a ac 02 3c
       0.11099641 -0.15402667 0.0128551 0.007975692
000250 9c e3 4f 3e a0 d1 56 bd 12 65 0e 3e db 70 9a bc
       0.2030167 -0.052446008 0.13905743 -0.018852642
000260 f8 d2 97 bd e3 ab 36 bd ba da c5 3d 24 c2 10 3e
       -0.07413286 -0.044597518 0.096608594 0.14136559
000270 bf 13 dc 3d f9 28 14 3c 85 20 2f 3e 3f 49 93 bd
       0.10745954 0.009042972 0.17102249 -0.07191705
000280 77 a3 c0 3d 92 f4 b7 3d d4 6e 84 bd 50 26 8c bc
       0.094061784 0.08982195 -0.06466451 -0.017108113
000290 94 15 c0 3d f0 a7 92 bd bf aa 94 bd 31 70 a3 3d
       0.09379116 -0.07160938 -0.0725913 0.07980383
0002a0 54 af e7 3c e4 50 88 bd 15 3e ac bd 4e b2 6b bd
       0.028281845 -0.06656054 -0.08410279 -0.05754309
0002b0 39 af 2c be 41 ee 93 bb 1c 48 2f 3b 43 19 3b bd
       -0.16863717 -0.004514486 0.0026745861 -0.04567839
0002c0 79 e1 09 be 73 1f dc 3d 9d 99 d8 3d 41 84 63 bd
       -0.13464917 0.10748186 0.105761744 -0.05554605
0002d0 de f7 6d 3e 36 31 65 3e 21 b1 00 be fb 04 7b 3c
       0.23239085 0.22382054 -0.1256757 0.015321012
0002e0 f4 d4 5d 3e 28 ee 99 bd 18 2a 02 bd ce 38 74 bd
       0.21663266 -0.07516128 -0.031778425 -0.059624486
0002f0 c7 1e bb 3d 9d 72 13 bd 52 56 92 3d 87 90 13 be
       0.0913673 -0.035997976 0.071453705 -0.14410602
000300 cc a3 35 3d 53 5e 60 3d 24 3d 6d 3c 45 6c 74 bc
       0.044345662 0.054777455 0.014479909 -0.014918392
000310 b7 81 e3 bd 81 16 7a bd f8 b2 bb 3d f9 1b 8f be
       -0.111087255 -0.061056618 0.09164995 -0.2795103
000320 ab 35 10 be 70 18 68 be 92 d0 a6 3d d6 89 7a 3d
       -0.14082973 -0.22665572 0.081452504 0.061166607
000330 8e 2d be bc 21 5d 8d 3e fe 54 49 bc 57 38 22 3e
       -0.023215082 0.27610114 -0.01228833 0.15841804
000340 be 91 b1 3d e0 77 63 3d 1f 69 11 3e 4f 4a 34 3c
       0.08670376 0.055534244 0.14200257 0.011004045
000350 65 1e 95 bc 6a 4f be 3d 1a a2 83 3e 51 e4 c2 3d
       -0.01820297 0.09292491 0.2570961 0.09516204
000360 4f fe 2e 3e 2c 18 c4 bd 48 b7 48 3d e1 0b 8d bd
       0.17089199 -0.09574923 0.049002916 -0.06887031
000370 a8 7e cc bc 1f 27 06 3e ba 88 16 3d 28 98 1a 3e
       -0.024962738 0.13100861 0.036751486 0.15097106
000380 a5 46 3d bd a0 30 7c bd cd 1e 78 bd ad 15 39 be
       -0.04620995 -0.06156981 -0.06057625 -0.18074675
000390 2b c6 24 3e b8 2d db bd a4 48 53 bd 1d 0f 37 3c
       0.1609122 -0.107020795 -0.051582947 0.011173037
0003a0 a6 f7 e3 3d 77 98 fd bb 14 20 2a 3d 22 06 53 3d
       0.111312196 -0.0077391225 0.0415345 0.05151952
0003b0 74 43 7f 3d e1 c2 81 3e dd 25 0b 3d d9 16 5b bd
       0.062320188 0.25343993 0.033971656 -0.053488586
0003c0 ae 5b 36 3d cf 54 d5 3d 6a b5 8c 3c 10 17 d9 bd
       0.044521026 0.104165666 0.017176349 -0.10600102
0003d0 42 35 01 3e 97 14 23 3c c0 16 39 bd ba 56 2d 3d
       0.12617972 0.0099536395 -0.04518771 0.042319037
0003e0 66 d3 06 3e 3e be 27 bc 2a 34 16 3d 12 77 8f 3e
       0.1316658 -0.010238228 0.03667084 0.2802053
0003f0 0e 2c 9d 3d ed de b5 bd 2b f9 87 3e 37 9d 88 bd
       0.076744184 -0.0888041 0.26557288 -0.06670611

_embedding.net_.net_.2.bias f4 [64]
000000 70 11 8e bc b9 2a 07 be 9b 52 78 3c f2 48 a4 bc
       -0.0173423 -0.13199891 0.015156413 -0.020054314
000010 19 88 9b 3d aa 6f 7d bd a6 55 5d 3d 89 34 3e be
       0.07594318 -0.06187407 0.05403676 -0.18574728
000020 19 9c d4 bc b6 23 03 be 01 85 eb 3d 11 61 96 bc
       -0.02595334 -0.12806591 0.11499978 -0.018356832
000030 0e e9 24 3d 28 1d 71 3d cf 83 30 bc d6 ce 5d bd
       0.04026132 0.058865696 -0.010773613 -0.054152332
000040 c3 7b 3f 3d b3 9b a9 3c df 85 de bc 4f 07 35 3e
       0.046748888 0.020704126 -0.027163444 0.1767857
000050 e3 78 89 3d e7 d8 a7 3d 8a 29 b1 3b fc 88 91 3d
       0.067125104 0.08195668 0.005406563 0.07106206
000060 bd bc 0a 3e 94 c7 18 3e de 72 f8 3d 37 bb ad bc
       0.1354856 0.14919883 0.12131284 -0.021207435
000070 bc de 62 3d ce 20 c8 3c 77 87 39 3d 92 69 92 3d
       0.055388197 0.024429705 0.045295205 0.07149042
000080 2d 4f da 3d c3 0c 4b be ab 87 0f be 70 13 dd bd
       0.10659633 -0.19829087 -0.14016597 -0.10794723
000090 27 24 70 3e ea 1c ed bd 49 1a 68 3d ff 11 98 bc
       0.23451291 -0.115777805 0.056665692 -0.018563269
0000a0 bd 37 99 3b 04 24 97 3d b5 0e 3a 3e db 37 d8 3d
       0.004675834 0.07379916 0.18169673 0.105575286
0000b0 29 38 79 bd 8e ae d0 bc 74 82 65 3d be 69 a0 3d
       -0.060844574 -0.02547386 0.056032613 0.07832669
0000c0 da 20 f3 bc 7b ae 91 bd ef 58 e0 3d ab f0 bc 3d
       -0.02967875 -0.07113358 0.10954463 0.09225591
0000d0 8a 27 20 3e f2 26 d9 bc 9b 72 53 3d da e7 3a 3d
       0.15640083 -0.026507828 0.05162297 0.045631267
0000e0 fc df ca 3d f8 96 9c bd 83 c6 11 3e 65 9b ee 3d
       0.09906003 -0.076459825 0.14235882 0.11650733
0000f0 ab 77 bc 3d e0 b4 46 bd 46 6a 71 3d 74 e5 21 be
       0.09202512 -0.04851234 0.05893924 -0.15810186

_embedding.net_.net_.4.weight f4 [1, 64]
000000 cb 80 1d be f0 09 a0 bc a2 55 05 be ff ef d6 3d
       -0.15381162 -0.019535989 -0.13020948 0.10494994
000010 88 61 3f be f6 87 9a bd b7 73 14 be 22 18 40 bd
       -0.18689549 -0.07545464 -0.14497267 -0.046898015
000020 51 01 a2 bd 52 54 cd 3d 73 7b 04 be cd 22 4a be
       -0.07910407 0.100258484 -0.12937717 -0.19739838
000030 1f 0a b3 3d 40 e2 3e 3e fa f7 9d bd 66 8c 1f 3e
       0.08742165 0.18640995 -0.077133134 0.15580902
000040 7b cc 1d be 78 72 84 3d 05 b5 6d 3d 06 55 8d 3e
       -0.15410034 0.06467146 0.05803396 0.2760393
000050 19 21 09 3e b5 3c 6d 3c e8 46 9a bd 2d da eb bd
       0.13391532 0.014479806 -0.075330555 -0.11516223
000060 f7 f2 14 be 90 57 06 be fa 52 24 3c a6 58 e2 bb
       -0.14545809 -0.1311934 0.010029549 -0.0069075404
000070 6c 48 cb 3d 10 f4 5c 3c e2 e8 19 3e f6 22 49 be
       0.09925923 0.013485923 0.15030244 -0.19642243
000080 e1 06 25 be 1a f2 bd bc 00 b7 f7 bd 6c 25 6c bd
       -0.16115905 -0.023186732 -0.12095451 -0.057652876
000090 5b 87 7c 3d 52 ed 42 3e a2 b0 bd 3d 23 5c f9 3d
       0.061652523 0.19035843 0.09262206 0.12175777
0000a0 30 2a 19 be f7 0a 34 bd bc 37 12 3d 39 f7 18 be
       -0.149575 -0.04395577 0.035697684 -0.14938058
0000b0 10 5c 0e 3c 3b 4f 55 be 51 2e ca 3d 56 5c 27 3c
       0.008688942 -0.20831005 0.098721154 0.010214886
0000c0 26 47 cd bc cf 86 39 3e 81 2d 4e 3e 85 bb 24 3e
       -0.02505834 0.18117832 0.20134546 0.16087158
0000d0 fb 89 03 3d 05 16 2c 3e 4b 36 32 3c ca c7 a7 3b
       0.03211401 0.16805275 0.010877202 0.0051202523
0000e0 ea f3 cf 3e ef 53 e8 bc fa 4f 06 3e da e4 80 3e
       0.4061578 -0.028360335 0.13116446 0.251746
0000f0 e9 5e d8 3d 1a dc 4a bd 8f 03 a6 bd 46 b1 43 bd
       0.10564978 -0.04952631 -0.081061475 -0.047776483
